layer {
  name: "data"
  type: "Input"
  top: "data"
  include {
    phase: TEST
  }
  input_param {
    shape {
      dim: 256
      dim: 3
      dim: 224
      dim: 224
    }
  }
}
layer {
  name: "Convolution1"
  type: "Convolution"
  bottom: "data"
  top: "Convolution1"
  convolution_param {
    num_output: 64
    bias_term: false
    pad: 3
    kernel_size: 7
    stride: 2
    weight_filler {
      type: "xavier"
    }
    bias_filler {
      type: "constant"
    }
  }
}
layer {
  name: "BatchNorm1"
  type: "BatchNorm"
  bottom: "Convolution1"
  top: "BatchNorm1"
  param {
    lr_mult: 0
    decay_mult: 0
  }
  param {
    lr_mult: 0
    decay_mult: 0
  }
  param {
    lr_mult: 0
    decay_mult: 0
  }
}
layer {
  name: "Scale1"
  type: "Scale"
  bottom: "BatchNorm1"
  top: "BatchNorm1"
  scale_param {
    filler {
      value: 1
    }
    bias_term: true
    bias_filler {
      value: 0
    }
  }
}
layer {
  name: "conv1"
  type: "ReLU"
  bottom: "BatchNorm1"
  top: "BatchNorm1"
}
layer {
  name: "pool1"
  type: "Pooling"
  bottom: "BatchNorm1"
  top: "pool1"
  pooling_param {
    pool: MAX
    kernel_size: 2
    stride: 2
  }
}
layer {
  name: "BatchNorm2"
  type: "BatchNorm"
  bottom: "pool1"
  top: "BatchNorm2"
  param {
    lr_mult: 0
    decay_mult: 0
  }
  param {
    lr_mult: 0
    decay_mult: 0
  }
  param {
    lr_mult: 0
    decay_mult: 0
  }
}
layer {
  name: "Scale2"
  type: "Scale"
  bottom: "BatchNorm2"
  top: "BatchNorm2"
  scale_param {
    filler {
      value: 1
    }
    bias_term: true
    bias_filler {
      value: 0
    }
  }
}
layer {
  name: "ReLU1"
  type: "ReLU"
  bottom: "BatchNorm2"
  top: "BatchNorm2"
}
layer {
  name: "Convolution2"
  type: "Convolution"
  bottom: "BatchNorm2"
  top: "Convolution2"
  convolution_param {
    num_output: 128
    bias_term: false
    pad: 0
    kernel_size: 1
    stride: 1
    weight_filler {
      type: "xavier"
    }
    bias_filler {
      type: "constant"
    }
  }
}
layer {
  name: "BatchNorm3"
  type: "BatchNorm"
  bottom: "Convolution2"
  top: "BatchNorm3"
  param {
    lr_mult: 0
    decay_mult: 0
  }
  param {
    lr_mult: 0
    decay_mult: 0
  }
  param {
    lr_mult: 0
    decay_mult: 0
  }
}
layer {
  name: "Scale3"
  type: "Scale"
  bottom: "BatchNorm3"
  top: "BatchNorm3"
  scale_param {
    filler {
      value: 1
    }
    bias_term: true
    bias_filler {
      value: 0
    }
  }
}
layer {
  name: "ReLU2"
  type: "ReLU"
  bottom: "BatchNorm3"
  top: "BatchNorm3"
}
layer {
  name: "Convolution3"
  type: "Convolution"
  bottom: "BatchNorm3"
  top: "Convolution3"
  convolution_param {
    num_output: 32
    bias_term: false
    pad: 1
    kernel_size: 3
    stride: 1
    weight_filler {
      type: "xavier"
    }
    bias_filler {
      type: "constant"
    }
  }
}
layer {
  name: "concat_0_0"
  type: "Concat"
  bottom: "pool1"
  bottom: "Convolution3"
  top: "Concat1"
}
layer {
  name: "BatchNorm4"
  type: "BatchNorm"
  bottom: "Concat1"
  top: "BatchNorm4"
  param {
    lr_mult: 0
    decay_mult: 0
  }
  param {
    lr_mult: 0
    decay_mult: 0
  }
  param {
    lr_mult: 0
    decay_mult: 0
  }
}
layer {
  name: "Scale4"
  type: "Scale"
  bottom: "BatchNorm4"
  top: "BatchNorm4"
  scale_param {
    filler {
      value: 1
    }
    bias_term: true
    bias_filler {
      value: 0
    }
  }
}
layer {
  name: "ReLU3"
  type: "ReLU"
  bottom: "BatchNorm4"
  top: "BatchNorm4"
}
layer {
  name: "Convolution4"
  type: "Convolution"
  bottom: "BatchNorm4"
  top: "Convolution4"
  convolution_param {
    num_output: 128
    bias_term: false
    pad: 0
    kernel_size: 1
    stride: 1
    weight_filler {
      type: "xavier"
    }
    bias_filler {
      type: "constant"
    }
  }
}
layer {
  name: "BatchNorm5"
  type: "BatchNorm"
  bottom: "Convolution4"
  top: "BatchNorm5"
  param {
    lr_mult: 0
    decay_mult: 0
  }
  param {
    lr_mult: 0
    decay_mult: 0
  }
  param {
    lr_mult: 0
    decay_mult: 0
  }
}
layer {
  name: "Scale5"
  type: "Scale"
  bottom: "BatchNorm5"
  top: "BatchNorm5"
  scale_param {
    filler {
      value: 1
    }
    bias_term: true
    bias_filler {
      value: 0
    }
  }
}
layer {
  name: "ReLU4"
  type: "ReLU"
  bottom: "BatchNorm5"
  top: "BatchNorm5"
}
layer {
  name: "Convolution5"
  type: "Convolution"
  bottom: "BatchNorm5"
  top: "Convolution5"
  convolution_param {
    num_output: 32
    bias_term: false
    pad: 1
    kernel_size: 3
    stride: 1
    weight_filler {
      type: "xavier"
    }
    bias_filler {
      type: "constant"
    }
  }
}
layer {
  name: "concat_0_1"
  type: "Concat"
  bottom: "Concat1"
  bottom: "Convolution5"
  top: "Concat2"
}
layer {
  name: "BatchNorm6"
  type: "BatchNorm"
  bottom: "Concat2"
  top: "BatchNorm6"
  param {
    lr_mult: 0
    decay_mult: 0
  }
  param {
    lr_mult: 0
    decay_mult: 0
  }
  param {
    lr_mult: 0
    decay_mult: 0
  }
}
layer {
  name: "Scale6"
  type: "Scale"
  bottom: "BatchNorm6"
  top: "BatchNorm6"
  scale_param {
    filler {
      value: 1
    }
    bias_term: true
    bias_filler {
      value: 0
    }
  }
}
layer {
  name: "ReLU5"
  type: "ReLU"
  bottom: "BatchNorm6"
  top: "BatchNorm6"
}
layer {
  name: "Convolution6"
  type: "Convolution"
  bottom: "BatchNorm6"
  top: "Convolution6"
  convolution_param {
    num_output: 128
    bias_term: false
    pad: 0
    kernel_size: 1
    stride: 1
    weight_filler {
      type: "xavier"
    }
    bias_filler {
      type: "constant"
    }
  }
}
layer {
  name: "BatchNorm7"
  type: "BatchNorm"
  bottom: "Convolution6"
  top: "BatchNorm7"
  param {
    lr_mult: 0
    decay_mult: 0
  }
  param {
    lr_mult: 0
    decay_mult: 0
  }
  param {
    lr_mult: 0
    decay_mult: 0
  }
}
layer {
  name: "Scale7"
  type: "Scale"
  bottom: "BatchNorm7"
  top: "BatchNorm7"
  scale_param {
    filler {
      value: 1
    }
    bias_term: true
    bias_filler {
      value: 0
    }
  }
}
layer {
  name: "ReLU6"
  type: "ReLU"
  bottom: "BatchNorm7"
  top: "BatchNorm7"
}
layer {
  name: "Convolution7"
  type: "Convolution"
  bottom: "BatchNorm7"
  top: "Convolution7"
  convolution_param {
    num_output: 32
    bias_term: false
    pad: 1
    kernel_size: 3
    stride: 1
    weight_filler {
      type: "xavier"
    }
    bias_filler {
      type: "constant"
    }
  }
}
layer {
  name: "concat_0_2"
  type: "Concat"
  bottom: "Concat2"
  bottom: "Convolution7"
  top: "Concat3"
}
layer {
  name: "BatchNorm8"
  type: "BatchNorm"
  bottom: "Concat3"
  top: "BatchNorm8"
  param {
    lr_mult: 0
    decay_mult: 0
  }
  param {
    lr_mult: 0
    decay_mult: 0
  }
  param {
    lr_mult: 0
    decay_mult: 0
  }
}
layer {
  name: "Scale8"
  type: "Scale"
  bottom: "BatchNorm8"
  top: "BatchNorm8"
  scale_param {
    filler {
      value: 1
    }
    bias_term: true
    bias_filler {
      value: 0
    }
  }
}
layer {
  name: "ReLU7"
  type: "ReLU"
  bottom: "BatchNorm8"
  top: "BatchNorm8"
}
layer {
  name: "Convolution8"
  type: "Convolution"
  bottom: "BatchNorm8"
  top: "Convolution8"
  convolution_param {
    num_output: 128
    bias_term: false
    pad: 0
    kernel_size: 1
    stride: 1
    weight_filler {
      type: "xavier"
    }
    bias_filler {
      type: "constant"
    }
  }
}
layer {
  name: "BatchNorm9"
  type: "BatchNorm"
  bottom: "Convolution8"
  top: "BatchNorm9"
  param {
    lr_mult: 0
    decay_mult: 0
  }
  param {
    lr_mult: 0
    decay_mult: 0
  }
  param {
    lr_mult: 0
    decay_mult: 0
  }
}
layer {
  name: "Scale9"
  type: "Scale"
  bottom: "BatchNorm9"
  top: "BatchNorm9"
  scale_param {
    filler {
      value: 1
    }
    bias_term: true
    bias_filler {
      value: 0
    }
  }
}
layer {
  name: "ReLU8"
  type: "ReLU"
  bottom: "BatchNorm9"
  top: "BatchNorm9"
}
layer {
  name: "Convolution9"
  type: "Convolution"
  bottom: "BatchNorm9"
  top: "Convolution9"
  convolution_param {
    num_output: 32
    bias_term: false
    pad: 1
    kernel_size: 3
    stride: 1
    weight_filler {
      type: "xavier"
    }
    bias_filler {
      type: "constant"
    }
  }
}
layer {
  name: "concat_0_3"
  type: "Concat"
  bottom: "Concat3"
  bottom: "Convolution9"
  top: "Concat4"
}
layer {
  name: "BatchNorm10"
  type: "BatchNorm"
  bottom: "Concat4"
  top: "BatchNorm10"
  param {
    lr_mult: 0
    decay_mult: 0
  }
  param {
    lr_mult: 0
    decay_mult: 0
  }
  param {
    lr_mult: 0
    decay_mult: 0
  }
}
layer {
  name: "Scale10"
  type: "Scale"
  bottom: "BatchNorm10"
  top: "BatchNorm10"
  scale_param {
    filler {
      value: 1
    }
    bias_term: true
    bias_filler {
      value: 0
    }
  }
}
layer {
  name: "ReLU9"
  type: "ReLU"
  bottom: "BatchNorm10"
  top: "BatchNorm10"
}
layer {
  name: "Convolution10"
  type: "Convolution"
  bottom: "BatchNorm10"
  top: "Convolution10"
  convolution_param {
    num_output: 128
    bias_term: false
    pad: 0
    kernel_size: 1
    stride: 1
    weight_filler {
      type: "xavier"
    }
    bias_filler {
      type: "constant"
    }
  }
}
layer {
  name: "BatchNorm11"
  type: "BatchNorm"
  bottom: "Convolution10"
  top: "BatchNorm11"
  param {
    lr_mult: 0
    decay_mult: 0
  }
  param {
    lr_mult: 0
    decay_mult: 0
  }
  param {
    lr_mult: 0
    decay_mult: 0
  }
}
layer {
  name: "Scale11"
  type: "Scale"
  bottom: "BatchNorm11"
  top: "BatchNorm11"
  scale_param {
    filler {
      value: 1
    }
    bias_term: true
    bias_filler {
      value: 0
    }
  }
}
layer {
  name: "ReLU10"
  type: "ReLU"
  bottom: "BatchNorm11"
  top: "BatchNorm11"
}
layer {
  name: "Convolution11"
  type: "Convolution"
  bottom: "BatchNorm11"
  top: "Convolution11"
  convolution_param {
    num_output: 32
    bias_term: false
    pad: 1
    kernel_size: 3
    stride: 1
    weight_filler {
      type: "xavier"
    }
    bias_filler {
      type: "constant"
    }
  }
}
layer {
  name: "concat_0_4"
  type: "Concat"
  bottom: "Concat4"
  bottom: "Convolution11"
  top: "Concat5"
}
layer {
  name: "BatchNorm12"
  type: "BatchNorm"
  bottom: "Concat5"
  top: "BatchNorm12"
  param {
    lr_mult: 0
    decay_mult: 0
  }
  param {
    lr_mult: 0
    decay_mult: 0
  }
  param {
    lr_mult: 0
    decay_mult: 0
  }
}
layer {
  name: "Scale12"
  type: "Scale"
  bottom: "BatchNorm12"
  top: "BatchNorm12"
  scale_param {
    filler {
      value: 1
    }
    bias_term: true
    bias_filler {
      value: 0
    }
  }
}
layer {
  name: "ReLU11"
  type: "ReLU"
  bottom: "BatchNorm12"
  top: "BatchNorm12"
}
layer {
  name: "Convolution12"
  type: "Convolution"
  bottom: "BatchNorm12"
  top: "Convolution12"
  convolution_param {
    num_output: 128
    bias_term: false
    pad: 0
    kernel_size: 1
    stride: 1
    weight_filler {
      type: "xavier"
    }
    bias_filler {
      type: "constant"
    }
  }
}
layer {
  name: "BatchNorm13"
  type: "BatchNorm"
  bottom: "Convolution12"
  top: "BatchNorm13"
  param {
    lr_mult: 0
    decay_mult: 0
  }
  param {
    lr_mult: 0
    decay_mult: 0
  }
  param {
    lr_mult: 0
    decay_mult: 0
  }
}
layer {
  name: "Scale13"
  type: "Scale"
  bottom: "BatchNorm13"
  top: "BatchNorm13"
  scale_param {
    filler {
      value: 1
    }
    bias_term: true
    bias_filler {
      value: 0
    }
  }
}
layer {
  name: "ReLU12"
  type: "ReLU"
  bottom: "BatchNorm13"
  top: "BatchNorm13"
}
layer {
  name: "Convolution13"
  type: "Convolution"
  bottom: "BatchNorm13"
  top: "Convolution13"
  convolution_param {
    num_output: 32
    bias_term: false
    pad: 1
    kernel_size: 3
    stride: 1
    weight_filler {
      type: "xavier"
    }
    bias_filler {
      type: "constant"
    }
  }
}
layer {
  name: "concat_0_5"
  type: "Concat"
  bottom: "Concat5"
  bottom: "Convolution13"
  top: "Concat6"
}
layer {
  name: "BatchNorm14"
  type: "BatchNorm"
  bottom: "Concat6"
  top: "BatchNorm14"
  param {
    lr_mult: 0
    decay_mult: 0
  }
  param {
    lr_mult: 0
    decay_mult: 0
  }
  param {
    lr_mult: 0
    decay_mult: 0
  }
}
layer {
  name: "Scale14"
  type: "Scale"
  bottom: "BatchNorm14"
  top: "BatchNorm14"
  scale_param {
    filler {
      value: 1
    }
    bias_term: true
    bias_filler {
      value: 0
    }
  }
}
layer {
  name: "ReLU13"
  type: "ReLU"
  bottom: "BatchNorm14"
  top: "BatchNorm14"
}
layer {
  name: "Convolution14"
  type: "Convolution"
  bottom: "BatchNorm14"
  top: "Convolution14"
  convolution_param {
    num_output: 128
    bias_term: false
    pad: 0
    kernel_size: 1
    stride: 1
    weight_filler {
      type: "xavier"
    }
    bias_filler {
      type: "constant"
    }
  }
}
layer {
  name: "Pooling1"
  type: "Pooling"
  bottom: "Convolution14"
  top: "Pooling1"
  pooling_param {
    pool: AVE
    kernel_size: 2
    stride: 2
  }
}
layer {
  name: "BatchNorm15"
  type: "BatchNorm"
  bottom: "Pooling1"
  top: "BatchNorm15"
  param {
    lr_mult: 0
    decay_mult: 0
  }
  param {
    lr_mult: 0
    decay_mult: 0
  }
  param {
    lr_mult: 0
    decay_mult: 0
  }
}
layer {
  name: "Scale15"
  type: "Scale"
  bottom: "BatchNorm15"
  top: "BatchNorm15"
  scale_param {
    filler {
      value: 1
    }
    bias_term: true
    bias_filler {
      value: 0
    }
  }
}
layer {
  name: "ReLU14"
  type: "ReLU"
  bottom: "BatchNorm15"
  top: "BatchNorm15"
}
layer {
  name: "Convolution15"
  type: "Convolution"
  bottom: "BatchNorm15"
  top: "Convolution15"
  convolution_param {
    num_output: 128
    bias_term: false
    pad: 0
    kernel_size: 1
    stride: 1
    weight_filler {
      type: "xavier"
    }
    bias_filler {
      type: "constant"
    }
  }
}
layer {
  name: "BatchNorm16"
  type: "BatchNorm"
  bottom: "Convolution15"
  top: "BatchNorm16"
  param {
    lr_mult: 0
    decay_mult: 0
  }
  param {
    lr_mult: 0
    decay_mult: 0
  }
  param {
    lr_mult: 0
    decay_mult: 0
  }
}
layer {
  name: "Scale16"
  type: "Scale"
  bottom: "BatchNorm16"
  top: "BatchNorm16"
  scale_param {
    filler {
      value: 1
    }
    bias_term: true
    bias_filler {
      value: 0
    }
  }
}
layer {
  name: "ReLU15"
  type: "ReLU"
  bottom: "BatchNorm16"
  top: "BatchNorm16"
}
layer {
  name: "Convolution16"
  type: "Convolution"
  bottom: "BatchNorm16"
  top: "Convolution16"
  convolution_param {
    num_output: 32
    bias_term: false
    pad: 1
    kernel_size: 3
    stride: 1
    weight_filler {
      type: "xavier"
    }
    bias_filler {
      type: "constant"
    }
  }
}
layer {
  name: "concat_1_0"
  type: "Concat"
  bottom: "Pooling1"
  bottom: "Convolution16"
  top: "Concat7"
}
layer {
  name: "BatchNorm17"
  type: "BatchNorm"
  bottom: "Concat7"
  top: "BatchNorm17"
  param {
    lr_mult: 0
    decay_mult: 0
  }
  param {
    lr_mult: 0
    decay_mult: 0
  }
  param {
    lr_mult: 0
    decay_mult: 0
  }
}
layer {
  name: "Scale17"
  type: "Scale"
  bottom: "BatchNorm17"
  top: "BatchNorm17"
  scale_param {
    filler {
      value: 1
    }
    bias_term: true
    bias_filler {
      value: 0
    }
  }
}
layer {
  name: "ReLU16"
  type: "ReLU"
  bottom: "BatchNorm17"
  top: "BatchNorm17"
}
layer {
  name: "Convolution17"
  type: "Convolution"
  bottom: "BatchNorm17"
  top: "Convolution17"
  convolution_param {
    num_output: 128
    bias_term: false
    pad: 0
    kernel_size: 1
    stride: 1
    weight_filler {
      type: "xavier"
    }
    bias_filler {
      type: "constant"
    }
  }
}
layer {
  name: "BatchNorm18"
  type: "BatchNorm"
  bottom: "Convolution17"
  top: "BatchNorm18"
  param {
    lr_mult: 0
    decay_mult: 0
  }
  param {
    lr_mult: 0
    decay_mult: 0
  }
  param {
    lr_mult: 0
    decay_mult: 0
  }
}
layer {
  name: "Scale18"
  type: "Scale"
  bottom: "BatchNorm18"
  top: "BatchNorm18"
  scale_param {
    filler {
      value: 1
    }
    bias_term: true
    bias_filler {
      value: 0
    }
  }
}
layer {
  name: "ReLU17"
  type: "ReLU"
  bottom: "BatchNorm18"
  top: "BatchNorm18"
}
layer {
  name: "Convolution18"
  type: "Convolution"
  bottom: "BatchNorm18"
  top: "Convolution18"
  convolution_param {
    num_output: 32
    bias_term: false
    pad: 1
    kernel_size: 3
    stride: 1
    weight_filler {
      type: "xavier"
    }
    bias_filler {
      type: "constant"
    }
  }
}
layer {
  name: "concat_1_1"
  type: "Concat"
  bottom: "Concat7"
  bottom: "Convolution18"
  top: "Concat8"
}
layer {
  name: "BatchNorm19"
  type: "BatchNorm"
  bottom: "Concat8"
  top: "BatchNorm19"
  param {
    lr_mult: 0
    decay_mult: 0
  }
  param {
    lr_mult: 0
    decay_mult: 0
  }
  param {
    lr_mult: 0
    decay_mult: 0
  }
}
layer {
  name: "Scale19"
  type: "Scale"
  bottom: "BatchNorm19"
  top: "BatchNorm19"
  scale_param {
    filler {
      value: 1
    }
    bias_term: true
    bias_filler {
      value: 0
    }
  }
}
layer {
  name: "ReLU18"
  type: "ReLU"
  bottom: "BatchNorm19"
  top: "BatchNorm19"
}
layer {
  name: "Convolution19"
  type: "Convolution"
  bottom: "BatchNorm19"
  top: "Convolution19"
  convolution_param {
    num_output: 128
    bias_term: false
    pad: 0
    kernel_size: 1
    stride: 1
    weight_filler {
      type: "xavier"
    }
    bias_filler {
      type: "constant"
    }
  }
}
layer {
  name: "BatchNorm20"
  type: "BatchNorm"
  bottom: "Convolution19"
  top: "BatchNorm20"
  param {
    lr_mult: 0
    decay_mult: 0
  }
  param {
    lr_mult: 0
    decay_mult: 0
  }
  param {
    lr_mult: 0
    decay_mult: 0
  }
}
layer {
  name: "Scale20"
  type: "Scale"
  bottom: "BatchNorm20"
  top: "BatchNorm20"
  scale_param {
    filler {
      value: 1
    }
    bias_term: true
    bias_filler {
      value: 0
    }
  }
}
layer {
  name: "ReLU19"
  type: "ReLU"
  bottom: "BatchNorm20"
  top: "BatchNorm20"
}
layer {
  name: "Convolution20"
  type: "Convolution"
  bottom: "BatchNorm20"
  top: "Convolution20"
  convolution_param {
    num_output: 32
    bias_term: false
    pad: 1
    kernel_size: 3
    stride: 1
    weight_filler {
      type: "xavier"
    }
    bias_filler {
      type: "constant"
    }
  }
}
layer {
  name: "concat_1_2"
  type: "Concat"
  bottom: "Concat8"
  bottom: "Convolution20"
  top: "Concat9"
}
layer {
  name: "BatchNorm21"
  type: "BatchNorm"
  bottom: "Concat9"
  top: "BatchNorm21"
  param {
    lr_mult: 0
    decay_mult: 0
  }
  param {
    lr_mult: 0
    decay_mult: 0
  }
  param {
    lr_mult: 0
    decay_mult: 0
  }
}
layer {
  name: "Scale21"
  type: "Scale"
  bottom: "BatchNorm21"
  top: "BatchNorm21"
  scale_param {
    filler {
      value: 1
    }
    bias_term: true
    bias_filler {
      value: 0
    }
  }
}
layer {
  name: "ReLU20"
  type: "ReLU"
  bottom: "BatchNorm21"
  top: "BatchNorm21"
}
layer {
  name: "Convolution21"
  type: "Convolution"
  bottom: "BatchNorm21"
  top: "Convolution21"
  convolution_param {
    num_output: 128
    bias_term: false
    pad: 0
    kernel_size: 1
    stride: 1
    weight_filler {
      type: "xavier"
    }
    bias_filler {
      type: "constant"
    }
  }
}
layer {
  name: "BatchNorm22"
  type: "BatchNorm"
  bottom: "Convolution21"
  top: "BatchNorm22"
  param {
    lr_mult: 0
    decay_mult: 0
  }
  param {
    lr_mult: 0
    decay_mult: 0
  }
  param {
    lr_mult: 0
    decay_mult: 0
  }
}
layer {
  name: "Scale22"
  type: "Scale"
  bottom: "BatchNorm22"
  top: "BatchNorm22"
  scale_param {
    filler {
      value: 1
    }
    bias_term: true
    bias_filler {
      value: 0
    }
  }
}
layer {
  name: "ReLU21"
  type: "ReLU"
  bottom: "BatchNorm22"
  top: "BatchNorm22"
}
layer {
  name: "Convolution22"
  type: "Convolution"
  bottom: "BatchNorm22"
  top: "Convolution22"
  convolution_param {
    num_output: 32
    bias_term: false
    pad: 1
    kernel_size: 3
    stride: 1
    weight_filler {
      type: "xavier"
    }
    bias_filler {
      type: "constant"
    }
  }
}
layer {
  name: "concat_1_3"
  type: "Concat"
  bottom: "Concat9"
  bottom: "Convolution22"
  top: "Concat10"
}
layer {
  name: "BatchNorm23"
  type: "BatchNorm"
  bottom: "Concat10"
  top: "BatchNorm23"
  param {
    lr_mult: 0
    decay_mult: 0
  }
  param {
    lr_mult: 0
    decay_mult: 0
  }
  param {
    lr_mult: 0
    decay_mult: 0
  }
}
layer {
  name: "Scale23"
  type: "Scale"
  bottom: "BatchNorm23"
  top: "BatchNorm23"
  scale_param {
    filler {
      value: 1
    }
    bias_term: true
    bias_filler {
      value: 0
    }
  }
}
layer {
  name: "ReLU22"
  type: "ReLU"
  bottom: "BatchNorm23"
  top: "BatchNorm23"
}
layer {
  name: "Convolution23"
  type: "Convolution"
  bottom: "BatchNorm23"
  top: "Convolution23"
  convolution_param {
    num_output: 128
    bias_term: false
    pad: 0
    kernel_size: 1
    stride: 1
    weight_filler {
      type: "xavier"
    }
    bias_filler {
      type: "constant"
    }
  }
}
layer {
  name: "BatchNorm24"
  type: "BatchNorm"
  bottom: "Convolution23"
  top: "BatchNorm24"
  param {
    lr_mult: 0
    decay_mult: 0
  }
  param {
    lr_mult: 0
    decay_mult: 0
  }
  param {
    lr_mult: 0
    decay_mult: 0
  }
}
layer {
  name: "Scale24"
  type: "Scale"
  bottom: "BatchNorm24"
  top: "BatchNorm24"
  scale_param {
    filler {
      value: 1
    }
    bias_term: true
    bias_filler {
      value: 0
    }
  }
}
layer {
  name: "ReLU23"
  type: "ReLU"
  bottom: "BatchNorm24"
  top: "BatchNorm24"
}
layer {
  name: "Convolution24"
  type: "Convolution"
  bottom: "BatchNorm24"
  top: "Convolution24"
  convolution_param {
    num_output: 32
    bias_term: false
    pad: 1
    kernel_size: 3
    stride: 1
    weight_filler {
      type: "xavier"
    }
    bias_filler {
      type: "constant"
    }
  }
}
layer {
  name: "concat_1_4"
  type: "Concat"
  bottom: "Concat10"
  bottom: "Convolution24"
  top: "Concat11"
}
layer {
  name: "BatchNorm25"
  type: "BatchNorm"
  bottom: "Concat11"
  top: "BatchNorm25"
  param {
    lr_mult: 0
    decay_mult: 0
  }
  param {
    lr_mult: 0
    decay_mult: 0
  }
  param {
    lr_mult: 0
    decay_mult: 0
  }
}
layer {
  name: "Scale25"
  type: "Scale"
  bottom: "BatchNorm25"
  top: "BatchNorm25"
  scale_param {
    filler {
      value: 1
    }
    bias_term: true
    bias_filler {
      value: 0
    }
  }
}
layer {
  name: "ReLU24"
  type: "ReLU"
  bottom: "BatchNorm25"
  top: "BatchNorm25"
}
layer {
  name: "Convolution25"
  type: "Convolution"
  bottom: "BatchNorm25"
  top: "Convolution25"
  convolution_param {
    num_output: 128
    bias_term: false
    pad: 0
    kernel_size: 1
    stride: 1
    weight_filler {
      type: "xavier"
    }
    bias_filler {
      type: "constant"
    }
  }
}
layer {
  name: "BatchNorm26"
  type: "BatchNorm"
  bottom: "Convolution25"
  top: "BatchNorm26"
  param {
    lr_mult: 0
    decay_mult: 0
  }
  param {
    lr_mult: 0
    decay_mult: 0
  }
  param {
    lr_mult: 0
    decay_mult: 0
  }
}
layer {
  name: "Scale26"
  type: "Scale"
  bottom: "BatchNorm26"
  top: "BatchNorm26"
  scale_param {
    filler {
      value: 1
    }
    bias_term: true
    bias_filler {
      value: 0
    }
  }
}
layer {
  name: "ReLU25"
  type: "ReLU"
  bottom: "BatchNorm26"
  top: "BatchNorm26"
}
layer {
  name: "Convolution26"
  type: "Convolution"
  bottom: "BatchNorm26"
  top: "Convolution26"
  convolution_param {
    num_output: 32
    bias_term: false
    pad: 1
    kernel_size: 3
    stride: 1
    weight_filler {
      type: "xavier"
    }
    bias_filler {
      type: "constant"
    }
  }
}
layer {
  name: "concat_1_5"
  type: "Concat"
  bottom: "Concat11"
  bottom: "Convolution26"
  top: "Concat12"
}
layer {
  name: "BatchNorm27"
  type: "BatchNorm"
  bottom: "Concat12"
  top: "BatchNorm27"
  param {
    lr_mult: 0
    decay_mult: 0
  }
  param {
    lr_mult: 0
    decay_mult: 0
  }
  param {
    lr_mult: 0
    decay_mult: 0
  }
}
layer {
  name: "Scale27"
  type: "Scale"
  bottom: "BatchNorm27"
  top: "BatchNorm27"
  scale_param {
    filler {
      value: 1
    }
    bias_term: true
    bias_filler {
      value: 0
    }
  }
}
layer {
  name: "ReLU26"
  type: "ReLU"
  bottom: "BatchNorm27"
  top: "BatchNorm27"
}
layer {
  name: "Convolution27"
  type: "Convolution"
  bottom: "BatchNorm27"
  top: "Convolution27"
  convolution_param {
    num_output: 128
    bias_term: false
    pad: 0
    kernel_size: 1
    stride: 1
    weight_filler {
      type: "xavier"
    }
    bias_filler {
      type: "constant"
    }
  }
}
layer {
  name: "BatchNorm28"
  type: "BatchNorm"
  bottom: "Convolution27"
  top: "BatchNorm28"
  param {
    lr_mult: 0
    decay_mult: 0
  }
  param {
    lr_mult: 0
    decay_mult: 0
  }
  param {
    lr_mult: 0
    decay_mult: 0
  }
}
layer {
  name: "Scale28"
  type: "Scale"
  bottom: "BatchNorm28"
  top: "BatchNorm28"
  scale_param {
    filler {
      value: 1
    }
    bias_term: true
    bias_filler {
      value: 0
    }
  }
}
layer {
  name: "ReLU27"
  type: "ReLU"
  bottom: "BatchNorm28"
  top: "BatchNorm28"
}
layer {
  name: "Convolution28"
  type: "Convolution"
  bottom: "BatchNorm28"
  top: "Convolution28"
  convolution_param {
    num_output: 32
    bias_term: false
    pad: 1
    kernel_size: 3
    stride: 1
    weight_filler {
      type: "xavier"
    }
    bias_filler {
      type: "constant"
    }
  }
}
layer {
  name: "concat_1_6"
  type: "Concat"
  bottom: "Concat12"
  bottom: "Convolution28"
  top: "Concat13"
}
layer {
  name: "BatchNorm29"
  type: "BatchNorm"
  bottom: "Concat13"
  top: "BatchNorm29"
  param {
    lr_mult: 0
    decay_mult: 0
  }
  param {
    lr_mult: 0
    decay_mult: 0
  }
  param {
    lr_mult: 0
    decay_mult: 0
  }
}
layer {
  name: "Scale29"
  type: "Scale"
  bottom: "BatchNorm29"
  top: "BatchNorm29"
  scale_param {
    filler {
      value: 1
    }
    bias_term: true
    bias_filler {
      value: 0
    }
  }
}
layer {
  name: "ReLU28"
  type: "ReLU"
  bottom: "BatchNorm29"
  top: "BatchNorm29"
}
layer {
  name: "Convolution29"
  type: "Convolution"
  bottom: "BatchNorm29"
  top: "Convolution29"
  convolution_param {
    num_output: 128
    bias_term: false
    pad: 0
    kernel_size: 1
    stride: 1
    weight_filler {
      type: "xavier"
    }
    bias_filler {
      type: "constant"
    }
  }
}
layer {
  name: "BatchNorm30"
  type: "BatchNorm"
  bottom: "Convolution29"
  top: "BatchNorm30"
  param {
    lr_mult: 0
    decay_mult: 0
  }
  param {
    lr_mult: 0
    decay_mult: 0
  }
  param {
    lr_mult: 0
    decay_mult: 0
  }
}
layer {
  name: "Scale30"
  type: "Scale"
  bottom: "BatchNorm30"
  top: "BatchNorm30"
  scale_param {
    filler {
      value: 1
    }
    bias_term: true
    bias_filler {
      value: 0
    }
  }
}
layer {
  name: "ReLU29"
  type: "ReLU"
  bottom: "BatchNorm30"
  top: "BatchNorm30"
}
layer {
  name: "Convolution30"
  type: "Convolution"
  bottom: "BatchNorm30"
  top: "Convolution30"
  convolution_param {
    num_output: 32
    bias_term: false
    pad: 1
    kernel_size: 3
    stride: 1
    weight_filler {
      type: "xavier"
    }
    bias_filler {
      type: "constant"
    }
  }
}
layer {
  name: "concat_1_7"
  type: "Concat"
  bottom: "Concat13"
  bottom: "Convolution30"
  top: "Concat14"
}
layer {
  name: "BatchNorm31"
  type: "BatchNorm"
  bottom: "Concat14"
  top: "BatchNorm31"
  param {
    lr_mult: 0
    decay_mult: 0
  }
  param {
    lr_mult: 0
    decay_mult: 0
  }
  param {
    lr_mult: 0
    decay_mult: 0
  }
}
layer {
  name: "Scale31"
  type: "Scale"
  bottom: "BatchNorm31"
  top: "BatchNorm31"
  scale_param {
    filler {
      value: 1
    }
    bias_term: true
    bias_filler {
      value: 0
    }
  }
}
layer {
  name: "ReLU30"
  type: "ReLU"
  bottom: "BatchNorm31"
  top: "BatchNorm31"
}
layer {
  name: "Convolution31"
  type: "Convolution"
  bottom: "BatchNorm31"
  top: "Convolution31"
  convolution_param {
    num_output: 128
    bias_term: false
    pad: 0
    kernel_size: 1
    stride: 1
    weight_filler {
      type: "xavier"
    }
    bias_filler {
      type: "constant"
    }
  }
}
layer {
  name: "BatchNorm32"
  type: "BatchNorm"
  bottom: "Convolution31"
  top: "BatchNorm32"
  param {
    lr_mult: 0
    decay_mult: 0
  }
  param {
    lr_mult: 0
    decay_mult: 0
  }
  param {
    lr_mult: 0
    decay_mult: 0
  }
}
layer {
  name: "Scale32"
  type: "Scale"
  bottom: "BatchNorm32"
  top: "BatchNorm32"
  scale_param {
    filler {
      value: 1
    }
    bias_term: true
    bias_filler {
      value: 0
    }
  }
}
layer {
  name: "ReLU31"
  type: "ReLU"
  bottom: "BatchNorm32"
  top: "BatchNorm32"
}
layer {
  name: "Convolution32"
  type: "Convolution"
  bottom: "BatchNorm32"
  top: "Convolution32"
  convolution_param {
    num_output: 32
    bias_term: false
    pad: 1
    kernel_size: 3
    stride: 1
    weight_filler {
      type: "xavier"
    }
    bias_filler {
      type: "constant"
    }
  }
}
layer {
  name: "concat_1_8"
  type: "Concat"
  bottom: "Concat14"
  bottom: "Convolution32"
  top: "Concat15"
}
layer {
  name: "BatchNorm33"
  type: "BatchNorm"
  bottom: "Concat15"
  top: "BatchNorm33"
  param {
    lr_mult: 0
    decay_mult: 0
  }
  param {
    lr_mult: 0
    decay_mult: 0
  }
  param {
    lr_mult: 0
    decay_mult: 0
  }
}
layer {
  name: "Scale33"
  type: "Scale"
  bottom: "BatchNorm33"
  top: "BatchNorm33"
  scale_param {
    filler {
      value: 1
    }
    bias_term: true
    bias_filler {
      value: 0
    }
  }
}
layer {
  name: "ReLU32"
  type: "ReLU"
  bottom: "BatchNorm33"
  top: "BatchNorm33"
}
layer {
  name: "Convolution33"
  type: "Convolution"
  bottom: "BatchNorm33"
  top: "Convolution33"
  convolution_param {
    num_output: 128
    bias_term: false
    pad: 0
    kernel_size: 1
    stride: 1
    weight_filler {
      type: "xavier"
    }
    bias_filler {
      type: "constant"
    }
  }
}
layer {
  name: "BatchNorm34"
  type: "BatchNorm"
  bottom: "Convolution33"
  top: "BatchNorm34"
  param {
    lr_mult: 0
    decay_mult: 0
  }
  param {
    lr_mult: 0
    decay_mult: 0
  }
  param {
    lr_mult: 0
    decay_mult: 0
  }
}
layer {
  name: "Scale34"
  type: "Scale"
  bottom: "BatchNorm34"
  top: "BatchNorm34"
  scale_param {
    filler {
      value: 1
    }
    bias_term: true
    bias_filler {
      value: 0
    }
  }
}
layer {
  name: "ReLU33"
  type: "ReLU"
  bottom: "BatchNorm34"
  top: "BatchNorm34"
}
layer {
  name: "Convolution34"
  type: "Convolution"
  bottom: "BatchNorm34"
  top: "Convolution34"
  convolution_param {
    num_output: 32
    bias_term: false
    pad: 1
    kernel_size: 3
    stride: 1
    weight_filler {
      type: "xavier"
    }
    bias_filler {
      type: "constant"
    }
  }
}
layer {
  name: "concat_1_9"
  type: "Concat"
  bottom: "Concat15"
  bottom: "Convolution34"
  top: "Concat16"
}
layer {
  name: "BatchNorm35"
  type: "BatchNorm"
  bottom: "Concat16"
  top: "BatchNorm35"
  param {
    lr_mult: 0
    decay_mult: 0
  }
  param {
    lr_mult: 0
    decay_mult: 0
  }
  param {
    lr_mult: 0
    decay_mult: 0
  }
}
layer {
  name: "Scale35"
  type: "Scale"
  bottom: "BatchNorm35"
  top: "BatchNorm35"
  scale_param {
    filler {
      value: 1
    }
    bias_term: true
    bias_filler {
      value: 0
    }
  }
}
layer {
  name: "ReLU34"
  type: "ReLU"
  bottom: "BatchNorm35"
  top: "BatchNorm35"
}
layer {
  name: "Convolution35"
  type: "Convolution"
  bottom: "BatchNorm35"
  top: "Convolution35"
  convolution_param {
    num_output: 128
    bias_term: false
    pad: 0
    kernel_size: 1
    stride: 1
    weight_filler {
      type: "xavier"
    }
    bias_filler {
      type: "constant"
    }
  }
}
layer {
  name: "BatchNorm36"
  type: "BatchNorm"
  bottom: "Convolution35"
  top: "BatchNorm36"
  param {
    lr_mult: 0
    decay_mult: 0
  }
  param {
    lr_mult: 0
    decay_mult: 0
  }
  param {
    lr_mult: 0
    decay_mult: 0
  }
}
layer {
  name: "Scale36"
  type: "Scale"
  bottom: "BatchNorm36"
  top: "BatchNorm36"
  scale_param {
    filler {
      value: 1
    }
    bias_term: true
    bias_filler {
      value: 0
    }
  }
}
layer {
  name: "ReLU35"
  type: "ReLU"
  bottom: "BatchNorm36"
  top: "BatchNorm36"
}
layer {
  name: "Convolution36"
  type: "Convolution"
  bottom: "BatchNorm36"
  top: "Convolution36"
  convolution_param {
    num_output: 32
    bias_term: false
    pad: 1
    kernel_size: 3
    stride: 1
    weight_filler {
      type: "xavier"
    }
    bias_filler {
      type: "constant"
    }
  }
}
layer {
  name: "concat_1_10"
  type: "Concat"
  bottom: "Concat16"
  bottom: "Convolution36"
  top: "Concat17"
}
layer {
  name: "BatchNorm37"
  type: "BatchNorm"
  bottom: "Concat17"
  top: "BatchNorm37"
  param {
    lr_mult: 0
    decay_mult: 0
  }
  param {
    lr_mult: 0
    decay_mult: 0
  }
  param {
    lr_mult: 0
    decay_mult: 0
  }
}
layer {
  name: "Scale37"
  type: "Scale"
  bottom: "BatchNorm37"
  top: "BatchNorm37"
  scale_param {
    filler {
      value: 1
    }
    bias_term: true
    bias_filler {
      value: 0
    }
  }
}
layer {
  name: "ReLU36"
  type: "ReLU"
  bottom: "BatchNorm37"
  top: "BatchNorm37"
}
layer {
  name: "Convolution37"
  type: "Convolution"
  bottom: "BatchNorm37"
  top: "Convolution37"
  convolution_param {
    num_output: 128
    bias_term: false
    pad: 0
    kernel_size: 1
    stride: 1
    weight_filler {
      type: "xavier"
    }
    bias_filler {
      type: "constant"
    }
  }
}
layer {
  name: "BatchNorm38"
  type: "BatchNorm"
  bottom: "Convolution37"
  top: "BatchNorm38"
  param {
    lr_mult: 0
    decay_mult: 0
  }
  param {
    lr_mult: 0
    decay_mult: 0
  }
  param {
    lr_mult: 0
    decay_mult: 0
  }
}
layer {
  name: "Scale38"
  type: "Scale"
  bottom: "BatchNorm38"
  top: "BatchNorm38"
  scale_param {
    filler {
      value: 1
    }
    bias_term: true
    bias_filler {
      value: 0
    }
  }
}
layer {
  name: "ReLU37"
  type: "ReLU"
  bottom: "BatchNorm38"
  top: "BatchNorm38"
}
layer {
  name: "Convolution38"
  type: "Convolution"
  bottom: "BatchNorm38"
  top: "Convolution38"
  convolution_param {
    num_output: 32
    bias_term: false
    pad: 1
    kernel_size: 3
    stride: 1
    weight_filler {
      type: "xavier"
    }
    bias_filler {
      type: "constant"
    }
  }
}
layer {
  name: "concat_1_11"
  type: "Concat"
  bottom: "Concat17"
  bottom: "Convolution38"
  top: "Concat18"
}
layer {
  name: "BatchNorm39"
  type: "BatchNorm"
  bottom: "Concat18"
  top: "BatchNorm39"
  param {
    lr_mult: 0
    decay_mult: 0
  }
  param {
    lr_mult: 0
    decay_mult: 0
  }
  param {
    lr_mult: 0
    decay_mult: 0
  }
}
layer {
  name: "Scale39"
  type: "Scale"
  bottom: "BatchNorm39"
  top: "BatchNorm39"
  scale_param {
    filler {
      value: 1
    }
    bias_term: true
    bias_filler {
      value: 0
    }
  }
}
layer {
  name: "ReLU38"
  type: "ReLU"
  bottom: "BatchNorm39"
  top: "BatchNorm39"
}
layer {
  name: "Convolution39"
  type: "Convolution"
  bottom: "BatchNorm39"
  top: "Convolution39"
  convolution_param {
    num_output: 256
    bias_term: false
    pad: 0
    kernel_size: 1
    stride: 1
    weight_filler {
      type: "xavier"
    }
    bias_filler {
      type: "constant"
    }
  }
}
layer {
  name: "Pooling2"
  type: "Pooling"
  bottom: "Convolution39"
  top: "Pooling2"
  pooling_param {
    pool: AVE
    kernel_size: 2
    stride: 2
  }
}
layer {
  name: "BatchNorm40"
  type: "BatchNorm"
  bottom: "Pooling2"
  top: "BatchNorm40"
  param {
    lr_mult: 0
    decay_mult: 0
  }
  param {
    lr_mult: 0
    decay_mult: 0
  }
  param {
    lr_mult: 0
    decay_mult: 0
  }
}
layer {
  name: "Scale40"
  type: "Scale"
  bottom: "BatchNorm40"
  top: "BatchNorm40"
  scale_param {
    filler {
      value: 1
    }
    bias_term: true
    bias_filler {
      value: 0
    }
  }
}
layer {
  name: "ReLU39"
  type: "ReLU"
  bottom: "BatchNorm40"
  top: "BatchNorm40"
}
layer {
  name: "Convolution40"
  type: "Convolution"
  bottom: "BatchNorm40"
  top: "Convolution40"
  convolution_param {
    num_output: 128
    bias_term: false
    pad: 0
    kernel_size: 1
    stride: 1
    weight_filler {
      type: "xavier"
    }
    bias_filler {
      type: "constant"
    }
  }
}
layer {
  name: "BatchNorm41"
  type: "BatchNorm"
  bottom: "Convolution40"
  top: "BatchNorm41"
  param {
    lr_mult: 0
    decay_mult: 0
  }
  param {
    lr_mult: 0
    decay_mult: 0
  }
  param {
    lr_mult: 0
    decay_mult: 0
  }
}
layer {
  name: "Scale41"
  type: "Scale"
  bottom: "BatchNorm41"
  top: "BatchNorm41"
  scale_param {
    filler {
      value: 1
    }
    bias_term: true
    bias_filler {
      value: 0
    }
  }
}
layer {
  name: "ReLU40"
  type: "ReLU"
  bottom: "BatchNorm41"
  top: "BatchNorm41"
}
layer {
  name: "Convolution41"
  type: "Convolution"
  bottom: "BatchNorm41"
  top: "Convolution41"
  convolution_param {
    num_output: 32
    bias_term: false
    pad: 1
    kernel_size: 3
    stride: 1
    weight_filler {
      type: "xavier"
    }
    bias_filler {
      type: "constant"
    }
  }
}
layer {
  name: "concat_2_0"
  type: "Concat"
  bottom: "Pooling2"
  bottom: "Convolution41"
  top: "Concat19"
}
layer {
  name: "BatchNorm42"
  type: "BatchNorm"
  bottom: "Concat19"
  top: "BatchNorm42"
  param {
    lr_mult: 0
    decay_mult: 0
  }
  param {
    lr_mult: 0
    decay_mult: 0
  }
  param {
    lr_mult: 0
    decay_mult: 0
  }
}
layer {
  name: "Scale42"
  type: "Scale"
  bottom: "BatchNorm42"
  top: "BatchNorm42"
  scale_param {
    filler {
      value: 1
    }
    bias_term: true
    bias_filler {
      value: 0
    }
  }
}
layer {
  name: "ReLU41"
  type: "ReLU"
  bottom: "BatchNorm42"
  top: "BatchNorm42"
}
layer {
  name: "Convolution42"
  type: "Convolution"
  bottom: "BatchNorm42"
  top: "Convolution42"
  convolution_param {
    num_output: 128
    bias_term: false
    pad: 0
    kernel_size: 1
    stride: 1
    weight_filler {
      type: "xavier"
    }
    bias_filler {
      type: "constant"
    }
  }
}
layer {
  name: "BatchNorm43"
  type: "BatchNorm"
  bottom: "Convolution42"
  top: "BatchNorm43"
  param {
    lr_mult: 0
    decay_mult: 0
  }
  param {
    lr_mult: 0
    decay_mult: 0
  }
  param {
    lr_mult: 0
    decay_mult: 0
  }
}
layer {
  name: "Scale43"
  type: "Scale"
  bottom: "BatchNorm43"
  top: "BatchNorm43"
  scale_param {
    filler {
      value: 1
    }
    bias_term: true
    bias_filler {
      value: 0
    }
  }
}
layer {
  name: "ReLU42"
  type: "ReLU"
  bottom: "BatchNorm43"
  top: "BatchNorm43"
}
layer {
  name: "Convolution43"
  type: "Convolution"
  bottom: "BatchNorm43"
  top: "Convolution43"
  convolution_param {
    num_output: 32
    bias_term: false
    pad: 1
    kernel_size: 3
    stride: 1
    weight_filler {
      type: "xavier"
    }
    bias_filler {
      type: "constant"
    }
  }
}
layer {
  name: "concat_2_1"
  type: "Concat"
  bottom: "Concat19"
  bottom: "Convolution43"
  top: "Concat20"
}
layer {
  name: "BatchNorm44"
  type: "BatchNorm"
  bottom: "Concat20"
  top: "BatchNorm44"
  param {
    lr_mult: 0
    decay_mult: 0
  }
  param {
    lr_mult: 0
    decay_mult: 0
  }
  param {
    lr_mult: 0
    decay_mult: 0
  }
}
layer {
  name: "Scale44"
  type: "Scale"
  bottom: "BatchNorm44"
  top: "BatchNorm44"
  scale_param {
    filler {
      value: 1
    }
    bias_term: true
    bias_filler {
      value: 0
    }
  }
}
layer {
  name: "ReLU43"
  type: "ReLU"
  bottom: "BatchNorm44"
  top: "BatchNorm44"
}
layer {
  name: "Convolution44"
  type: "Convolution"
  bottom: "BatchNorm44"
  top: "Convolution44"
  convolution_param {
    num_output: 128
    bias_term: false
    pad: 0
    kernel_size: 1
    stride: 1
    weight_filler {
      type: "xavier"
    }
    bias_filler {
      type: "constant"
    }
  }
}
layer {
  name: "BatchNorm45"
  type: "BatchNorm"
  bottom: "Convolution44"
  top: "BatchNorm45"
  param {
    lr_mult: 0
    decay_mult: 0
  }
  param {
    lr_mult: 0
    decay_mult: 0
  }
  param {
    lr_mult: 0
    decay_mult: 0
  }
}
layer {
  name: "Scale45"
  type: "Scale"
  bottom: "BatchNorm45"
  top: "BatchNorm45"
  scale_param {
    filler {
      value: 1
    }
    bias_term: true
    bias_filler {
      value: 0
    }
  }
}
layer {
  name: "ReLU44"
  type: "ReLU"
  bottom: "BatchNorm45"
  top: "BatchNorm45"
}
layer {
  name: "Convolution45"
  type: "Convolution"
  bottom: "BatchNorm45"
  top: "Convolution45"
  convolution_param {
    num_output: 32
    bias_term: false
    pad: 1
    kernel_size: 3
    stride: 1
    weight_filler {
      type: "xavier"
    }
    bias_filler {
      type: "constant"
    }
  }
}
layer {
  name: "concat_2_2"
  type: "Concat"
  bottom: "Concat20"
  bottom: "Convolution45"
  top: "Concat21"
}
layer {
  name: "BatchNorm46"
  type: "BatchNorm"
  bottom: "Concat21"
  top: "BatchNorm46"
  param {
    lr_mult: 0
    decay_mult: 0
  }
  param {
    lr_mult: 0
    decay_mult: 0
  }
  param {
    lr_mult: 0
    decay_mult: 0
  }
}
layer {
  name: "Scale46"
  type: "Scale"
  bottom: "BatchNorm46"
  top: "BatchNorm46"
  scale_param {
    filler {
      value: 1
    }
    bias_term: true
    bias_filler {
      value: 0
    }
  }
}
layer {
  name: "ReLU45"
  type: "ReLU"
  bottom: "BatchNorm46"
  top: "BatchNorm46"
}
layer {
  name: "Convolution46"
  type: "Convolution"
  bottom: "BatchNorm46"
  top: "Convolution46"
  convolution_param {
    num_output: 128
    bias_term: false
    pad: 0
    kernel_size: 1
    stride: 1
    weight_filler {
      type: "xavier"
    }
    bias_filler {
      type: "constant"
    }
  }
}
layer {
  name: "BatchNorm47"
  type: "BatchNorm"
  bottom: "Convolution46"
  top: "BatchNorm47"
  param {
    lr_mult: 0
    decay_mult: 0
  }
  param {
    lr_mult: 0
    decay_mult: 0
  }
  param {
    lr_mult: 0
    decay_mult: 0
  }
}
layer {
  name: "Scale47"
  type: "Scale"
  bottom: "BatchNorm47"
  top: "BatchNorm47"
  scale_param {
    filler {
      value: 1
    }
    bias_term: true
    bias_filler {
      value: 0
    }
  }
}
layer {
  name: "ReLU46"
  type: "ReLU"
  bottom: "BatchNorm47"
  top: "BatchNorm47"
}
layer {
  name: "Convolution47"
  type: "Convolution"
  bottom: "BatchNorm47"
  top: "Convolution47"
  convolution_param {
    num_output: 32
    bias_term: false
    pad: 1
    kernel_size: 3
    stride: 1
    weight_filler {
      type: "xavier"
    }
    bias_filler {
      type: "constant"
    }
  }
}
layer {
  name: "concat_2_3"
  type: "Concat"
  bottom: "Concat21"
  bottom: "Convolution47"
  top: "Concat22"
}
layer {
  name: "BatchNorm48"
  type: "BatchNorm"
  bottom: "Concat22"
  top: "BatchNorm48"
  param {
    lr_mult: 0
    decay_mult: 0
  }
  param {
    lr_mult: 0
    decay_mult: 0
  }
  param {
    lr_mult: 0
    decay_mult: 0
  }
}
layer {
  name: "Scale48"
  type: "Scale"
  bottom: "BatchNorm48"
  top: "BatchNorm48"
  scale_param {
    filler {
      value: 1
    }
    bias_term: true
    bias_filler {
      value: 0
    }
  }
}
layer {
  name: "ReLU47"
  type: "ReLU"
  bottom: "BatchNorm48"
  top: "BatchNorm48"
}
layer {
  name: "Convolution48"
  type: "Convolution"
  bottom: "BatchNorm48"
  top: "Convolution48"
  convolution_param {
    num_output: 128
    bias_term: false
    pad: 0
    kernel_size: 1
    stride: 1
    weight_filler {
      type: "xavier"
    }
    bias_filler {
      type: "constant"
    }
  }
}
layer {
  name: "BatchNorm49"
  type: "BatchNorm"
  bottom: "Convolution48"
  top: "BatchNorm49"
  param {
    lr_mult: 0
    decay_mult: 0
  }
  param {
    lr_mult: 0
    decay_mult: 0
  }
  param {
    lr_mult: 0
    decay_mult: 0
  }
}
layer {
  name: "Scale49"
  type: "Scale"
  bottom: "BatchNorm49"
  top: "BatchNorm49"
  scale_param {
    filler {
      value: 1
    }
    bias_term: true
    bias_filler {
      value: 0
    }
  }
}
layer {
  name: "ReLU48"
  type: "ReLU"
  bottom: "BatchNorm49"
  top: "BatchNorm49"
}
layer {
  name: "Convolution49"
  type: "Convolution"
  bottom: "BatchNorm49"
  top: "Convolution49"
  convolution_param {
    num_output: 32
    bias_term: false
    pad: 1
    kernel_size: 3
    stride: 1
    weight_filler {
      type: "xavier"
    }
    bias_filler {
      type: "constant"
    }
  }
}
layer {
  name: "concat_2_4"
  type: "Concat"
  bottom: "Concat22"
  bottom: "Convolution49"
  top: "Concat23"
}
layer {
  name: "BatchNorm50"
  type: "BatchNorm"
  bottom: "Concat23"
  top: "BatchNorm50"
  param {
    lr_mult: 0
    decay_mult: 0
  }
  param {
    lr_mult: 0
    decay_mult: 0
  }
  param {
    lr_mult: 0
    decay_mult: 0
  }
}
layer {
  name: "Scale50"
  type: "Scale"
  bottom: "BatchNorm50"
  top: "BatchNorm50"
  scale_param {
    filler {
      value: 1
    }
    bias_term: true
    bias_filler {
      value: 0
    }
  }
}
layer {
  name: "ReLU49"
  type: "ReLU"
  bottom: "BatchNorm50"
  top: "BatchNorm50"
}
layer {
  name: "Convolution50"
  type: "Convolution"
  bottom: "BatchNorm50"
  top: "Convolution50"
  convolution_param {
    num_output: 128
    bias_term: false
    pad: 0
    kernel_size: 1
    stride: 1
    weight_filler {
      type: "xavier"
    }
    bias_filler {
      type: "constant"
    }
  }
}
layer {
  name: "BatchNorm51"
  type: "BatchNorm"
  bottom: "Convolution50"
  top: "BatchNorm51"
  param {
    lr_mult: 0
    decay_mult: 0
  }
  param {
    lr_mult: 0
    decay_mult: 0
  }
  param {
    lr_mult: 0
    decay_mult: 0
  }
}
layer {
  name: "Scale51"
  type: "Scale"
  bottom: "BatchNorm51"
  top: "BatchNorm51"
  scale_param {
    filler {
      value: 1
    }
    bias_term: true
    bias_filler {
      value: 0
    }
  }
}
layer {
  name: "ReLU50"
  type: "ReLU"
  bottom: "BatchNorm51"
  top: "BatchNorm51"
}
layer {
  name: "Convolution51"
  type: "Convolution"
  bottom: "BatchNorm51"
  top: "Convolution51"
  convolution_param {
    num_output: 32
    bias_term: false
    pad: 1
    kernel_size: 3
    stride: 1
    weight_filler {
      type: "xavier"
    }
    bias_filler {
      type: "constant"
    }
  }
}
layer {
  name: "concat_2_5"
  type: "Concat"
  bottom: "Concat23"
  bottom: "Convolution51"
  top: "Concat24"
}
layer {
  name: "BatchNorm52"
  type: "BatchNorm"
  bottom: "Concat24"
  top: "BatchNorm52"
  param {
    lr_mult: 0
    decay_mult: 0
  }
  param {
    lr_mult: 0
    decay_mult: 0
  }
  param {
    lr_mult: 0
    decay_mult: 0
  }
}
layer {
  name: "Scale52"
  type: "Scale"
  bottom: "BatchNorm52"
  top: "BatchNorm52"
  scale_param {
    filler {
      value: 1
    }
    bias_term: true
    bias_filler {
      value: 0
    }
  }
}
layer {
  name: "ReLU51"
  type: "ReLU"
  bottom: "BatchNorm52"
  top: "BatchNorm52"
}
layer {
  name: "Convolution52"
  type: "Convolution"
  bottom: "BatchNorm52"
  top: "Convolution52"
  convolution_param {
    num_output: 128
    bias_term: false
    pad: 0
    kernel_size: 1
    stride: 1
    weight_filler {
      type: "xavier"
    }
    bias_filler {
      type: "constant"
    }
  }
}
layer {
  name: "BatchNorm53"
  type: "BatchNorm"
  bottom: "Convolution52"
  top: "BatchNorm53"
  param {
    lr_mult: 0
    decay_mult: 0
  }
  param {
    lr_mult: 0
    decay_mult: 0
  }
  param {
    lr_mult: 0
    decay_mult: 0
  }
}
layer {
  name: "Scale53"
  type: "Scale"
  bottom: "BatchNorm53"
  top: "BatchNorm53"
  scale_param {
    filler {
      value: 1
    }
    bias_term: true
    bias_filler {
      value: 0
    }
  }
}
layer {
  name: "ReLU52"
  type: "ReLU"
  bottom: "BatchNorm53"
  top: "BatchNorm53"
}
layer {
  name: "Convolution53"
  type: "Convolution"
  bottom: "BatchNorm53"
  top: "Convolution53"
  convolution_param {
    num_output: 32
    bias_term: false
    pad: 1
    kernel_size: 3
    stride: 1
    weight_filler {
      type: "xavier"
    }
    bias_filler {
      type: "constant"
    }
  }
}
layer {
  name: "concat_2_6"
  type: "Concat"
  bottom: "Concat24"
  bottom: "Convolution53"
  top: "Concat25"
}
layer {
  name: "BatchNorm54"
  type: "BatchNorm"
  bottom: "Concat25"
  top: "BatchNorm54"
  param {
    lr_mult: 0
    decay_mult: 0
  }
  param {
    lr_mult: 0
    decay_mult: 0
  }
  param {
    lr_mult: 0
    decay_mult: 0
  }
}
layer {
  name: "Scale54"
  type: "Scale"
  bottom: "BatchNorm54"
  top: "BatchNorm54"
  scale_param {
    filler {
      value: 1
    }
    bias_term: true
    bias_filler {
      value: 0
    }
  }
}
layer {
  name: "ReLU53"
  type: "ReLU"
  bottom: "BatchNorm54"
  top: "BatchNorm54"
}
layer {
  name: "Convolution54"
  type: "Convolution"
  bottom: "BatchNorm54"
  top: "Convolution54"
  convolution_param {
    num_output: 128
    bias_term: false
    pad: 0
    kernel_size: 1
    stride: 1
    weight_filler {
      type: "xavier"
    }
    bias_filler {
      type: "constant"
    }
  }
}
layer {
  name: "BatchNorm55"
  type: "BatchNorm"
  bottom: "Convolution54"
  top: "BatchNorm55"
  param {
    lr_mult: 0
    decay_mult: 0
  }
  param {
    lr_mult: 0
    decay_mult: 0
  }
  param {
    lr_mult: 0
    decay_mult: 0
  }
}
layer {
  name: "Scale55"
  type: "Scale"
  bottom: "BatchNorm55"
  top: "BatchNorm55"
  scale_param {
    filler {
      value: 1
    }
    bias_term: true
    bias_filler {
      value: 0
    }
  }
}
layer {
  name: "ReLU54"
  type: "ReLU"
  bottom: "BatchNorm55"
  top: "BatchNorm55"
}
layer {
  name: "Convolution55"
  type: "Convolution"
  bottom: "BatchNorm55"
  top: "Convolution55"
  convolution_param {
    num_output: 32
    bias_term: false
    pad: 1
    kernel_size: 3
    stride: 1
    weight_filler {
      type: "xavier"
    }
    bias_filler {
      type: "constant"
    }
  }
}
layer {
  name: "concat_2_7"
  type: "Concat"
  bottom: "Concat25"
  bottom: "Convolution55"
  top: "Concat26"
}
layer {
  name: "BatchNorm56"
  type: "BatchNorm"
  bottom: "Concat26"
  top: "BatchNorm56"
  param {
    lr_mult: 0
    decay_mult: 0
  }
  param {
    lr_mult: 0
    decay_mult: 0
  }
  param {
    lr_mult: 0
    decay_mult: 0
  }
}
layer {
  name: "Scale56"
  type: "Scale"
  bottom: "BatchNorm56"
  top: "BatchNorm56"
  scale_param {
    filler {
      value: 1
    }
    bias_term: true
    bias_filler {
      value: 0
    }
  }
}
layer {
  name: "ReLU55"
  type: "ReLU"
  bottom: "BatchNorm56"
  top: "BatchNorm56"
}
layer {
  name: "Convolution56"
  type: "Convolution"
  bottom: "BatchNorm56"
  top: "Convolution56"
  convolution_param {
    num_output: 128
    bias_term: false
    pad: 0
    kernel_size: 1
    stride: 1
    weight_filler {
      type: "xavier"
    }
    bias_filler {
      type: "constant"
    }
  }
}
layer {
  name: "BatchNorm57"
  type: "BatchNorm"
  bottom: "Convolution56"
  top: "BatchNorm57"
  param {
    lr_mult: 0
    decay_mult: 0
  }
  param {
    lr_mult: 0
    decay_mult: 0
  }
  param {
    lr_mult: 0
    decay_mult: 0
  }
}
layer {
  name: "Scale57"
  type: "Scale"
  bottom: "BatchNorm57"
  top: "BatchNorm57"
  scale_param {
    filler {
      value: 1
    }
    bias_term: true
    bias_filler {
      value: 0
    }
  }
}
layer {
  name: "ReLU56"
  type: "ReLU"
  bottom: "BatchNorm57"
  top: "BatchNorm57"
}
layer {
  name: "Convolution57"
  type: "Convolution"
  bottom: "BatchNorm57"
  top: "Convolution57"
  convolution_param {
    num_output: 32
    bias_term: false
    pad: 1
    kernel_size: 3
    stride: 1
    weight_filler {
      type: "xavier"
    }
    bias_filler {
      type: "constant"
    }
  }
}
layer {
  name: "concat_2_8"
  type: "Concat"
  bottom: "Concat26"
  bottom: "Convolution57"
  top: "Concat27"
}
layer {
  name: "BatchNorm58"
  type: "BatchNorm"
  bottom: "Concat27"
  top: "BatchNorm58"
  param {
    lr_mult: 0
    decay_mult: 0
  }
  param {
    lr_mult: 0
    decay_mult: 0
  }
  param {
    lr_mult: 0
    decay_mult: 0
  }
}
layer {
  name: "Scale58"
  type: "Scale"
  bottom: "BatchNorm58"
  top: "BatchNorm58"
  scale_param {
    filler {
      value: 1
    }
    bias_term: true
    bias_filler {
      value: 0
    }
  }
}
layer {
  name: "ReLU57"
  type: "ReLU"
  bottom: "BatchNorm58"
  top: "BatchNorm58"
}
layer {
  name: "Convolution58"
  type: "Convolution"
  bottom: "BatchNorm58"
  top: "Convolution58"
  convolution_param {
    num_output: 128
    bias_term: false
    pad: 0
    kernel_size: 1
    stride: 1
    weight_filler {
      type: "xavier"
    }
    bias_filler {
      type: "constant"
    }
  }
}
layer {
  name: "BatchNorm59"
  type: "BatchNorm"
  bottom: "Convolution58"
  top: "BatchNorm59"
  param {
    lr_mult: 0
    decay_mult: 0
  }
  param {
    lr_mult: 0
    decay_mult: 0
  }
  param {
    lr_mult: 0
    decay_mult: 0
  }
}
layer {
  name: "Scale59"
  type: "Scale"
  bottom: "BatchNorm59"
  top: "BatchNorm59"
  scale_param {
    filler {
      value: 1
    }
    bias_term: true
    bias_filler {
      value: 0
    }
  }
}
layer {
  name: "ReLU58"
  type: "ReLU"
  bottom: "BatchNorm59"
  top: "BatchNorm59"
}
layer {
  name: "Convolution59"
  type: "Convolution"
  bottom: "BatchNorm59"
  top: "Convolution59"
  convolution_param {
    num_output: 32
    bias_term: false
    pad: 1
    kernel_size: 3
    stride: 1
    weight_filler {
      type: "xavier"
    }
    bias_filler {
      type: "constant"
    }
  }
}
layer {
  name: "concat_2_9"
  type: "Concat"
  bottom: "Concat27"
  bottom: "Convolution59"
  top: "Concat28"
}
layer {
  name: "BatchNorm60"
  type: "BatchNorm"
  bottom: "Concat28"
  top: "BatchNorm60"
  param {
    lr_mult: 0
    decay_mult: 0
  }
  param {
    lr_mult: 0
    decay_mult: 0
  }
  param {
    lr_mult: 0
    decay_mult: 0
  }
}
layer {
  name: "Scale60"
  type: "Scale"
  bottom: "BatchNorm60"
  top: "BatchNorm60"
  scale_param {
    filler {
      value: 1
    }
    bias_term: true
    bias_filler {
      value: 0
    }
  }
}
layer {
  name: "ReLU59"
  type: "ReLU"
  bottom: "BatchNorm60"
  top: "BatchNorm60"
}
layer {
  name: "Convolution60"
  type: "Convolution"
  bottom: "BatchNorm60"
  top: "Convolution60"
  convolution_param {
    num_output: 128
    bias_term: false
    pad: 0
    kernel_size: 1
    stride: 1
    weight_filler {
      type: "xavier"
    }
    bias_filler {
      type: "constant"
    }
  }
}
layer {
  name: "BatchNorm61"
  type: "BatchNorm"
  bottom: "Convolution60"
  top: "BatchNorm61"
  param {
    lr_mult: 0
    decay_mult: 0
  }
  param {
    lr_mult: 0
    decay_mult: 0
  }
  param {
    lr_mult: 0
    decay_mult: 0
  }
}
layer {
  name: "Scale61"
  type: "Scale"
  bottom: "BatchNorm61"
  top: "BatchNorm61"
  scale_param {
    filler {
      value: 1
    }
    bias_term: true
    bias_filler {
      value: 0
    }
  }
}
layer {
  name: "ReLU60"
  type: "ReLU"
  bottom: "BatchNorm61"
  top: "BatchNorm61"
}
layer {
  name: "Convolution61"
  type: "Convolution"
  bottom: "BatchNorm61"
  top: "Convolution61"
  convolution_param {
    num_output: 32
    bias_term: false
    pad: 1
    kernel_size: 3
    stride: 1
    weight_filler {
      type: "xavier"
    }
    bias_filler {
      type: "constant"
    }
  }
}
layer {
  name: "concat_2_10"
  type: "Concat"
  bottom: "Concat28"
  bottom: "Convolution61"
  top: "Concat29"
}
layer {
  name: "BatchNorm62"
  type: "BatchNorm"
  bottom: "Concat29"
  top: "BatchNorm62"
  param {
    lr_mult: 0
    decay_mult: 0
  }
  param {
    lr_mult: 0
    decay_mult: 0
  }
  param {
    lr_mult: 0
    decay_mult: 0
  }
}
layer {
  name: "Scale62"
  type: "Scale"
  bottom: "BatchNorm62"
  top: "BatchNorm62"
  scale_param {
    filler {
      value: 1
    }
    bias_term: true
    bias_filler {
      value: 0
    }
  }
}
layer {
  name: "ReLU61"
  type: "ReLU"
  bottom: "BatchNorm62"
  top: "BatchNorm62"
}
layer {
  name: "Convolution62"
  type: "Convolution"
  bottom: "BatchNorm62"
  top: "Convolution62"
  convolution_param {
    num_output: 128
    bias_term: false
    pad: 0
    kernel_size: 1
    stride: 1
    weight_filler {
      type: "xavier"
    }
    bias_filler {
      type: "constant"
    }
  }
}
layer {
  name: "BatchNorm63"
  type: "BatchNorm"
  bottom: "Convolution62"
  top: "BatchNorm63"
  param {
    lr_mult: 0
    decay_mult: 0
  }
  param {
    lr_mult: 0
    decay_mult: 0
  }
  param {
    lr_mult: 0
    decay_mult: 0
  }
}
layer {
  name: "Scale63"
  type: "Scale"
  bottom: "BatchNorm63"
  top: "BatchNorm63"
  scale_param {
    filler {
      value: 1
    }
    bias_term: true
    bias_filler {
      value: 0
    }
  }
}
layer {
  name: "ReLU62"
  type: "ReLU"
  bottom: "BatchNorm63"
  top: "BatchNorm63"
}
layer {
  name: "Convolution63"
  type: "Convolution"
  bottom: "BatchNorm63"
  top: "Convolution63"
  convolution_param {
    num_output: 32
    bias_term: false
    pad: 1
    kernel_size: 3
    stride: 1
    weight_filler {
      type: "xavier"
    }
    bias_filler {
      type: "constant"
    }
  }
}
layer {
  name: "concat_2_11"
  type: "Concat"
  bottom: "Concat29"
  bottom: "Convolution63"
  top: "Concat30"
}
layer {
  name: "BatchNorm64"
  type: "BatchNorm"
  bottom: "Concat30"
  top: "BatchNorm64"
  param {
    lr_mult: 0
    decay_mult: 0
  }
  param {
    lr_mult: 0
    decay_mult: 0
  }
  param {
    lr_mult: 0
    decay_mult: 0
  }
}
layer {
  name: "Scale64"
  type: "Scale"
  bottom: "BatchNorm64"
  top: "BatchNorm64"
  scale_param {
    filler {
      value: 1
    }
    bias_term: true
    bias_filler {
      value: 0
    }
  }
}
layer {
  name: "ReLU63"
  type: "ReLU"
  bottom: "BatchNorm64"
  top: "BatchNorm64"
}
layer {
  name: "Convolution64"
  type: "Convolution"
  bottom: "BatchNorm64"
  top: "Convolution64"
  convolution_param {
    num_output: 128
    bias_term: false
    pad: 0
    kernel_size: 1
    stride: 1
    weight_filler {
      type: "xavier"
    }
    bias_filler {
      type: "constant"
    }
  }
}
layer {
  name: "BatchNorm65"
  type: "BatchNorm"
  bottom: "Convolution64"
  top: "BatchNorm65"
  param {
    lr_mult: 0
    decay_mult: 0
  }
  param {
    lr_mult: 0
    decay_mult: 0
  }
  param {
    lr_mult: 0
    decay_mult: 0
  }
}
layer {
  name: "Scale65"
  type: "Scale"
  bottom: "BatchNorm65"
  top: "BatchNorm65"
  scale_param {
    filler {
      value: 1
    }
    bias_term: true
    bias_filler {
      value: 0
    }
  }
}
layer {
  name: "ReLU64"
  type: "ReLU"
  bottom: "BatchNorm65"
  top: "BatchNorm65"
}
layer {
  name: "Convolution65"
  type: "Convolution"
  bottom: "BatchNorm65"
  top: "Convolution65"
  convolution_param {
    num_output: 32
    bias_term: false
    pad: 1
    kernel_size: 3
    stride: 1
    weight_filler {
      type: "xavier"
    }
    bias_filler {
      type: "constant"
    }
  }
}
layer {
  name: "concat_2_12"
  type: "Concat"
  bottom: "Concat30"
  bottom: "Convolution65"
  top: "Concat31"
}
layer {
  name: "BatchNorm66"
  type: "BatchNorm"
  bottom: "Concat31"
  top: "BatchNorm66"
  param {
    lr_mult: 0
    decay_mult: 0
  }
  param {
    lr_mult: 0
    decay_mult: 0
  }
  param {
    lr_mult: 0
    decay_mult: 0
  }
}
layer {
  name: "Scale66"
  type: "Scale"
  bottom: "BatchNorm66"
  top: "BatchNorm66"
  scale_param {
    filler {
      value: 1
    }
    bias_term: true
    bias_filler {
      value: 0
    }
  }
}
layer {
  name: "ReLU65"
  type: "ReLU"
  bottom: "BatchNorm66"
  top: "BatchNorm66"
}
layer {
  name: "Convolution66"
  type: "Convolution"
  bottom: "BatchNorm66"
  top: "Convolution66"
  convolution_param {
    num_output: 128
    bias_term: false
    pad: 0
    kernel_size: 1
    stride: 1
    weight_filler {
      type: "xavier"
    }
    bias_filler {
      type: "constant"
    }
  }
}
layer {
  name: "BatchNorm67"
  type: "BatchNorm"
  bottom: "Convolution66"
  top: "BatchNorm67"
  param {
    lr_mult: 0
    decay_mult: 0
  }
  param {
    lr_mult: 0
    decay_mult: 0
  }
  param {
    lr_mult: 0
    decay_mult: 0
  }
}
layer {
  name: "Scale67"
  type: "Scale"
  bottom: "BatchNorm67"
  top: "BatchNorm67"
  scale_param {
    filler {
      value: 1
    }
    bias_term: true
    bias_filler {
      value: 0
    }
  }
}
layer {
  name: "ReLU66"
  type: "ReLU"
  bottom: "BatchNorm67"
  top: "BatchNorm67"
}
layer {
  name: "Convolution67"
  type: "Convolution"
  bottom: "BatchNorm67"
  top: "Convolution67"
  convolution_param {
    num_output: 32
    bias_term: false
    pad: 1
    kernel_size: 3
    stride: 1
    weight_filler {
      type: "xavier"
    }
    bias_filler {
      type: "constant"
    }
  }
}
layer {
  name: "concat_2_13"
  type: "Concat"
  bottom: "Concat31"
  bottom: "Convolution67"
  top: "Concat32"
}
layer {
  name: "BatchNorm68"
  type: "BatchNorm"
  bottom: "Concat32"
  top: "BatchNorm68"
  param {
    lr_mult: 0
    decay_mult: 0
  }
  param {
    lr_mult: 0
    decay_mult: 0
  }
  param {
    lr_mult: 0
    decay_mult: 0
  }
}
layer {
  name: "Scale68"
  type: "Scale"
  bottom: "BatchNorm68"
  top: "BatchNorm68"
  scale_param {
    filler {
      value: 1
    }
    bias_term: true
    bias_filler {
      value: 0
    }
  }
}
layer {
  name: "ReLU67"
  type: "ReLU"
  bottom: "BatchNorm68"
  top: "BatchNorm68"
}
layer {
  name: "Convolution68"
  type: "Convolution"
  bottom: "BatchNorm68"
  top: "Convolution68"
  convolution_param {
    num_output: 128
    bias_term: false
    pad: 0
    kernel_size: 1
    stride: 1
    weight_filler {
      type: "xavier"
    }
    bias_filler {
      type: "constant"
    }
  }
}
layer {
  name: "BatchNorm69"
  type: "BatchNorm"
  bottom: "Convolution68"
  top: "BatchNorm69"
  param {
    lr_mult: 0
    decay_mult: 0
  }
  param {
    lr_mult: 0
    decay_mult: 0
  }
  param {
    lr_mult: 0
    decay_mult: 0
  }
}
layer {
  name: "Scale69"
  type: "Scale"
  bottom: "BatchNorm69"
  top: "BatchNorm69"
  scale_param {
    filler {
      value: 1
    }
    bias_term: true
    bias_filler {
      value: 0
    }
  }
}
layer {
  name: "ReLU68"
  type: "ReLU"
  bottom: "BatchNorm69"
  top: "BatchNorm69"
}
layer {
  name: "Convolution69"
  type: "Convolution"
  bottom: "BatchNorm69"
  top: "Convolution69"
  convolution_param {
    num_output: 32
    bias_term: false
    pad: 1
    kernel_size: 3
    stride: 1
    weight_filler {
      type: "xavier"
    }
    bias_filler {
      type: "constant"
    }
  }
}
layer {
  name: "concat_2_14"
  type: "Concat"
  bottom: "Concat32"
  bottom: "Convolution69"
  top: "Concat33"
}
layer {
  name: "BatchNorm70"
  type: "BatchNorm"
  bottom: "Concat33"
  top: "BatchNorm70"
  param {
    lr_mult: 0
    decay_mult: 0
  }
  param {
    lr_mult: 0
    decay_mult: 0
  }
  param {
    lr_mult: 0
    decay_mult: 0
  }
}
layer {
  name: "Scale70"
  type: "Scale"
  bottom: "BatchNorm70"
  top: "BatchNorm70"
  scale_param {
    filler {
      value: 1
    }
    bias_term: true
    bias_filler {
      value: 0
    }
  }
}
layer {
  name: "ReLU69"
  type: "ReLU"
  bottom: "BatchNorm70"
  top: "BatchNorm70"
}
layer {
  name: "Convolution70"
  type: "Convolution"
  bottom: "BatchNorm70"
  top: "Convolution70"
  convolution_param {
    num_output: 128
    bias_term: false
    pad: 0
    kernel_size: 1
    stride: 1
    weight_filler {
      type: "xavier"
    }
    bias_filler {
      type: "constant"
    }
  }
}
layer {
  name: "BatchNorm71"
  type: "BatchNorm"
  bottom: "Convolution70"
  top: "BatchNorm71"
  param {
    lr_mult: 0
    decay_mult: 0
  }
  param {
    lr_mult: 0
    decay_mult: 0
  }
  param {
    lr_mult: 0
    decay_mult: 0
  }
}
layer {
  name: "Scale71"
  type: "Scale"
  bottom: "BatchNorm71"
  top: "BatchNorm71"
  scale_param {
    filler {
      value: 1
    }
    bias_term: true
    bias_filler {
      value: 0
    }
  }
}
layer {
  name: "ReLU70"
  type: "ReLU"
  bottom: "BatchNorm71"
  top: "BatchNorm71"
}
layer {
  name: "Convolution71"
  type: "Convolution"
  bottom: "BatchNorm71"
  top: "Convolution71"
  convolution_param {
    num_output: 32
    bias_term: false
    pad: 1
    kernel_size: 3
    stride: 1
    weight_filler {
      type: "xavier"
    }
    bias_filler {
      type: "constant"
    }
  }
}
layer {
  name: "concat_2_15"
  type: "Concat"
  bottom: "Concat33"
  bottom: "Convolution71"
  top: "Concat34"
}
layer {
  name: "BatchNorm72"
  type: "BatchNorm"
  bottom: "Concat34"
  top: "BatchNorm72"
  param {
    lr_mult: 0
    decay_mult: 0
  }
  param {
    lr_mult: 0
    decay_mult: 0
  }
  param {
    lr_mult: 0
    decay_mult: 0
  }
}
layer {
  name: "Scale72"
  type: "Scale"
  bottom: "BatchNorm72"
  top: "BatchNorm72"
  scale_param {
    filler {
      value: 1
    }
    bias_term: true
    bias_filler {
      value: 0
    }
  }
}
layer {
  name: "ReLU71"
  type: "ReLU"
  bottom: "BatchNorm72"
  top: "BatchNorm72"
}
layer {
  name: "Convolution72"
  type: "Convolution"
  bottom: "BatchNorm72"
  top: "Convolution72"
  convolution_param {
    num_output: 128
    bias_term: false
    pad: 0
    kernel_size: 1
    stride: 1
    weight_filler {
      type: "xavier"
    }
    bias_filler {
      type: "constant"
    }
  }
}
layer {
  name: "BatchNorm73"
  type: "BatchNorm"
  bottom: "Convolution72"
  top: "BatchNorm73"
  param {
    lr_mult: 0
    decay_mult: 0
  }
  param {
    lr_mult: 0
    decay_mult: 0
  }
  param {
    lr_mult: 0
    decay_mult: 0
  }
}
layer {
  name: "Scale73"
  type: "Scale"
  bottom: "BatchNorm73"
  top: "BatchNorm73"
  scale_param {
    filler {
      value: 1
    }
    bias_term: true
    bias_filler {
      value: 0
    }
  }
}
layer {
  name: "ReLU72"
  type: "ReLU"
  bottom: "BatchNorm73"
  top: "BatchNorm73"
}
layer {
  name: "Convolution73"
  type: "Convolution"
  bottom: "BatchNorm73"
  top: "Convolution73"
  convolution_param {
    num_output: 32
    bias_term: false
    pad: 1
    kernel_size: 3
    stride: 1
    weight_filler {
      type: "xavier"
    }
    bias_filler {
      type: "constant"
    }
  }
}
layer {
  name: "concat_2_16"
  type: "Concat"
  bottom: "Concat34"
  bottom: "Convolution73"
  top: "Concat35"
}
layer {
  name: "BatchNorm74"
  type: "BatchNorm"
  bottom: "Concat35"
  top: "BatchNorm74"
  param {
    lr_mult: 0
    decay_mult: 0
  }
  param {
    lr_mult: 0
    decay_mult: 0
  }
  param {
    lr_mult: 0
    decay_mult: 0
  }
}
layer {
  name: "Scale74"
  type: "Scale"
  bottom: "BatchNorm74"
  top: "BatchNorm74"
  scale_param {
    filler {
      value: 1
    }
    bias_term: true
    bias_filler {
      value: 0
    }
  }
}
layer {
  name: "ReLU73"
  type: "ReLU"
  bottom: "BatchNorm74"
  top: "BatchNorm74"
}
layer {
  name: "Convolution74"
  type: "Convolution"
  bottom: "BatchNorm74"
  top: "Convolution74"
  convolution_param {
    num_output: 128
    bias_term: false
    pad: 0
    kernel_size: 1
    stride: 1
    weight_filler {
      type: "xavier"
    }
    bias_filler {
      type: "constant"
    }
  }
}
layer {
  name: "BatchNorm75"
  type: "BatchNorm"
  bottom: "Convolution74"
  top: "BatchNorm75"
  param {
    lr_mult: 0
    decay_mult: 0
  }
  param {
    lr_mult: 0
    decay_mult: 0
  }
  param {
    lr_mult: 0
    decay_mult: 0
  }
}
layer {
  name: "Scale75"
  type: "Scale"
  bottom: "BatchNorm75"
  top: "BatchNorm75"
  scale_param {
    filler {
      value: 1
    }
    bias_term: true
    bias_filler {
      value: 0
    }
  }
}
layer {
  name: "ReLU74"
  type: "ReLU"
  bottom: "BatchNorm75"
  top: "BatchNorm75"
}
layer {
  name: "Convolution75"
  type: "Convolution"
  bottom: "BatchNorm75"
  top: "Convolution75"
  convolution_param {
    num_output: 32
    bias_term: false
    pad: 1
    kernel_size: 3
    stride: 1
    weight_filler {
      type: "xavier"
    }
    bias_filler {
      type: "constant"
    }
  }
}
layer {
  name: "concat_2_17"
  type: "Concat"
  bottom: "Concat35"
  bottom: "Convolution75"
  top: "Concat36"
}
layer {
  name: "BatchNorm76"
  type: "BatchNorm"
  bottom: "Concat36"
  top: "BatchNorm76"
  param {
    lr_mult: 0
    decay_mult: 0
  }
  param {
    lr_mult: 0
    decay_mult: 0
  }
  param {
    lr_mult: 0
    decay_mult: 0
  }
}
layer {
  name: "Scale76"
  type: "Scale"
  bottom: "BatchNorm76"
  top: "BatchNorm76"
  scale_param {
    filler {
      value: 1
    }
    bias_term: true
    bias_filler {
      value: 0
    }
  }
}
layer {
  name: "ReLU75"
  type: "ReLU"
  bottom: "BatchNorm76"
  top: "BatchNorm76"
}
layer {
  name: "Convolution76"
  type: "Convolution"
  bottom: "BatchNorm76"
  top: "Convolution76"
  convolution_param {
    num_output: 128
    bias_term: false
    pad: 0
    kernel_size: 1
    stride: 1
    weight_filler {
      type: "xavier"
    }
    bias_filler {
      type: "constant"
    }
  }
}
layer {
  name: "BatchNorm77"
  type: "BatchNorm"
  bottom: "Convolution76"
  top: "BatchNorm77"
  param {
    lr_mult: 0
    decay_mult: 0
  }
  param {
    lr_mult: 0
    decay_mult: 0
  }
  param {
    lr_mult: 0
    decay_mult: 0
  }
}
layer {
  name: "Scale77"
  type: "Scale"
  bottom: "BatchNorm77"
  top: "BatchNorm77"
  scale_param {
    filler {
      value: 1
    }
    bias_term: true
    bias_filler {
      value: 0
    }
  }
}
layer {
  name: "ReLU76"
  type: "ReLU"
  bottom: "BatchNorm77"
  top: "BatchNorm77"
}
layer {
  name: "Convolution77"
  type: "Convolution"
  bottom: "BatchNorm77"
  top: "Convolution77"
  convolution_param {
    num_output: 32
    bias_term: false
    pad: 1
    kernel_size: 3
    stride: 1
    weight_filler {
      type: "xavier"
    }
    bias_filler {
      type: "constant"
    }
  }
}
layer {
  name: "concat_2_18"
  type: "Concat"
  bottom: "Concat36"
  bottom: "Convolution77"
  top: "Concat37"
}
layer {
  name: "BatchNorm78"
  type: "BatchNorm"
  bottom: "Concat37"
  top: "BatchNorm78"
  param {
    lr_mult: 0
    decay_mult: 0
  }
  param {
    lr_mult: 0
    decay_mult: 0
  }
  param {
    lr_mult: 0
    decay_mult: 0
  }
}
layer {
  name: "Scale78"
  type: "Scale"
  bottom: "BatchNorm78"
  top: "BatchNorm78"
  scale_param {
    filler {
      value: 1
    }
    bias_term: true
    bias_filler {
      value: 0
    }
  }
}
layer {
  name: "ReLU77"
  type: "ReLU"
  bottom: "BatchNorm78"
  top: "BatchNorm78"
}
layer {
  name: "Convolution78"
  type: "Convolution"
  bottom: "BatchNorm78"
  top: "Convolution78"
  convolution_param {
    num_output: 128
    bias_term: false
    pad: 0
    kernel_size: 1
    stride: 1
    weight_filler {
      type: "xavier"
    }
    bias_filler {
      type: "constant"
    }
  }
}
layer {
  name: "BatchNorm79"
  type: "BatchNorm"
  bottom: "Convolution78"
  top: "BatchNorm79"
  param {
    lr_mult: 0
    decay_mult: 0
  }
  param {
    lr_mult: 0
    decay_mult: 0
  }
  param {
    lr_mult: 0
    decay_mult: 0
  }
}
layer {
  name: "Scale79"
  type: "Scale"
  bottom: "BatchNorm79"
  top: "BatchNorm79"
  scale_param {
    filler {
      value: 1
    }
    bias_term: true
    bias_filler {
      value: 0
    }
  }
}
layer {
  name: "ReLU78"
  type: "ReLU"
  bottom: "BatchNorm79"
  top: "BatchNorm79"
}
layer {
  name: "Convolution79"
  type: "Convolution"
  bottom: "BatchNorm79"
  top: "Convolution79"
  convolution_param {
    num_output: 32
    bias_term: false
    pad: 1
    kernel_size: 3
    stride: 1
    weight_filler {
      type: "xavier"
    }
    bias_filler {
      type: "constant"
    }
  }
}
layer {
  name: "concat_2_19"
  type: "Concat"
  bottom: "Concat37"
  bottom: "Convolution79"
  top: "Concat38"
}
layer {
  name: "BatchNorm80"
  type: "BatchNorm"
  bottom: "Concat38"
  top: "BatchNorm80"
  param {
    lr_mult: 0
    decay_mult: 0
  }
  param {
    lr_mult: 0
    decay_mult: 0
  }
  param {
    lr_mult: 0
    decay_mult: 0
  }
}
layer {
  name: "Scale80"
  type: "Scale"
  bottom: "BatchNorm80"
  top: "BatchNorm80"
  scale_param {
    filler {
      value: 1
    }
    bias_term: true
    bias_filler {
      value: 0
    }
  }
}
layer {
  name: "ReLU79"
  type: "ReLU"
  bottom: "BatchNorm80"
  top: "BatchNorm80"
}
layer {
  name: "Convolution80"
  type: "Convolution"
  bottom: "BatchNorm80"
  top: "Convolution80"
  convolution_param {
    num_output: 128
    bias_term: false
    pad: 0
    kernel_size: 1
    stride: 1
    weight_filler {
      type: "xavier"
    }
    bias_filler {
      type: "constant"
    }
  }
}
layer {
  name: "BatchNorm81"
  type: "BatchNorm"
  bottom: "Convolution80"
  top: "BatchNorm81"
  param {
    lr_mult: 0
    decay_mult: 0
  }
  param {
    lr_mult: 0
    decay_mult: 0
  }
  param {
    lr_mult: 0
    decay_mult: 0
  }
}
layer {
  name: "Scale81"
  type: "Scale"
  bottom: "BatchNorm81"
  top: "BatchNorm81"
  scale_param {
    filler {
      value: 1
    }
    bias_term: true
    bias_filler {
      value: 0
    }
  }
}
layer {
  name: "ReLU80"
  type: "ReLU"
  bottom: "BatchNorm81"
  top: "BatchNorm81"
}
layer {
  name: "Convolution81"
  type: "Convolution"
  bottom: "BatchNorm81"
  top: "Convolution81"
  convolution_param {
    num_output: 32
    bias_term: false
    pad: 1
    kernel_size: 3
    stride: 1
    weight_filler {
      type: "xavier"
    }
    bias_filler {
      type: "constant"
    }
  }
}
layer {
  name: "concat_2_20"
  type: "Concat"
  bottom: "Concat38"
  bottom: "Convolution81"
  top: "Concat39"
}
layer {
  name: "BatchNorm82"
  type: "BatchNorm"
  bottom: "Concat39"
  top: "BatchNorm82"
  param {
    lr_mult: 0
    decay_mult: 0
  }
  param {
    lr_mult: 0
    decay_mult: 0
  }
  param {
    lr_mult: 0
    decay_mult: 0
  }
}
layer {
  name: "Scale82"
  type: "Scale"
  bottom: "BatchNorm82"
  top: "BatchNorm82"
  scale_param {
    filler {
      value: 1
    }
    bias_term: true
    bias_filler {
      value: 0
    }
  }
}
layer {
  name: "ReLU81"
  type: "ReLU"
  bottom: "BatchNorm82"
  top: "BatchNorm82"
}
layer {
  name: "Convolution82"
  type: "Convolution"
  bottom: "BatchNorm82"
  top: "Convolution82"
  convolution_param {
    num_output: 128
    bias_term: false
    pad: 0
    kernel_size: 1
    stride: 1
    weight_filler {
      type: "xavier"
    }
    bias_filler {
      type: "constant"
    }
  }
}
layer {
  name: "BatchNorm83"
  type: "BatchNorm"
  bottom: "Convolution82"
  top: "BatchNorm83"
  param {
    lr_mult: 0
    decay_mult: 0
  }
  param {
    lr_mult: 0
    decay_mult: 0
  }
  param {
    lr_mult: 0
    decay_mult: 0
  }
}
layer {
  name: "Scale83"
  type: "Scale"
  bottom: "BatchNorm83"
  top: "BatchNorm83"
  scale_param {
    filler {
      value: 1
    }
    bias_term: true
    bias_filler {
      value: 0
    }
  }
}
layer {
  name: "ReLU82"
  type: "ReLU"
  bottom: "BatchNorm83"
  top: "BatchNorm83"
}
layer {
  name: "Convolution83"
  type: "Convolution"
  bottom: "BatchNorm83"
  top: "Convolution83"
  convolution_param {
    num_output: 32
    bias_term: false
    pad: 1
    kernel_size: 3
    stride: 1
    weight_filler {
      type: "xavier"
    }
    bias_filler {
      type: "constant"
    }
  }
}
layer {
  name: "concat_2_21"
  type: "Concat"
  bottom: "Concat39"
  bottom: "Convolution83"
  top: "Concat40"
}
layer {
  name: "BatchNorm84"
  type: "BatchNorm"
  bottom: "Concat40"
  top: "BatchNorm84"
  param {
    lr_mult: 0
    decay_mult: 0
  }
  param {
    lr_mult: 0
    decay_mult: 0
  }
  param {
    lr_mult: 0
    decay_mult: 0
  }
}
layer {
  name: "Scale84"
  type: "Scale"
  bottom: "BatchNorm84"
  top: "BatchNorm84"
  scale_param {
    filler {
      value: 1
    }
    bias_term: true
    bias_filler {
      value: 0
    }
  }
}
layer {
  name: "ReLU83"
  type: "ReLU"
  bottom: "BatchNorm84"
  top: "BatchNorm84"
}
layer {
  name: "Convolution84"
  type: "Convolution"
  bottom: "BatchNorm84"
  top: "Convolution84"
  convolution_param {
    num_output: 128
    bias_term: false
    pad: 0
    kernel_size: 1
    stride: 1
    weight_filler {
      type: "xavier"
    }
    bias_filler {
      type: "constant"
    }
  }
}
layer {
  name: "BatchNorm85"
  type: "BatchNorm"
  bottom: "Convolution84"
  top: "BatchNorm85"
  param {
    lr_mult: 0
    decay_mult: 0
  }
  param {
    lr_mult: 0
    decay_mult: 0
  }
  param {
    lr_mult: 0
    decay_mult: 0
  }
}
layer {
  name: "Scale85"
  type: "Scale"
  bottom: "BatchNorm85"
  top: "BatchNorm85"
  scale_param {
    filler {
      value: 1
    }
    bias_term: true
    bias_filler {
      value: 0
    }
  }
}
layer {
  name: "ReLU84"
  type: "ReLU"
  bottom: "BatchNorm85"
  top: "BatchNorm85"
}
layer {
  name: "Convolution85"
  type: "Convolution"
  bottom: "BatchNorm85"
  top: "Convolution85"
  convolution_param {
    num_output: 32
    bias_term: false
    pad: 1
    kernel_size: 3
    stride: 1
    weight_filler {
      type: "xavier"
    }
    bias_filler {
      type: "constant"
    }
  }
}
layer {
  name: "concat_2_22"
  type: "Concat"
  bottom: "Concat40"
  bottom: "Convolution85"
  top: "Concat41"
}
layer {
  name: "BatchNorm86"
  type: "BatchNorm"
  bottom: "Concat41"
  top: "BatchNorm86"
  param {
    lr_mult: 0
    decay_mult: 0
  }
  param {
    lr_mult: 0
    decay_mult: 0
  }
  param {
    lr_mult: 0
    decay_mult: 0
  }
}
layer {
  name: "Scale86"
  type: "Scale"
  bottom: "BatchNorm86"
  top: "BatchNorm86"
  scale_param {
    filler {
      value: 1
    }
    bias_term: true
    bias_filler {
      value: 0
    }
  }
}
layer {
  name: "ReLU85"
  type: "ReLU"
  bottom: "BatchNorm86"
  top: "BatchNorm86"
}
layer {
  name: "Convolution86"
  type: "Convolution"
  bottom: "BatchNorm86"
  top: "Convolution86"
  convolution_param {
    num_output: 128
    bias_term: false
    pad: 0
    kernel_size: 1
    stride: 1
    weight_filler {
      type: "xavier"
    }
    bias_filler {
      type: "constant"
    }
  }
}
layer {
  name: "BatchNorm87"
  type: "BatchNorm"
  bottom: "Convolution86"
  top: "BatchNorm87"
  param {
    lr_mult: 0
    decay_mult: 0
  }
  param {
    lr_mult: 0
    decay_mult: 0
  }
  param {
    lr_mult: 0
    decay_mult: 0
  }
}
layer {
  name: "Scale87"
  type: "Scale"
  bottom: "BatchNorm87"
  top: "BatchNorm87"
  scale_param {
    filler {
      value: 1
    }
    bias_term: true
    bias_filler {
      value: 0
    }
  }
}
layer {
  name: "ReLU86"
  type: "ReLU"
  bottom: "BatchNorm87"
  top: "BatchNorm87"
}
layer {
  name: "Convolution87"
  type: "Convolution"
  bottom: "BatchNorm87"
  top: "Convolution87"
  convolution_param {
    num_output: 32
    bias_term: false
    pad: 1
    kernel_size: 3
    stride: 1
    weight_filler {
      type: "xavier"
    }
    bias_filler {
      type: "constant"
    }
  }
}
layer {
  name: "concat_2_23"
  type: "Concat"
  bottom: "Concat41"
  bottom: "Convolution87"
  top: "Concat42"
}
layer {
  name: "BatchNorm88"
  type: "BatchNorm"
  bottom: "Concat42"
  top: "BatchNorm88"
  param {
    lr_mult: 0
    decay_mult: 0
  }
  param {
    lr_mult: 0
    decay_mult: 0
  }
  param {
    lr_mult: 0
    decay_mult: 0
  }
}
layer {
  name: "Scale88"
  type: "Scale"
  bottom: "BatchNorm88"
  top: "BatchNorm88"
  scale_param {
    filler {
      value: 1
    }
    bias_term: true
    bias_filler {
      value: 0
    }
  }
}
layer {
  name: "ReLU87"
  type: "ReLU"
  bottom: "BatchNorm88"
  top: "BatchNorm88"
}
layer {
  name: "Convolution88"
  type: "Convolution"
  bottom: "BatchNorm88"
  top: "Convolution88"
  convolution_param {
    num_output: 128
    bias_term: false
    pad: 0
    kernel_size: 1
    stride: 1
    weight_filler {
      type: "xavier"
    }
    bias_filler {
      type: "constant"
    }
  }
}
layer {
  name: "BatchNorm89"
  type: "BatchNorm"
  bottom: "Convolution88"
  top: "BatchNorm89"
  param {
    lr_mult: 0
    decay_mult: 0
  }
  param {
    lr_mult: 0
    decay_mult: 0
  }
  param {
    lr_mult: 0
    decay_mult: 0
  }
}
layer {
  name: "Scale89"
  type: "Scale"
  bottom: "BatchNorm89"
  top: "BatchNorm89"
  scale_param {
    filler {
      value: 1
    }
    bias_term: true
    bias_filler {
      value: 0
    }
  }
}
layer {
  name: "ReLU88"
  type: "ReLU"
  bottom: "BatchNorm89"
  top: "BatchNorm89"
}
layer {
  name: "Convolution89"
  type: "Convolution"
  bottom: "BatchNorm89"
  top: "Convolution89"
  convolution_param {
    num_output: 32
    bias_term: false
    pad: 1
    kernel_size: 3
    stride: 1
    weight_filler {
      type: "xavier"
    }
    bias_filler {
      type: "constant"
    }
  }
}
layer {
  name: "concat_2_24"
  type: "Concat"
  bottom: "Concat42"
  bottom: "Convolution89"
  top: "Concat43"
}
layer {
  name: "BatchNorm90"
  type: "BatchNorm"
  bottom: "Concat43"
  top: "BatchNorm90"
  param {
    lr_mult: 0
    decay_mult: 0
  }
  param {
    lr_mult: 0
    decay_mult: 0
  }
  param {
    lr_mult: 0
    decay_mult: 0
  }
}
layer {
  name: "Scale90"
  type: "Scale"
  bottom: "BatchNorm90"
  top: "BatchNorm90"
  scale_param {
    filler {
      value: 1
    }
    bias_term: true
    bias_filler {
      value: 0
    }
  }
}
layer {
  name: "ReLU89"
  type: "ReLU"
  bottom: "BatchNorm90"
  top: "BatchNorm90"
}
layer {
  name: "Convolution90"
  type: "Convolution"
  bottom: "BatchNorm90"
  top: "Convolution90"
  convolution_param {
    num_output: 128
    bias_term: false
    pad: 0
    kernel_size: 1
    stride: 1
    weight_filler {
      type: "xavier"
    }
    bias_filler {
      type: "constant"
    }
  }
}
layer {
  name: "BatchNorm91"
  type: "BatchNorm"
  bottom: "Convolution90"
  top: "BatchNorm91"
  param {
    lr_mult: 0
    decay_mult: 0
  }
  param {
    lr_mult: 0
    decay_mult: 0
  }
  param {
    lr_mult: 0
    decay_mult: 0
  }
}
layer {
  name: "Scale91"
  type: "Scale"
  bottom: "BatchNorm91"
  top: "BatchNorm91"
  scale_param {
    filler {
      value: 1
    }
    bias_term: true
    bias_filler {
      value: 0
    }
  }
}
layer {
  name: "ReLU90"
  type: "ReLU"
  bottom: "BatchNorm91"
  top: "BatchNorm91"
}
layer {
  name: "Convolution91"
  type: "Convolution"
  bottom: "BatchNorm91"
  top: "Convolution91"
  convolution_param {
    num_output: 32
    bias_term: false
    pad: 1
    kernel_size: 3
    stride: 1
    weight_filler {
      type: "xavier"
    }
    bias_filler {
      type: "constant"
    }
  }
}
layer {
  name: "concat_2_25"
  type: "Concat"
  bottom: "Concat43"
  bottom: "Convolution91"
  top: "Concat44"
}
layer {
  name: "BatchNorm92"
  type: "BatchNorm"
  bottom: "Concat44"
  top: "BatchNorm92"
  param {
    lr_mult: 0
    decay_mult: 0
  }
  param {
    lr_mult: 0
    decay_mult: 0
  }
  param {
    lr_mult: 0
    decay_mult: 0
  }
}
layer {
  name: "Scale92"
  type: "Scale"
  bottom: "BatchNorm92"
  top: "BatchNorm92"
  scale_param {
    filler {
      value: 1
    }
    bias_term: true
    bias_filler {
      value: 0
    }
  }
}
layer {
  name: "ReLU91"
  type: "ReLU"
  bottom: "BatchNorm92"
  top: "BatchNorm92"
}
layer {
  name: "Convolution92"
  type: "Convolution"
  bottom: "BatchNorm92"
  top: "Convolution92"
  convolution_param {
    num_output: 128
    bias_term: false
    pad: 0
    kernel_size: 1
    stride: 1
    weight_filler {
      type: "xavier"
    }
    bias_filler {
      type: "constant"
    }
  }
}
layer {
  name: "BatchNorm93"
  type: "BatchNorm"
  bottom: "Convolution92"
  top: "BatchNorm93"
  param {
    lr_mult: 0
    decay_mult: 0
  }
  param {
    lr_mult: 0
    decay_mult: 0
  }
  param {
    lr_mult: 0
    decay_mult: 0
  }
}
layer {
  name: "Scale93"
  type: "Scale"
  bottom: "BatchNorm93"
  top: "BatchNorm93"
  scale_param {
    filler {
      value: 1
    }
    bias_term: true
    bias_filler {
      value: 0
    }
  }
}
layer {
  name: "ReLU92"
  type: "ReLU"
  bottom: "BatchNorm93"
  top: "BatchNorm93"
}
layer {
  name: "Convolution93"
  type: "Convolution"
  bottom: "BatchNorm93"
  top: "Convolution93"
  convolution_param {
    num_output: 32
    bias_term: false
    pad: 1
    kernel_size: 3
    stride: 1
    weight_filler {
      type: "xavier"
    }
    bias_filler {
      type: "constant"
    }
  }
}
layer {
  name: "concat_2_26"
  type: "Concat"
  bottom: "Concat44"
  bottom: "Convolution93"
  top: "Concat45"
}
layer {
  name: "BatchNorm94"
  type: "BatchNorm"
  bottom: "Concat45"
  top: "BatchNorm94"
  param {
    lr_mult: 0
    decay_mult: 0
  }
  param {
    lr_mult: 0
    decay_mult: 0
  }
  param {
    lr_mult: 0
    decay_mult: 0
  }
}
layer {
  name: "Scale94"
  type: "Scale"
  bottom: "BatchNorm94"
  top: "BatchNorm94"
  scale_param {
    filler {
      value: 1
    }
    bias_term: true
    bias_filler {
      value: 0
    }
  }
}
layer {
  name: "ReLU93"
  type: "ReLU"
  bottom: "BatchNorm94"
  top: "BatchNorm94"
}
layer {
  name: "Convolution94"
  type: "Convolution"
  bottom: "BatchNorm94"
  top: "Convolution94"
  convolution_param {
    num_output: 128
    bias_term: false
    pad: 0
    kernel_size: 1
    stride: 1
    weight_filler {
      type: "xavier"
    }
    bias_filler {
      type: "constant"
    }
  }
}
layer {
  name: "BatchNorm95"
  type: "BatchNorm"
  bottom: "Convolution94"
  top: "BatchNorm95"
  param {
    lr_mult: 0
    decay_mult: 0
  }
  param {
    lr_mult: 0
    decay_mult: 0
  }
  param {
    lr_mult: 0
    decay_mult: 0
  }
}
layer {
  name: "Scale95"
  type: "Scale"
  bottom: "BatchNorm95"
  top: "BatchNorm95"
  scale_param {
    filler {
      value: 1
    }
    bias_term: true
    bias_filler {
      value: 0
    }
  }
}
layer {
  name: "ReLU94"
  type: "ReLU"
  bottom: "BatchNorm95"
  top: "BatchNorm95"
}
layer {
  name: "Convolution95"
  type: "Convolution"
  bottom: "BatchNorm95"
  top: "Convolution95"
  convolution_param {
    num_output: 32
    bias_term: false
    pad: 1
    kernel_size: 3
    stride: 1
    weight_filler {
      type: "xavier"
    }
    bias_filler {
      type: "constant"
    }
  }
}
layer {
  name: "concat_2_27"
  type: "Concat"
  bottom: "Concat45"
  bottom: "Convolution95"
  top: "Concat46"
}
layer {
  name: "BatchNorm96"
  type: "BatchNorm"
  bottom: "Concat46"
  top: "BatchNorm96"
  param {
    lr_mult: 0
    decay_mult: 0
  }
  param {
    lr_mult: 0
    decay_mult: 0
  }
  param {
    lr_mult: 0
    decay_mult: 0
  }
}
layer {
  name: "Scale96"
  type: "Scale"
  bottom: "BatchNorm96"
  top: "BatchNorm96"
  scale_param {
    filler {
      value: 1
    }
    bias_term: true
    bias_filler {
      value: 0
    }
  }
}
layer {
  name: "ReLU95"
  type: "ReLU"
  bottom: "BatchNorm96"
  top: "BatchNorm96"
}
layer {
  name: "Convolution96"
  type: "Convolution"
  bottom: "BatchNorm96"
  top: "Convolution96"
  convolution_param {
    num_output: 128
    bias_term: false
    pad: 0
    kernel_size: 1
    stride: 1
    weight_filler {
      type: "xavier"
    }
    bias_filler {
      type: "constant"
    }
  }
}
layer {
  name: "BatchNorm97"
  type: "BatchNorm"
  bottom: "Convolution96"
  top: "BatchNorm97"
  param {
    lr_mult: 0
    decay_mult: 0
  }
  param {
    lr_mult: 0
    decay_mult: 0
  }
  param {
    lr_mult: 0
    decay_mult: 0
  }
}
layer {
  name: "Scale97"
  type: "Scale"
  bottom: "BatchNorm97"
  top: "BatchNorm97"
  scale_param {
    filler {
      value: 1
    }
    bias_term: true
    bias_filler {
      value: 0
    }
  }
}
layer {
  name: "ReLU96"
  type: "ReLU"
  bottom: "BatchNorm97"
  top: "BatchNorm97"
}
layer {
  name: "Convolution97"
  type: "Convolution"
  bottom: "BatchNorm97"
  top: "Convolution97"
  convolution_param {
    num_output: 32
    bias_term: false
    pad: 1
    kernel_size: 3
    stride: 1
    weight_filler {
      type: "xavier"
    }
    bias_filler {
      type: "constant"
    }
  }
}
layer {
  name: "concat_2_28"
  type: "Concat"
  bottom: "Concat46"
  bottom: "Convolution97"
  top: "Concat47"
}
layer {
  name: "BatchNorm98"
  type: "BatchNorm"
  bottom: "Concat47"
  top: "BatchNorm98"
  param {
    lr_mult: 0
    decay_mult: 0
  }
  param {
    lr_mult: 0
    decay_mult: 0
  }
  param {
    lr_mult: 0
    decay_mult: 0
  }
}
layer {
  name: "Scale98"
  type: "Scale"
  bottom: "BatchNorm98"
  top: "BatchNorm98"
  scale_param {
    filler {
      value: 1
    }
    bias_term: true
    bias_filler {
      value: 0
    }
  }
}
layer {
  name: "ReLU97"
  type: "ReLU"
  bottom: "BatchNorm98"
  top: "BatchNorm98"
}
layer {
  name: "Convolution98"
  type: "Convolution"
  bottom: "BatchNorm98"
  top: "Convolution98"
  convolution_param {
    num_output: 128
    bias_term: false
    pad: 0
    kernel_size: 1
    stride: 1
    weight_filler {
      type: "xavier"
    }
    bias_filler {
      type: "constant"
    }
  }
}
layer {
  name: "BatchNorm99"
  type: "BatchNorm"
  bottom: "Convolution98"
  top: "BatchNorm99"
  param {
    lr_mult: 0
    decay_mult: 0
  }
  param {
    lr_mult: 0
    decay_mult: 0
  }
  param {
    lr_mult: 0
    decay_mult: 0
  }
}
layer {
  name: "Scale99"
  type: "Scale"
  bottom: "BatchNorm99"
  top: "BatchNorm99"
  scale_param {
    filler {
      value: 1
    }
    bias_term: true
    bias_filler {
      value: 0
    }
  }
}
layer {
  name: "ReLU98"
  type: "ReLU"
  bottom: "BatchNorm99"
  top: "BatchNorm99"
}
layer {
  name: "Convolution99"
  type: "Convolution"
  bottom: "BatchNorm99"
  top: "Convolution99"
  convolution_param {
    num_output: 32
    bias_term: false
    pad: 1
    kernel_size: 3
    stride: 1
    weight_filler {
      type: "xavier"
    }
    bias_filler {
      type: "constant"
    }
  }
}
layer {
  name: "concat_2_29"
  type: "Concat"
  bottom: "Concat47"
  bottom: "Convolution99"
  top: "Concat48"
}
layer {
  name: "BatchNorm100"
  type: "BatchNorm"
  bottom: "Concat48"
  top: "BatchNorm100"
  param {
    lr_mult: 0
    decay_mult: 0
  }
  param {
    lr_mult: 0
    decay_mult: 0
  }
  param {
    lr_mult: 0
    decay_mult: 0
  }
}
layer {
  name: "Scale100"
  type: "Scale"
  bottom: "BatchNorm100"
  top: "BatchNorm100"
  scale_param {
    filler {
      value: 1
    }
    bias_term: true
    bias_filler {
      value: 0
    }
  }
}
layer {
  name: "ReLU99"
  type: "ReLU"
  bottom: "BatchNorm100"
  top: "BatchNorm100"
}
layer {
  name: "Convolution100"
  type: "Convolution"
  bottom: "BatchNorm100"
  top: "Convolution100"
  convolution_param {
    num_output: 128
    bias_term: false
    pad: 0
    kernel_size: 1
    stride: 1
    weight_filler {
      type: "xavier"
    }
    bias_filler {
      type: "constant"
    }
  }
}
layer {
  name: "BatchNorm101"
  type: "BatchNorm"
  bottom: "Convolution100"
  top: "BatchNorm101"
  param {
    lr_mult: 0
    decay_mult: 0
  }
  param {
    lr_mult: 0
    decay_mult: 0
  }
  param {
    lr_mult: 0
    decay_mult: 0
  }
}
layer {
  name: "Scale101"
  type: "Scale"
  bottom: "BatchNorm101"
  top: "BatchNorm101"
  scale_param {
    filler {
      value: 1
    }
    bias_term: true
    bias_filler {
      value: 0
    }
  }
}
layer {
  name: "ReLU100"
  type: "ReLU"
  bottom: "BatchNorm101"
  top: "BatchNorm101"
}
layer {
  name: "Convolution101"
  type: "Convolution"
  bottom: "BatchNorm101"
  top: "Convolution101"
  convolution_param {
    num_output: 32
    bias_term: false
    pad: 1
    kernel_size: 3
    stride: 1
    weight_filler {
      type: "xavier"
    }
    bias_filler {
      type: "constant"
    }
  }
}
layer {
  name: "concat_2_30"
  type: "Concat"
  bottom: "Concat48"
  bottom: "Convolution101"
  top: "Concat49"
}
layer {
  name: "BatchNorm102"
  type: "BatchNorm"
  bottom: "Concat49"
  top: "BatchNorm102"
  param {
    lr_mult: 0
    decay_mult: 0
  }
  param {
    lr_mult: 0
    decay_mult: 0
  }
  param {
    lr_mult: 0
    decay_mult: 0
  }
}
layer {
  name: "Scale102"
  type: "Scale"
  bottom: "BatchNorm102"
  top: "BatchNorm102"
  scale_param {
    filler {
      value: 1
    }
    bias_term: true
    bias_filler {
      value: 0
    }
  }
}
layer {
  name: "ReLU101"
  type: "ReLU"
  bottom: "BatchNorm102"
  top: "BatchNorm102"
}
layer {
  name: "Convolution102"
  type: "Convolution"
  bottom: "BatchNorm102"
  top: "Convolution102"
  convolution_param {
    num_output: 128
    bias_term: false
    pad: 0
    kernel_size: 1
    stride: 1
    weight_filler {
      type: "xavier"
    }
    bias_filler {
      type: "constant"
    }
  }
}
layer {
  name: "BatchNorm103"
  type: "BatchNorm"
  bottom: "Convolution102"
  top: "BatchNorm103"
  param {
    lr_mult: 0
    decay_mult: 0
  }
  param {
    lr_mult: 0
    decay_mult: 0
  }
  param {
    lr_mult: 0
    decay_mult: 0
  }
}
layer {
  name: "Scale103"
  type: "Scale"
  bottom: "BatchNorm103"
  top: "BatchNorm103"
  scale_param {
    filler {
      value: 1
    }
    bias_term: true
    bias_filler {
      value: 0
    }
  }
}
layer {
  name: "ReLU102"
  type: "ReLU"
  bottom: "BatchNorm103"
  top: "BatchNorm103"
}
layer {
  name: "Convolution103"
  type: "Convolution"
  bottom: "BatchNorm103"
  top: "Convolution103"
  convolution_param {
    num_output: 32
    bias_term: false
    pad: 1
    kernel_size: 3
    stride: 1
    weight_filler {
      type: "xavier"
    }
    bias_filler {
      type: "constant"
    }
  }
}
layer {
  name: "concat_2_31"
  type: "Concat"
  bottom: "Concat49"
  bottom: "Convolution103"
  top: "Concat50"
}
layer {
  name: "BatchNorm104"
  type: "BatchNorm"
  bottom: "Concat50"
  top: "BatchNorm104"
  param {
    lr_mult: 0
    decay_mult: 0
  }
  param {
    lr_mult: 0
    decay_mult: 0
  }
  param {
    lr_mult: 0
    decay_mult: 0
  }
}
layer {
  name: "Scale104"
  type: "Scale"
  bottom: "BatchNorm104"
  top: "BatchNorm104"
  scale_param {
    filler {
      value: 1
    }
    bias_term: true
    bias_filler {
      value: 0
    }
  }
}
layer {
  name: "ReLU103"
  type: "ReLU"
  bottom: "BatchNorm104"
  top: "BatchNorm104"
}
layer {
  name: "Convolution104"
  type: "Convolution"
  bottom: "BatchNorm104"
  top: "Convolution104"
  convolution_param {
    num_output: 128
    bias_term: false
    pad: 0
    kernel_size: 1
    stride: 1
    weight_filler {
      type: "xavier"
    }
    bias_filler {
      type: "constant"
    }
  }
}
layer {
  name: "BatchNorm105"
  type: "BatchNorm"
  bottom: "Convolution104"
  top: "BatchNorm105"
  param {
    lr_mult: 0
    decay_mult: 0
  }
  param {
    lr_mult: 0
    decay_mult: 0
  }
  param {
    lr_mult: 0
    decay_mult: 0
  }
}
layer {
  name: "Scale105"
  type: "Scale"
  bottom: "BatchNorm105"
  top: "BatchNorm105"
  scale_param {
    filler {
      value: 1
    }
    bias_term: true
    bias_filler {
      value: 0
    }
  }
}
layer {
  name: "ReLU104"
  type: "ReLU"
  bottom: "BatchNorm105"
  top: "BatchNorm105"
}
layer {
  name: "Convolution105"
  type: "Convolution"
  bottom: "BatchNorm105"
  top: "Convolution105"
  convolution_param {
    num_output: 32
    bias_term: false
    pad: 1
    kernel_size: 3
    stride: 1
    weight_filler {
      type: "xavier"
    }
    bias_filler {
      type: "constant"
    }
  }
}
layer {
  name: "concat_2_32"
  type: "Concat"
  bottom: "Concat50"
  bottom: "Convolution105"
  top: "Concat51"
}
layer {
  name: "BatchNorm106"
  type: "BatchNorm"
  bottom: "Concat51"
  top: "BatchNorm106"
  param {
    lr_mult: 0
    decay_mult: 0
  }
  param {
    lr_mult: 0
    decay_mult: 0
  }
  param {
    lr_mult: 0
    decay_mult: 0
  }
}
layer {
  name: "Scale106"
  type: "Scale"
  bottom: "BatchNorm106"
  top: "BatchNorm106"
  scale_param {
    filler {
      value: 1
    }
    bias_term: true
    bias_filler {
      value: 0
    }
  }
}
layer {
  name: "ReLU105"
  type: "ReLU"
  bottom: "BatchNorm106"
  top: "BatchNorm106"
}
layer {
  name: "Convolution106"
  type: "Convolution"
  bottom: "BatchNorm106"
  top: "Convolution106"
  convolution_param {
    num_output: 128
    bias_term: false
    pad: 0
    kernel_size: 1
    stride: 1
    weight_filler {
      type: "xavier"
    }
    bias_filler {
      type: "constant"
    }
  }
}
layer {
  name: "BatchNorm107"
  type: "BatchNorm"
  bottom: "Convolution106"
  top: "BatchNorm107"
  param {
    lr_mult: 0
    decay_mult: 0
  }
  param {
    lr_mult: 0
    decay_mult: 0
  }
  param {
    lr_mult: 0
    decay_mult: 0
  }
}
layer {
  name: "Scale107"
  type: "Scale"
  bottom: "BatchNorm107"
  top: "BatchNorm107"
  scale_param {
    filler {
      value: 1
    }
    bias_term: true
    bias_filler {
      value: 0
    }
  }
}
layer {
  name: "ReLU106"
  type: "ReLU"
  bottom: "BatchNorm107"
  top: "BatchNorm107"
}
layer {
  name: "Convolution107"
  type: "Convolution"
  bottom: "BatchNorm107"
  top: "Convolution107"
  convolution_param {
    num_output: 32
    bias_term: false
    pad: 1
    kernel_size: 3
    stride: 1
    weight_filler {
      type: "xavier"
    }
    bias_filler {
      type: "constant"
    }
  }
}
layer {
  name: "concat_2_33"
  type: "Concat"
  bottom: "Concat51"
  bottom: "Convolution107"
  top: "Concat52"
}
layer {
  name: "BatchNorm108"
  type: "BatchNorm"
  bottom: "Concat52"
  top: "BatchNorm108"
  param {
    lr_mult: 0
    decay_mult: 0
  }
  param {
    lr_mult: 0
    decay_mult: 0
  }
  param {
    lr_mult: 0
    decay_mult: 0
  }
}
layer {
  name: "Scale108"
  type: "Scale"
  bottom: "BatchNorm108"
  top: "BatchNorm108"
  scale_param {
    filler {
      value: 1
    }
    bias_term: true
    bias_filler {
      value: 0
    }
  }
}
layer {
  name: "ReLU107"
  type: "ReLU"
  bottom: "BatchNorm108"
  top: "BatchNorm108"
}
layer {
  name: "Convolution108"
  type: "Convolution"
  bottom: "BatchNorm108"
  top: "Convolution108"
  convolution_param {
    num_output: 128
    bias_term: false
    pad: 0
    kernel_size: 1
    stride: 1
    weight_filler {
      type: "xavier"
    }
    bias_filler {
      type: "constant"
    }
  }
}
layer {
  name: "BatchNorm109"
  type: "BatchNorm"
  bottom: "Convolution108"
  top: "BatchNorm109"
  param {
    lr_mult: 0
    decay_mult: 0
  }
  param {
    lr_mult: 0
    decay_mult: 0
  }
  param {
    lr_mult: 0
    decay_mult: 0
  }
}
layer {
  name: "Scale109"
  type: "Scale"
  bottom: "BatchNorm109"
  top: "BatchNorm109"
  scale_param {
    filler {
      value: 1
    }
    bias_term: true
    bias_filler {
      value: 0
    }
  }
}
layer {
  name: "ReLU108"
  type: "ReLU"
  bottom: "BatchNorm109"
  top: "BatchNorm109"
}
layer {
  name: "Convolution109"
  type: "Convolution"
  bottom: "BatchNorm109"
  top: "Convolution109"
  convolution_param {
    num_output: 32
    bias_term: false
    pad: 1
    kernel_size: 3
    stride: 1
    weight_filler {
      type: "xavier"
    }
    bias_filler {
      type: "constant"
    }
  }
}
layer {
  name: "concat_2_34"
  type: "Concat"
  bottom: "Concat52"
  bottom: "Convolution109"
  top: "Concat53"
}
layer {
  name: "BatchNorm110"
  type: "BatchNorm"
  bottom: "Concat53"
  top: "BatchNorm110"
  param {
    lr_mult: 0
    decay_mult: 0
  }
  param {
    lr_mult: 0
    decay_mult: 0
  }
  param {
    lr_mult: 0
    decay_mult: 0
  }
}
layer {
  name: "Scale110"
  type: "Scale"
  bottom: "BatchNorm110"
  top: "BatchNorm110"
  scale_param {
    filler {
      value: 1
    }
    bias_term: true
    bias_filler {
      value: 0
    }
  }
}
layer {
  name: "ReLU109"
  type: "ReLU"
  bottom: "BatchNorm110"
  top: "BatchNorm110"
}
layer {
  name: "Convolution110"
  type: "Convolution"
  bottom: "BatchNorm110"
  top: "Convolution110"
  convolution_param {
    num_output: 128
    bias_term: false
    pad: 0
    kernel_size: 1
    stride: 1
    weight_filler {
      type: "xavier"
    }
    bias_filler {
      type: "constant"
    }
  }
}
layer {
  name: "BatchNorm111"
  type: "BatchNorm"
  bottom: "Convolution110"
  top: "BatchNorm111"
  param {
    lr_mult: 0
    decay_mult: 0
  }
  param {
    lr_mult: 0
    decay_mult: 0
  }
  param {
    lr_mult: 0
    decay_mult: 0
  }
}
layer {
  name: "Scale111"
  type: "Scale"
  bottom: "BatchNorm111"
  top: "BatchNorm111"
  scale_param {
    filler {
      value: 1
    }
    bias_term: true
    bias_filler {
      value: 0
    }
  }
}
layer {
  name: "ReLU110"
  type: "ReLU"
  bottom: "BatchNorm111"
  top: "BatchNorm111"
}
layer {
  name: "Convolution111"
  type: "Convolution"
  bottom: "BatchNorm111"
  top: "Convolution111"
  convolution_param {
    num_output: 32
    bias_term: false
    pad: 1
    kernel_size: 3
    stride: 1
    weight_filler {
      type: "xavier"
    }
    bias_filler {
      type: "constant"
    }
  }
}
layer {
  name: "concat_2_35"
  type: "Concat"
  bottom: "Concat53"
  bottom: "Convolution111"
  top: "Concat54"
}
layer {
  name: "BatchNorm112"
  type: "BatchNorm"
  bottom: "Concat54"
  top: "BatchNorm112"
  param {
    lr_mult: 0
    decay_mult: 0
  }
  param {
    lr_mult: 0
    decay_mult: 0
  }
  param {
    lr_mult: 0
    decay_mult: 0
  }
}
layer {
  name: "Scale112"
  type: "Scale"
  bottom: "BatchNorm112"
  top: "BatchNorm112"
  scale_param {
    filler {
      value: 1
    }
    bias_term: true
    bias_filler {
      value: 0
    }
  }
}
layer {
  name: "ReLU111"
  type: "ReLU"
  bottom: "BatchNorm112"
  top: "BatchNorm112"
}
layer {
  name: "Convolution112"
  type: "Convolution"
  bottom: "BatchNorm112"
  top: "Convolution112"
  convolution_param {
    num_output: 128
    bias_term: false
    pad: 0
    kernel_size: 1
    stride: 1
    weight_filler {
      type: "xavier"
    }
    bias_filler {
      type: "constant"
    }
  }
}
layer {
  name: "BatchNorm113"
  type: "BatchNorm"
  bottom: "Convolution112"
  top: "BatchNorm113"
  param {
    lr_mult: 0
    decay_mult: 0
  }
  param {
    lr_mult: 0
    decay_mult: 0
  }
  param {
    lr_mult: 0
    decay_mult: 0
  }
}
layer {
  name: "Scale113"
  type: "Scale"
  bottom: "BatchNorm113"
  top: "BatchNorm113"
  scale_param {
    filler {
      value: 1
    }
    bias_term: true
    bias_filler {
      value: 0
    }
  }
}
layer {
  name: "ReLU112"
  type: "ReLU"
  bottom: "BatchNorm113"
  top: "BatchNorm113"
}
layer {
  name: "Convolution113"
  type: "Convolution"
  bottom: "BatchNorm113"
  top: "Convolution113"
  convolution_param {
    num_output: 32
    bias_term: false
    pad: 1
    kernel_size: 3
    stride: 1
    weight_filler {
      type: "xavier"
    }
    bias_filler {
      type: "constant"
    }
  }
}
layer {
  name: "concat_2_36"
  type: "Concat"
  bottom: "Concat54"
  bottom: "Convolution113"
  top: "Concat55"
}
layer {
  name: "BatchNorm114"
  type: "BatchNorm"
  bottom: "Concat55"
  top: "BatchNorm114"
  param {
    lr_mult: 0
    decay_mult: 0
  }
  param {
    lr_mult: 0
    decay_mult: 0
  }
  param {
    lr_mult: 0
    decay_mult: 0
  }
}
layer {
  name: "Scale114"
  type: "Scale"
  bottom: "BatchNorm114"
  top: "BatchNorm114"
  scale_param {
    filler {
      value: 1
    }
    bias_term: true
    bias_filler {
      value: 0
    }
  }
}
layer {
  name: "ReLU113"
  type: "ReLU"
  bottom: "BatchNorm114"
  top: "BatchNorm114"
}
layer {
  name: "Convolution114"
  type: "Convolution"
  bottom: "BatchNorm114"
  top: "Convolution114"
  convolution_param {
    num_output: 128
    bias_term: false
    pad: 0
    kernel_size: 1
    stride: 1
    weight_filler {
      type: "xavier"
    }
    bias_filler {
      type: "constant"
    }
  }
}
layer {
  name: "BatchNorm115"
  type: "BatchNorm"
  bottom: "Convolution114"
  top: "BatchNorm115"
  param {
    lr_mult: 0
    decay_mult: 0
  }
  param {
    lr_mult: 0
    decay_mult: 0
  }
  param {
    lr_mult: 0
    decay_mult: 0
  }
}
layer {
  name: "Scale115"
  type: "Scale"
  bottom: "BatchNorm115"
  top: "BatchNorm115"
  scale_param {
    filler {
      value: 1
    }
    bias_term: true
    bias_filler {
      value: 0
    }
  }
}
layer {
  name: "ReLU114"
  type: "ReLU"
  bottom: "BatchNorm115"
  top: "BatchNorm115"
}
layer {
  name: "Convolution115"
  type: "Convolution"
  bottom: "BatchNorm115"
  top: "Convolution115"
  convolution_param {
    num_output: 32
    bias_term: false
    pad: 1
    kernel_size: 3
    stride: 1
    weight_filler {
      type: "xavier"
    }
    bias_filler {
      type: "constant"
    }
  }
}
layer {
  name: "concat_2_37"
  type: "Concat"
  bottom: "Concat55"
  bottom: "Convolution115"
  top: "Concat56"
}
layer {
  name: "BatchNorm116"
  type: "BatchNorm"
  bottom: "Concat56"
  top: "BatchNorm116"
  param {
    lr_mult: 0
    decay_mult: 0
  }
  param {
    lr_mult: 0
    decay_mult: 0
  }
  param {
    lr_mult: 0
    decay_mult: 0
  }
}
layer {
  name: "Scale116"
  type: "Scale"
  bottom: "BatchNorm116"
  top: "BatchNorm116"
  scale_param {
    filler {
      value: 1
    }
    bias_term: true
    bias_filler {
      value: 0
    }
  }
}
layer {
  name: "ReLU115"
  type: "ReLU"
  bottom: "BatchNorm116"
  top: "BatchNorm116"
}
layer {
  name: "Convolution116"
  type: "Convolution"
  bottom: "BatchNorm116"
  top: "Convolution116"
  convolution_param {
    num_output: 128
    bias_term: false
    pad: 0
    kernel_size: 1
    stride: 1
    weight_filler {
      type: "xavier"
    }
    bias_filler {
      type: "constant"
    }
  }
}
layer {
  name: "BatchNorm117"
  type: "BatchNorm"
  bottom: "Convolution116"
  top: "BatchNorm117"
  param {
    lr_mult: 0
    decay_mult: 0
  }
  param {
    lr_mult: 0
    decay_mult: 0
  }
  param {
    lr_mult: 0
    decay_mult: 0
  }
}
layer {
  name: "Scale117"
  type: "Scale"
  bottom: "BatchNorm117"
  top: "BatchNorm117"
  scale_param {
    filler {
      value: 1
    }
    bias_term: true
    bias_filler {
      value: 0
    }
  }
}
layer {
  name: "ReLU116"
  type: "ReLU"
  bottom: "BatchNorm117"
  top: "BatchNorm117"
}
layer {
  name: "Convolution117"
  type: "Convolution"
  bottom: "BatchNorm117"
  top: "Convolution117"
  convolution_param {
    num_output: 32
    bias_term: false
    pad: 1
    kernel_size: 3
    stride: 1
    weight_filler {
      type: "xavier"
    }
    bias_filler {
      type: "constant"
    }
  }
}
layer {
  name: "concat_2_38"
  type: "Concat"
  bottom: "Concat56"
  bottom: "Convolution117"
  top: "Concat57"
}
layer {
  name: "BatchNorm118"
  type: "BatchNorm"
  bottom: "Concat57"
  top: "BatchNorm118"
  param {
    lr_mult: 0
    decay_mult: 0
  }
  param {
    lr_mult: 0
    decay_mult: 0
  }
  param {
    lr_mult: 0
    decay_mult: 0
  }
}
layer {
  name: "Scale118"
  type: "Scale"
  bottom: "BatchNorm118"
  top: "BatchNorm118"
  scale_param {
    filler {
      value: 1
    }
    bias_term: true
    bias_filler {
      value: 0
    }
  }
}
layer {
  name: "ReLU117"
  type: "ReLU"
  bottom: "BatchNorm118"
  top: "BatchNorm118"
}
layer {
  name: "Convolution118"
  type: "Convolution"
  bottom: "BatchNorm118"
  top: "Convolution118"
  convolution_param {
    num_output: 128
    bias_term: false
    pad: 0
    kernel_size: 1
    stride: 1
    weight_filler {
      type: "xavier"
    }
    bias_filler {
      type: "constant"
    }
  }
}
layer {
  name: "BatchNorm119"
  type: "BatchNorm"
  bottom: "Convolution118"
  top: "BatchNorm119"
  param {
    lr_mult: 0
    decay_mult: 0
  }
  param {
    lr_mult: 0
    decay_mult: 0
  }
  param {
    lr_mult: 0
    decay_mult: 0
  }
}
layer {
  name: "Scale119"
  type: "Scale"
  bottom: "BatchNorm119"
  top: "BatchNorm119"
  scale_param {
    filler {
      value: 1
    }
    bias_term: true
    bias_filler {
      value: 0
    }
  }
}
layer {
  name: "ReLU118"
  type: "ReLU"
  bottom: "BatchNorm119"
  top: "BatchNorm119"
}
layer {
  name: "Convolution119"
  type: "Convolution"
  bottom: "BatchNorm119"
  top: "Convolution119"
  convolution_param {
    num_output: 32
    bias_term: false
    pad: 1
    kernel_size: 3
    stride: 1
    weight_filler {
      type: "xavier"
    }
    bias_filler {
      type: "constant"
    }
  }
}
layer {
  name: "concat_2_39"
  type: "Concat"
  bottom: "Concat57"
  bottom: "Convolution119"
  top: "Concat58"
}
layer {
  name: "BatchNorm120"
  type: "BatchNorm"
  bottom: "Concat58"
  top: "BatchNorm120"
  param {
    lr_mult: 0
    decay_mult: 0
  }
  param {
    lr_mult: 0
    decay_mult: 0
  }
  param {
    lr_mult: 0
    decay_mult: 0
  }
}
layer {
  name: "Scale120"
  type: "Scale"
  bottom: "BatchNorm120"
  top: "BatchNorm120"
  scale_param {
    filler {
      value: 1
    }
    bias_term: true
    bias_filler {
      value: 0
    }
  }
}
layer {
  name: "ReLU119"
  type: "ReLU"
  bottom: "BatchNorm120"
  top: "BatchNorm120"
}
layer {
  name: "Convolution120"
  type: "Convolution"
  bottom: "BatchNorm120"
  top: "Convolution120"
  convolution_param {
    num_output: 128
    bias_term: false
    pad: 0
    kernel_size: 1
    stride: 1
    weight_filler {
      type: "xavier"
    }
    bias_filler {
      type: "constant"
    }
  }
}
layer {
  name: "BatchNorm121"
  type: "BatchNorm"
  bottom: "Convolution120"
  top: "BatchNorm121"
  param {
    lr_mult: 0
    decay_mult: 0
  }
  param {
    lr_mult: 0
    decay_mult: 0
  }
  param {
    lr_mult: 0
    decay_mult: 0
  }
}
layer {
  name: "Scale121"
  type: "Scale"
  bottom: "BatchNorm121"
  top: "BatchNorm121"
  scale_param {
    filler {
      value: 1
    }
    bias_term: true
    bias_filler {
      value: 0
    }
  }
}
layer {
  name: "ReLU120"
  type: "ReLU"
  bottom: "BatchNorm121"
  top: "BatchNorm121"
}
layer {
  name: "Convolution121"
  type: "Convolution"
  bottom: "BatchNorm121"
  top: "Convolution121"
  convolution_param {
    num_output: 32
    bias_term: false
    pad: 1
    kernel_size: 3
    stride: 1
    weight_filler {
      type: "xavier"
    }
    bias_filler {
      type: "constant"
    }
  }
}
layer {
  name: "concat_2_40"
  type: "Concat"
  bottom: "Concat58"
  bottom: "Convolution121"
  top: "Concat59"
}
layer {
  name: "BatchNorm122"
  type: "BatchNorm"
  bottom: "Concat59"
  top: "BatchNorm122"
  param {
    lr_mult: 0
    decay_mult: 0
  }
  param {
    lr_mult: 0
    decay_mult: 0
  }
  param {
    lr_mult: 0
    decay_mult: 0
  }
}
layer {
  name: "Scale122"
  type: "Scale"
  bottom: "BatchNorm122"
  top: "BatchNorm122"
  scale_param {
    filler {
      value: 1
    }
    bias_term: true
    bias_filler {
      value: 0
    }
  }
}
layer {
  name: "ReLU121"
  type: "ReLU"
  bottom: "BatchNorm122"
  top: "BatchNorm122"
}
layer {
  name: "Convolution122"
  type: "Convolution"
  bottom: "BatchNorm122"
  top: "Convolution122"
  convolution_param {
    num_output: 128
    bias_term: false
    pad: 0
    kernel_size: 1
    stride: 1
    weight_filler {
      type: "xavier"
    }
    bias_filler {
      type: "constant"
    }
  }
}
layer {
  name: "BatchNorm123"
  type: "BatchNorm"
  bottom: "Convolution122"
  top: "BatchNorm123"
  param {
    lr_mult: 0
    decay_mult: 0
  }
  param {
    lr_mult: 0
    decay_mult: 0
  }
  param {
    lr_mult: 0
    decay_mult: 0
  }
}
layer {
  name: "Scale123"
  type: "Scale"
  bottom: "BatchNorm123"
  top: "BatchNorm123"
  scale_param {
    filler {
      value: 1
    }
    bias_term: true
    bias_filler {
      value: 0
    }
  }
}
layer {
  name: "ReLU122"
  type: "ReLU"
  bottom: "BatchNorm123"
  top: "BatchNorm123"
}
layer {
  name: "Convolution123"
  type: "Convolution"
  bottom: "BatchNorm123"
  top: "Convolution123"
  convolution_param {
    num_output: 32
    bias_term: false
    pad: 1
    kernel_size: 3
    stride: 1
    weight_filler {
      type: "xavier"
    }
    bias_filler {
      type: "constant"
    }
  }
}
layer {
  name: "concat_2_41"
  type: "Concat"
  bottom: "Concat59"
  bottom: "Convolution123"
  top: "Concat60"
}
layer {
  name: "BatchNorm124"
  type: "BatchNorm"
  bottom: "Concat60"
  top: "BatchNorm124"
  param {
    lr_mult: 0
    decay_mult: 0
  }
  param {
    lr_mult: 0
    decay_mult: 0
  }
  param {
    lr_mult: 0
    decay_mult: 0
  }
}
layer {
  name: "Scale124"
  type: "Scale"
  bottom: "BatchNorm124"
  top: "BatchNorm124"
  scale_param {
    filler {
      value: 1
    }
    bias_term: true
    bias_filler {
      value: 0
    }
  }
}
layer {
  name: "ReLU123"
  type: "ReLU"
  bottom: "BatchNorm124"
  top: "BatchNorm124"
}
layer {
  name: "Convolution124"
  type: "Convolution"
  bottom: "BatchNorm124"
  top: "Convolution124"
  convolution_param {
    num_output: 128
    bias_term: false
    pad: 0
    kernel_size: 1
    stride: 1
    weight_filler {
      type: "xavier"
    }
    bias_filler {
      type: "constant"
    }
  }
}
layer {
  name: "BatchNorm125"
  type: "BatchNorm"
  bottom: "Convolution124"
  top: "BatchNorm125"
  param {
    lr_mult: 0
    decay_mult: 0
  }
  param {
    lr_mult: 0
    decay_mult: 0
  }
  param {
    lr_mult: 0
    decay_mult: 0
  }
}
layer {
  name: "Scale125"
  type: "Scale"
  bottom: "BatchNorm125"
  top: "BatchNorm125"
  scale_param {
    filler {
      value: 1
    }
    bias_term: true
    bias_filler {
      value: 0
    }
  }
}
layer {
  name: "ReLU124"
  type: "ReLU"
  bottom: "BatchNorm125"
  top: "BatchNorm125"
}
layer {
  name: "Convolution125"
  type: "Convolution"
  bottom: "BatchNorm125"
  top: "Convolution125"
  convolution_param {
    num_output: 32
    bias_term: false
    pad: 1
    kernel_size: 3
    stride: 1
    weight_filler {
      type: "xavier"
    }
    bias_filler {
      type: "constant"
    }
  }
}
layer {
  name: "concat_2_42"
  type: "Concat"
  bottom: "Concat60"
  bottom: "Convolution125"
  top: "Concat61"
}
layer {
  name: "BatchNorm126"
  type: "BatchNorm"
  bottom: "Concat61"
  top: "BatchNorm126"
  param {
    lr_mult: 0
    decay_mult: 0
  }
  param {
    lr_mult: 0
    decay_mult: 0
  }
  param {
    lr_mult: 0
    decay_mult: 0
  }
}
layer {
  name: "Scale126"
  type: "Scale"
  bottom: "BatchNorm126"
  top: "BatchNorm126"
  scale_param {
    filler {
      value: 1
    }
    bias_term: true
    bias_filler {
      value: 0
    }
  }
}
layer {
  name: "ReLU125"
  type: "ReLU"
  bottom: "BatchNorm126"
  top: "BatchNorm126"
}
layer {
  name: "Convolution126"
  type: "Convolution"
  bottom: "BatchNorm126"
  top: "Convolution126"
  convolution_param {
    num_output: 128
    bias_term: false
    pad: 0
    kernel_size: 1
    stride: 1
    weight_filler {
      type: "xavier"
    }
    bias_filler {
      type: "constant"
    }
  }
}
layer {
  name: "BatchNorm127"
  type: "BatchNorm"
  bottom: "Convolution126"
  top: "BatchNorm127"
  param {
    lr_mult: 0
    decay_mult: 0
  }
  param {
    lr_mult: 0
    decay_mult: 0
  }
  param {
    lr_mult: 0
    decay_mult: 0
  }
}
layer {
  name: "Scale127"
  type: "Scale"
  bottom: "BatchNorm127"
  top: "BatchNorm127"
  scale_param {
    filler {
      value: 1
    }
    bias_term: true
    bias_filler {
      value: 0
    }
  }
}
layer {
  name: "ReLU126"
  type: "ReLU"
  bottom: "BatchNorm127"
  top: "BatchNorm127"
}
layer {
  name: "Convolution127"
  type: "Convolution"
  bottom: "BatchNorm127"
  top: "Convolution127"
  convolution_param {
    num_output: 32
    bias_term: false
    pad: 1
    kernel_size: 3
    stride: 1
    weight_filler {
      type: "xavier"
    }
    bias_filler {
      type: "constant"
    }
  }
}
layer {
  name: "concat_2_43"
  type: "Concat"
  bottom: "Concat61"
  bottom: "Convolution127"
  top: "Concat62"
}
layer {
  name: "BatchNorm128"
  type: "BatchNorm"
  bottom: "Concat62"
  top: "BatchNorm128"
  param {
    lr_mult: 0
    decay_mult: 0
  }
  param {
    lr_mult: 0
    decay_mult: 0
  }
  param {
    lr_mult: 0
    decay_mult: 0
  }
}
layer {
  name: "Scale128"
  type: "Scale"
  bottom: "BatchNorm128"
  top: "BatchNorm128"
  scale_param {
    filler {
      value: 1
    }
    bias_term: true
    bias_filler {
      value: 0
    }
  }
}
layer {
  name: "ReLU127"
  type: "ReLU"
  bottom: "BatchNorm128"
  top: "BatchNorm128"
}
layer {
  name: "Convolution128"
  type: "Convolution"
  bottom: "BatchNorm128"
  top: "Convolution128"
  convolution_param {
    num_output: 128
    bias_term: false
    pad: 0
    kernel_size: 1
    stride: 1
    weight_filler {
      type: "xavier"
    }
    bias_filler {
      type: "constant"
    }
  }
}
layer {
  name: "BatchNorm129"
  type: "BatchNorm"
  bottom: "Convolution128"
  top: "BatchNorm129"
  param {
    lr_mult: 0
    decay_mult: 0
  }
  param {
    lr_mult: 0
    decay_mult: 0
  }
  param {
    lr_mult: 0
    decay_mult: 0
  }
}
layer {
  name: "Scale129"
  type: "Scale"
  bottom: "BatchNorm129"
  top: "BatchNorm129"
  scale_param {
    filler {
      value: 1
    }
    bias_term: true
    bias_filler {
      value: 0
    }
  }
}
layer {
  name: "ReLU128"
  type: "ReLU"
  bottom: "BatchNorm129"
  top: "BatchNorm129"
}
layer {
  name: "Convolution129"
  type: "Convolution"
  bottom: "BatchNorm129"
  top: "Convolution129"
  convolution_param {
    num_output: 32
    bias_term: false
    pad: 1
    kernel_size: 3
    stride: 1
    weight_filler {
      type: "xavier"
    }
    bias_filler {
      type: "constant"
    }
  }
}
layer {
  name: "concat_2_44"
  type: "Concat"
  bottom: "Concat62"
  bottom: "Convolution129"
  top: "Concat63"
}
layer {
  name: "BatchNorm130"
  type: "BatchNorm"
  bottom: "Concat63"
  top: "BatchNorm130"
  param {
    lr_mult: 0
    decay_mult: 0
  }
  param {
    lr_mult: 0
    decay_mult: 0
  }
  param {
    lr_mult: 0
    decay_mult: 0
  }
}
layer {
  name: "Scale130"
  type: "Scale"
  bottom: "BatchNorm130"
  top: "BatchNorm130"
  scale_param {
    filler {
      value: 1
    }
    bias_term: true
    bias_filler {
      value: 0
    }
  }
}
layer {
  name: "ReLU129"
  type: "ReLU"
  bottom: "BatchNorm130"
  top: "BatchNorm130"
}
layer {
  name: "Convolution130"
  type: "Convolution"
  bottom: "BatchNorm130"
  top: "Convolution130"
  convolution_param {
    num_output: 128
    bias_term: false
    pad: 0
    kernel_size: 1
    stride: 1
    weight_filler {
      type: "xavier"
    }
    bias_filler {
      type: "constant"
    }
  }
}
layer {
  name: "BatchNorm131"
  type: "BatchNorm"
  bottom: "Convolution130"
  top: "BatchNorm131"
  param {
    lr_mult: 0
    decay_mult: 0
  }
  param {
    lr_mult: 0
    decay_mult: 0
  }
  param {
    lr_mult: 0
    decay_mult: 0
  }
}
layer {
  name: "Scale131"
  type: "Scale"
  bottom: "BatchNorm131"
  top: "BatchNorm131"
  scale_param {
    filler {
      value: 1
    }
    bias_term: true
    bias_filler {
      value: 0
    }
  }
}
layer {
  name: "ReLU130"
  type: "ReLU"
  bottom: "BatchNorm131"
  top: "BatchNorm131"
}
layer {
  name: "Convolution131"
  type: "Convolution"
  bottom: "BatchNorm131"
  top: "Convolution131"
  convolution_param {
    num_output: 32
    bias_term: false
    pad: 1
    kernel_size: 3
    stride: 1
    weight_filler {
      type: "xavier"
    }
    bias_filler {
      type: "constant"
    }
  }
}
layer {
  name: "concat_2_45"
  type: "Concat"
  bottom: "Concat63"
  bottom: "Convolution131"
  top: "Concat64"
}
layer {
  name: "BatchNorm132"
  type: "BatchNorm"
  bottom: "Concat64"
  top: "BatchNorm132"
  param {
    lr_mult: 0
    decay_mult: 0
  }
  param {
    lr_mult: 0
    decay_mult: 0
  }
  param {
    lr_mult: 0
    decay_mult: 0
  }
}
layer {
  name: "Scale132"
  type: "Scale"
  bottom: "BatchNorm132"
  top: "BatchNorm132"
  scale_param {
    filler {
      value: 1
    }
    bias_term: true
    bias_filler {
      value: 0
    }
  }
}
layer {
  name: "ReLU131"
  type: "ReLU"
  bottom: "BatchNorm132"
  top: "BatchNorm132"
}
layer {
  name: "Convolution132"
  type: "Convolution"
  bottom: "BatchNorm132"
  top: "Convolution132"
  convolution_param {
    num_output: 128
    bias_term: false
    pad: 0
    kernel_size: 1
    stride: 1
    weight_filler {
      type: "xavier"
    }
    bias_filler {
      type: "constant"
    }
  }
}
layer {
  name: "BatchNorm133"
  type: "BatchNorm"
  bottom: "Convolution132"
  top: "BatchNorm133"
  param {
    lr_mult: 0
    decay_mult: 0
  }
  param {
    lr_mult: 0
    decay_mult: 0
  }
  param {
    lr_mult: 0
    decay_mult: 0
  }
}
layer {
  name: "Scale133"
  type: "Scale"
  bottom: "BatchNorm133"
  top: "BatchNorm133"
  scale_param {
    filler {
      value: 1
    }
    bias_term: true
    bias_filler {
      value: 0
    }
  }
}
layer {
  name: "ReLU132"
  type: "ReLU"
  bottom: "BatchNorm133"
  top: "BatchNorm133"
}
layer {
  name: "Convolution133"
  type: "Convolution"
  bottom: "BatchNorm133"
  top: "Convolution133"
  convolution_param {
    num_output: 32
    bias_term: false
    pad: 1
    kernel_size: 3
    stride: 1
    weight_filler {
      type: "xavier"
    }
    bias_filler {
      type: "constant"
    }
  }
}
layer {
  name: "concat_2_46"
  type: "Concat"
  bottom: "Concat64"
  bottom: "Convolution133"
  top: "Concat65"
}
layer {
  name: "BatchNorm134"
  type: "BatchNorm"
  bottom: "Concat65"
  top: "BatchNorm134"
  param {
    lr_mult: 0
    decay_mult: 0
  }
  param {
    lr_mult: 0
    decay_mult: 0
  }
  param {
    lr_mult: 0
    decay_mult: 0
  }
}
layer {
  name: "Scale134"
  type: "Scale"
  bottom: "BatchNorm134"
  top: "BatchNorm134"
  scale_param {
    filler {
      value: 1
    }
    bias_term: true
    bias_filler {
      value: 0
    }
  }
}
layer {
  name: "ReLU133"
  type: "ReLU"
  bottom: "BatchNorm134"
  top: "BatchNorm134"
}
layer {
  name: "Convolution134"
  type: "Convolution"
  bottom: "BatchNorm134"
  top: "Convolution134"
  convolution_param {
    num_output: 128
    bias_term: false
    pad: 0
    kernel_size: 1
    stride: 1
    weight_filler {
      type: "xavier"
    }
    bias_filler {
      type: "constant"
    }
  }
}
layer {
  name: "BatchNorm135"
  type: "BatchNorm"
  bottom: "Convolution134"
  top: "BatchNorm135"
  param {
    lr_mult: 0
    decay_mult: 0
  }
  param {
    lr_mult: 0
    decay_mult: 0
  }
  param {
    lr_mult: 0
    decay_mult: 0
  }
}
layer {
  name: "Scale135"
  type: "Scale"
  bottom: "BatchNorm135"
  top: "BatchNorm135"
  scale_param {
    filler {
      value: 1
    }
    bias_term: true
    bias_filler {
      value: 0
    }
  }
}
layer {
  name: "ReLU134"
  type: "ReLU"
  bottom: "BatchNorm135"
  top: "BatchNorm135"
}
layer {
  name: "Convolution135"
  type: "Convolution"
  bottom: "BatchNorm135"
  top: "Convolution135"
  convolution_param {
    num_output: 32
    bias_term: false
    pad: 1
    kernel_size: 3
    stride: 1
    weight_filler {
      type: "xavier"
    }
    bias_filler {
      type: "constant"
    }
  }
}
layer {
  name: "concat_2_47"
  type: "Concat"
  bottom: "Concat65"
  bottom: "Convolution135"
  top: "Concat66"
}
layer {
  name: "BatchNorm136"
  type: "BatchNorm"
  bottom: "Concat66"
  top: "BatchNorm136"
  param {
    lr_mult: 0
    decay_mult: 0
  }
  param {
    lr_mult: 0
    decay_mult: 0
  }
  param {
    lr_mult: 0
    decay_mult: 0
  }
}
layer {
  name: "Scale136"
  type: "Scale"
  bottom: "BatchNorm136"
  top: "BatchNorm136"
  scale_param {
    filler {
      value: 1
    }
    bias_term: true
    bias_filler {
      value: 0
    }
  }
}
layer {
  name: "ReLU135"
  type: "ReLU"
  bottom: "BatchNorm136"
  top: "BatchNorm136"
}
layer {
  name: "Convolution136"
  type: "Convolution"
  bottom: "BatchNorm136"
  top: "Convolution136"
  convolution_param {
    num_output: 512
    bias_term: false
    pad: 0
    kernel_size: 1
    stride: 1
    weight_filler {
      type: "xavier"
    }
    bias_filler {
      type: "constant"
    }
  }
}
layer {
  name: "Pooling3"
  type: "Pooling"
  bottom: "Convolution136"
  top: "Pooling3"
  pooling_param {
    pool: AVE
    kernel_size: 2
    stride: 2
  }
}
layer {
  name: "BatchNorm137"
  type: "BatchNorm"
  bottom: "Pooling3"
  top: "BatchNorm137"
  param {
    lr_mult: 0
    decay_mult: 0
  }
  param {
    lr_mult: 0
    decay_mult: 0
  }
  param {
    lr_mult: 0
    decay_mult: 0
  }
}
layer {
  name: "Scale137"
  type: "Scale"
  bottom: "BatchNorm137"
  top: "BatchNorm137"
  scale_param {
    filler {
      value: 1
    }
    bias_term: true
    bias_filler {
      value: 0
    }
  }
}
layer {
  name: "ReLU136"
  type: "ReLU"
  bottom: "BatchNorm137"
  top: "BatchNorm137"
}
layer {
  name: "Convolution137"
  type: "Convolution"
  bottom: "BatchNorm137"
  top: "Convolution137"
  convolution_param {
    num_output: 128
    bias_term: false
    pad: 0
    kernel_size: 1
    stride: 1
    weight_filler {
      type: "xavier"
    }
    bias_filler {
      type: "constant"
    }
  }
}
layer {
  name: "BatchNorm138"
  type: "BatchNorm"
  bottom: "Convolution137"
  top: "BatchNorm138"
  param {
    lr_mult: 0
    decay_mult: 0
  }
  param {
    lr_mult: 0
    decay_mult: 0
  }
  param {
    lr_mult: 0
    decay_mult: 0
  }
}
layer {
  name: "Scale138"
  type: "Scale"
  bottom: "BatchNorm138"
  top: "BatchNorm138"
  scale_param {
    filler {
      value: 1
    }
    bias_term: true
    bias_filler {
      value: 0
    }
  }
}
layer {
  name: "ReLU137"
  type: "ReLU"
  bottom: "BatchNorm138"
  top: "BatchNorm138"
}
layer {
  name: "Convolution138"
  type: "Convolution"
  bottom: "BatchNorm138"
  top: "Convolution138"
  convolution_param {
    num_output: 32
    bias_term: false
    pad: 1
    kernel_size: 3
    stride: 1
    weight_filler {
      type: "xavier"
    }
    bias_filler {
      type: "constant"
    }
  }
}
layer {
  name: "concat_3_0"
  type: "Concat"
  bottom: "Pooling3"
  bottom: "Convolution138"
  top: "Concat67"
}
layer {
  name: "BatchNorm139"
  type: "BatchNorm"
  bottom: "Concat67"
  top: "BatchNorm139"
  param {
    lr_mult: 0
    decay_mult: 0
  }
  param {
    lr_mult: 0
    decay_mult: 0
  }
  param {
    lr_mult: 0
    decay_mult: 0
  }
}
layer {
  name: "Scale139"
  type: "Scale"
  bottom: "BatchNorm139"
  top: "BatchNorm139"
  scale_param {
    filler {
      value: 1
    }
    bias_term: true
    bias_filler {
      value: 0
    }
  }
}
layer {
  name: "ReLU138"
  type: "ReLU"
  bottom: "BatchNorm139"
  top: "BatchNorm139"
}
layer {
  name: "Convolution139"
  type: "Convolution"
  bottom: "BatchNorm139"
  top: "Convolution139"
  convolution_param {
    num_output: 128
    bias_term: false
    pad: 0
    kernel_size: 1
    stride: 1
    weight_filler {
      type: "xavier"
    }
    bias_filler {
      type: "constant"
    }
  }
}
layer {
  name: "BatchNorm140"
  type: "BatchNorm"
  bottom: "Convolution139"
  top: "BatchNorm140"
  param {
    lr_mult: 0
    decay_mult: 0
  }
  param {
    lr_mult: 0
    decay_mult: 0
  }
  param {
    lr_mult: 0
    decay_mult: 0
  }
}
layer {
  name: "Scale140"
  type: "Scale"
  bottom: "BatchNorm140"
  top: "BatchNorm140"
  scale_param {
    filler {
      value: 1
    }
    bias_term: true
    bias_filler {
      value: 0
    }
  }
}
layer {
  name: "ReLU139"
  type: "ReLU"
  bottom: "BatchNorm140"
  top: "BatchNorm140"
}
layer {
  name: "Convolution140"
  type: "Convolution"
  bottom: "BatchNorm140"
  top: "Convolution140"
  convolution_param {
    num_output: 32
    bias_term: false
    pad: 1
    kernel_size: 3
    stride: 1
    weight_filler {
      type: "xavier"
    }
    bias_filler {
      type: "constant"
    }
  }
}
layer {
  name: "concat_3_1"
  type: "Concat"
  bottom: "Concat67"
  bottom: "Convolution140"
  top: "Concat68"
}
layer {
  name: "BatchNorm141"
  type: "BatchNorm"
  bottom: "Concat68"
  top: "BatchNorm141"
  param {
    lr_mult: 0
    decay_mult: 0
  }
  param {
    lr_mult: 0
    decay_mult: 0
  }
  param {
    lr_mult: 0
    decay_mult: 0
  }
}
layer {
  name: "Scale141"
  type: "Scale"
  bottom: "BatchNorm141"
  top: "BatchNorm141"
  scale_param {
    filler {
      value: 1
    }
    bias_term: true
    bias_filler {
      value: 0
    }
  }
}
layer {
  name: "ReLU140"
  type: "ReLU"
  bottom: "BatchNorm141"
  top: "BatchNorm141"
}
layer {
  name: "Convolution141"
  type: "Convolution"
  bottom: "BatchNorm141"
  top: "Convolution141"
  convolution_param {
    num_output: 128
    bias_term: false
    pad: 0
    kernel_size: 1
    stride: 1
    weight_filler {
      type: "xavier"
    }
    bias_filler {
      type: "constant"
    }
  }
}
layer {
  name: "BatchNorm142"
  type: "BatchNorm"
  bottom: "Convolution141"
  top: "BatchNorm142"
  param {
    lr_mult: 0
    decay_mult: 0
  }
  param {
    lr_mult: 0
    decay_mult: 0
  }
  param {
    lr_mult: 0
    decay_mult: 0
  }
}
layer {
  name: "Scale142"
  type: "Scale"
  bottom: "BatchNorm142"
  top: "BatchNorm142"
  scale_param {
    filler {
      value: 1
    }
    bias_term: true
    bias_filler {
      value: 0
    }
  }
}
layer {
  name: "ReLU141"
  type: "ReLU"
  bottom: "BatchNorm142"
  top: "BatchNorm142"
}
layer {
  name: "Convolution142"
  type: "Convolution"
  bottom: "BatchNorm142"
  top: "Convolution142"
  convolution_param {
    num_output: 32
    bias_term: false
    pad: 1
    kernel_size: 3
    stride: 1
    weight_filler {
      type: "xavier"
    }
    bias_filler {
      type: "constant"
    }
  }
}
layer {
  name: "concat_3_2"
  type: "Concat"
  bottom: "Concat68"
  bottom: "Convolution142"
  top: "Concat69"
}
layer {
  name: "BatchNorm143"
  type: "BatchNorm"
  bottom: "Concat69"
  top: "BatchNorm143"
  param {
    lr_mult: 0
    decay_mult: 0
  }
  param {
    lr_mult: 0
    decay_mult: 0
  }
  param {
    lr_mult: 0
    decay_mult: 0
  }
}
layer {
  name: "Scale143"
  type: "Scale"
  bottom: "BatchNorm143"
  top: "BatchNorm143"
  scale_param {
    filler {
      value: 1
    }
    bias_term: true
    bias_filler {
      value: 0
    }
  }
}
layer {
  name: "ReLU142"
  type: "ReLU"
  bottom: "BatchNorm143"
  top: "BatchNorm143"
}
layer {
  name: "Convolution143"
  type: "Convolution"
  bottom: "BatchNorm143"
  top: "Convolution143"
  convolution_param {
    num_output: 128
    bias_term: false
    pad: 0
    kernel_size: 1
    stride: 1
    weight_filler {
      type: "xavier"
    }
    bias_filler {
      type: "constant"
    }
  }
}
layer {
  name: "BatchNorm144"
  type: "BatchNorm"
  bottom: "Convolution143"
  top: "BatchNorm144"
  param {
    lr_mult: 0
    decay_mult: 0
  }
  param {
    lr_mult: 0
    decay_mult: 0
  }
  param {
    lr_mult: 0
    decay_mult: 0
  }
}
layer {
  name: "Scale144"
  type: "Scale"
  bottom: "BatchNorm144"
  top: "BatchNorm144"
  scale_param {
    filler {
      value: 1
    }
    bias_term: true
    bias_filler {
      value: 0
    }
  }
}
layer {
  name: "ReLU143"
  type: "ReLU"
  bottom: "BatchNorm144"
  top: "BatchNorm144"
}
layer {
  name: "Convolution144"
  type: "Convolution"
  bottom: "BatchNorm144"
  top: "Convolution144"
  convolution_param {
    num_output: 32
    bias_term: false
    pad: 1
    kernel_size: 3
    stride: 1
    weight_filler {
      type: "xavier"
    }
    bias_filler {
      type: "constant"
    }
  }
}
layer {
  name: "concat_3_3"
  type: "Concat"
  bottom: "Concat69"
  bottom: "Convolution144"
  top: "Concat70"
}
layer {
  name: "BatchNorm145"
  type: "BatchNorm"
  bottom: "Concat70"
  top: "BatchNorm145"
  param {
    lr_mult: 0
    decay_mult: 0
  }
  param {
    lr_mult: 0
    decay_mult: 0
  }
  param {
    lr_mult: 0
    decay_mult: 0
  }
}
layer {
  name: "Scale145"
  type: "Scale"
  bottom: "BatchNorm145"
  top: "BatchNorm145"
  scale_param {
    filler {
      value: 1
    }
    bias_term: true
    bias_filler {
      value: 0
    }
  }
}
layer {
  name: "ReLU144"
  type: "ReLU"
  bottom: "BatchNorm145"
  top: "BatchNorm145"
}
layer {
  name: "Convolution145"
  type: "Convolution"
  bottom: "BatchNorm145"
  top: "Convolution145"
  convolution_param {
    num_output: 128
    bias_term: false
    pad: 0
    kernel_size: 1
    stride: 1
    weight_filler {
      type: "xavier"
    }
    bias_filler {
      type: "constant"
    }
  }
}
layer {
  name: "BatchNorm146"
  type: "BatchNorm"
  bottom: "Convolution145"
  top: "BatchNorm146"
  param {
    lr_mult: 0
    decay_mult: 0
  }
  param {
    lr_mult: 0
    decay_mult: 0
  }
  param {
    lr_mult: 0
    decay_mult: 0
  }
}
layer {
  name: "Scale146"
  type: "Scale"
  bottom: "BatchNorm146"
  top: "BatchNorm146"
  scale_param {
    filler {
      value: 1
    }
    bias_term: true
    bias_filler {
      value: 0
    }
  }
}
layer {
  name: "ReLU145"
  type: "ReLU"
  bottom: "BatchNorm146"
  top: "BatchNorm146"
}
layer {
  name: "Convolution146"
  type: "Convolution"
  bottom: "BatchNorm146"
  top: "Convolution146"
  convolution_param {
    num_output: 32
    bias_term: false
    pad: 1
    kernel_size: 3
    stride: 1
    weight_filler {
      type: "xavier"
    }
    bias_filler {
      type: "constant"
    }
  }
}
layer {
  name: "concat_3_4"
  type: "Concat"
  bottom: "Concat70"
  bottom: "Convolution146"
  top: "Concat71"
}
layer {
  name: "BatchNorm147"
  type: "BatchNorm"
  bottom: "Concat71"
  top: "BatchNorm147"
  param {
    lr_mult: 0
    decay_mult: 0
  }
  param {
    lr_mult: 0
    decay_mult: 0
  }
  param {
    lr_mult: 0
    decay_mult: 0
  }
}
layer {
  name: "Scale147"
  type: "Scale"
  bottom: "BatchNorm147"
  top: "BatchNorm147"
  scale_param {
    filler {
      value: 1
    }
    bias_term: true
    bias_filler {
      value: 0
    }
  }
}
layer {
  name: "ReLU146"
  type: "ReLU"
  bottom: "BatchNorm147"
  top: "BatchNorm147"
}
layer {
  name: "Convolution147"
  type: "Convolution"
  bottom: "BatchNorm147"
  top: "Convolution147"
  convolution_param {
    num_output: 128
    bias_term: false
    pad: 0
    kernel_size: 1
    stride: 1
    weight_filler {
      type: "xavier"
    }
    bias_filler {
      type: "constant"
    }
  }
}
layer {
  name: "BatchNorm148"
  type: "BatchNorm"
  bottom: "Convolution147"
  top: "BatchNorm148"
  param {
    lr_mult: 0
    decay_mult: 0
  }
  param {
    lr_mult: 0
    decay_mult: 0
  }
  param {
    lr_mult: 0
    decay_mult: 0
  }
}
layer {
  name: "Scale148"
  type: "Scale"
  bottom: "BatchNorm148"
  top: "BatchNorm148"
  scale_param {
    filler {
      value: 1
    }
    bias_term: true
    bias_filler {
      value: 0
    }
  }
}
layer {
  name: "ReLU147"
  type: "ReLU"
  bottom: "BatchNorm148"
  top: "BatchNorm148"
}
layer {
  name: "Convolution148"
  type: "Convolution"
  bottom: "BatchNorm148"
  top: "Convolution148"
  convolution_param {
    num_output: 32
    bias_term: false
    pad: 1
    kernel_size: 3
    stride: 1
    weight_filler {
      type: "xavier"
    }
    bias_filler {
      type: "constant"
    }
  }
}
layer {
  name: "concat_3_5"
  type: "Concat"
  bottom: "Concat71"
  bottom: "Convolution148"
  top: "Concat72"
}
layer {
  name: "BatchNorm149"
  type: "BatchNorm"
  bottom: "Concat72"
  top: "BatchNorm149"
  param {
    lr_mult: 0
    decay_mult: 0
  }
  param {
    lr_mult: 0
    decay_mult: 0
  }
  param {
    lr_mult: 0
    decay_mult: 0
  }
}
layer {
  name: "Scale149"
  type: "Scale"
  bottom: "BatchNorm149"
  top: "BatchNorm149"
  scale_param {
    filler {
      value: 1
    }
    bias_term: true
    bias_filler {
      value: 0
    }
  }
}
layer {
  name: "ReLU148"
  type: "ReLU"
  bottom: "BatchNorm149"
  top: "BatchNorm149"
}
layer {
  name: "Convolution149"
  type: "Convolution"
  bottom: "BatchNorm149"
  top: "Convolution149"
  convolution_param {
    num_output: 128
    bias_term: false
    pad: 0
    kernel_size: 1
    stride: 1
    weight_filler {
      type: "xavier"
    }
    bias_filler {
      type: "constant"
    }
  }
}
layer {
  name: "BatchNorm150"
  type: "BatchNorm"
  bottom: "Convolution149"
  top: "BatchNorm150"
  param {
    lr_mult: 0
    decay_mult: 0
  }
  param {
    lr_mult: 0
    decay_mult: 0
  }
  param {
    lr_mult: 0
    decay_mult: 0
  }
}
layer {
  name: "Scale150"
  type: "Scale"
  bottom: "BatchNorm150"
  top: "BatchNorm150"
  scale_param {
    filler {
      value: 1
    }
    bias_term: true
    bias_filler {
      value: 0
    }
  }
}
layer {
  name: "ReLU149"
  type: "ReLU"
  bottom: "BatchNorm150"
  top: "BatchNorm150"
}
layer {
  name: "Convolution150"
  type: "Convolution"
  bottom: "BatchNorm150"
  top: "Convolution150"
  convolution_param {
    num_output: 32
    bias_term: false
    pad: 1
    kernel_size: 3
    stride: 1
    weight_filler {
      type: "xavier"
    }
    bias_filler {
      type: "constant"
    }
  }
}
layer {
  name: "concat_3_6"
  type: "Concat"
  bottom: "Concat72"
  bottom: "Convolution150"
  top: "Concat73"
}
layer {
  name: "BatchNorm151"
  type: "BatchNorm"
  bottom: "Concat73"
  top: "BatchNorm151"
  param {
    lr_mult: 0
    decay_mult: 0
  }
  param {
    lr_mult: 0
    decay_mult: 0
  }
  param {
    lr_mult: 0
    decay_mult: 0
  }
}
layer {
  name: "Scale151"
  type: "Scale"
  bottom: "BatchNorm151"
  top: "BatchNorm151"
  scale_param {
    filler {
      value: 1
    }
    bias_term: true
    bias_filler {
      value: 0
    }
  }
}
layer {
  name: "ReLU150"
  type: "ReLU"
  bottom: "BatchNorm151"
  top: "BatchNorm151"
}
layer {
  name: "Convolution151"
  type: "Convolution"
  bottom: "BatchNorm151"
  top: "Convolution151"
  convolution_param {
    num_output: 128
    bias_term: false
    pad: 0
    kernel_size: 1
    stride: 1
    weight_filler {
      type: "xavier"
    }
    bias_filler {
      type: "constant"
    }
  }
}
layer {
  name: "BatchNorm152"
  type: "BatchNorm"
  bottom: "Convolution151"
  top: "BatchNorm152"
  param {
    lr_mult: 0
    decay_mult: 0
  }
  param {
    lr_mult: 0
    decay_mult: 0
  }
  param {
    lr_mult: 0
    decay_mult: 0
  }
}
layer {
  name: "Scale152"
  type: "Scale"
  bottom: "BatchNorm152"
  top: "BatchNorm152"
  scale_param {
    filler {
      value: 1
    }
    bias_term: true
    bias_filler {
      value: 0
    }
  }
}
layer {
  name: "ReLU151"
  type: "ReLU"
  bottom: "BatchNorm152"
  top: "BatchNorm152"
}
layer {
  name: "Convolution152"
  type: "Convolution"
  bottom: "BatchNorm152"
  top: "Convolution152"
  convolution_param {
    num_output: 32
    bias_term: false
    pad: 1
    kernel_size: 3
    stride: 1
    weight_filler {
      type: "xavier"
    }
    bias_filler {
      type: "constant"
    }
  }
}
layer {
  name: "concat_3_7"
  type: "Concat"
  bottom: "Concat73"
  bottom: "Convolution152"
  top: "Concat74"
}
layer {
  name: "BatchNorm153"
  type: "BatchNorm"
  bottom: "Concat74"
  top: "BatchNorm153"
  param {
    lr_mult: 0
    decay_mult: 0
  }
  param {
    lr_mult: 0
    decay_mult: 0
  }
  param {
    lr_mult: 0
    decay_mult: 0
  }
}
layer {
  name: "Scale153"
  type: "Scale"
  bottom: "BatchNorm153"
  top: "BatchNorm153"
  scale_param {
    filler {
      value: 1
    }
    bias_term: true
    bias_filler {
      value: 0
    }
  }
}
layer {
  name: "ReLU152"
  type: "ReLU"
  bottom: "BatchNorm153"
  top: "BatchNorm153"
}
layer {
  name: "Convolution153"
  type: "Convolution"
  bottom: "BatchNorm153"
  top: "Convolution153"
  convolution_param {
    num_output: 128
    bias_term: false
    pad: 0
    kernel_size: 1
    stride: 1
    weight_filler {
      type: "xavier"
    }
    bias_filler {
      type: "constant"
    }
  }
}
layer {
  name: "BatchNorm154"
  type: "BatchNorm"
  bottom: "Convolution153"
  top: "BatchNorm154"
  param {
    lr_mult: 0
    decay_mult: 0
  }
  param {
    lr_mult: 0
    decay_mult: 0
  }
  param {
    lr_mult: 0
    decay_mult: 0
  }
}
layer {
  name: "Scale154"
  type: "Scale"
  bottom: "BatchNorm154"
  top: "BatchNorm154"
  scale_param {
    filler {
      value: 1
    }
    bias_term: true
    bias_filler {
      value: 0
    }
  }
}
layer {
  name: "ReLU153"
  type: "ReLU"
  bottom: "BatchNorm154"
  top: "BatchNorm154"
}
layer {
  name: "Convolution154"
  type: "Convolution"
  bottom: "BatchNorm154"
  top: "Convolution154"
  convolution_param {
    num_output: 32
    bias_term: false
    pad: 1
    kernel_size: 3
    stride: 1
    weight_filler {
      type: "xavier"
    }
    bias_filler {
      type: "constant"
    }
  }
}
layer {
  name: "concat_3_8"
  type: "Concat"
  bottom: "Concat74"
  bottom: "Convolution154"
  top: "Concat75"
}
layer {
  name: "BatchNorm155"
  type: "BatchNorm"
  bottom: "Concat75"
  top: "BatchNorm155"
  param {
    lr_mult: 0
    decay_mult: 0
  }
  param {
    lr_mult: 0
    decay_mult: 0
  }
  param {
    lr_mult: 0
    decay_mult: 0
  }
}
layer {
  name: "Scale155"
  type: "Scale"
  bottom: "BatchNorm155"
  top: "BatchNorm155"
  scale_param {
    filler {
      value: 1
    }
    bias_term: true
    bias_filler {
      value: 0
    }
  }
}
layer {
  name: "ReLU154"
  type: "ReLU"
  bottom: "BatchNorm155"
  top: "BatchNorm155"
}
layer {
  name: "Convolution155"
  type: "Convolution"
  bottom: "BatchNorm155"
  top: "Convolution155"
  convolution_param {
    num_output: 128
    bias_term: false
    pad: 0
    kernel_size: 1
    stride: 1
    weight_filler {
      type: "xavier"
    }
    bias_filler {
      type: "constant"
    }
  }
}
layer {
  name: "BatchNorm156"
  type: "BatchNorm"
  bottom: "Convolution155"
  top: "BatchNorm156"
  param {
    lr_mult: 0
    decay_mult: 0
  }
  param {
    lr_mult: 0
    decay_mult: 0
  }
  param {
    lr_mult: 0
    decay_mult: 0
  }
}
layer {
  name: "Scale156"
  type: "Scale"
  bottom: "BatchNorm156"
  top: "BatchNorm156"
  scale_param {
    filler {
      value: 1
    }
    bias_term: true
    bias_filler {
      value: 0
    }
  }
}
layer {
  name: "ReLU155"
  type: "ReLU"
  bottom: "BatchNorm156"
  top: "BatchNorm156"
}
layer {
  name: "Convolution156"
  type: "Convolution"
  bottom: "BatchNorm156"
  top: "Convolution156"
  convolution_param {
    num_output: 32
    bias_term: false
    pad: 1
    kernel_size: 3
    stride: 1
    weight_filler {
      type: "xavier"
    }
    bias_filler {
      type: "constant"
    }
  }
}
layer {
  name: "concat_3_9"
  type: "Concat"
  bottom: "Concat75"
  bottom: "Convolution156"
  top: "Concat76"
}
layer {
  name: "BatchNorm157"
  type: "BatchNorm"
  bottom: "Concat76"
  top: "BatchNorm157"
  param {
    lr_mult: 0
    decay_mult: 0
  }
  param {
    lr_mult: 0
    decay_mult: 0
  }
  param {
    lr_mult: 0
    decay_mult: 0
  }
}
layer {
  name: "Scale157"
  type: "Scale"
  bottom: "BatchNorm157"
  top: "BatchNorm157"
  scale_param {
    filler {
      value: 1
    }
    bias_term: true
    bias_filler {
      value: 0
    }
  }
}
layer {
  name: "ReLU156"
  type: "ReLU"
  bottom: "BatchNorm157"
  top: "BatchNorm157"
}
layer {
  name: "Convolution157"
  type: "Convolution"
  bottom: "BatchNorm157"
  top: "Convolution157"
  convolution_param {
    num_output: 128
    bias_term: false
    pad: 0
    kernel_size: 1
    stride: 1
    weight_filler {
      type: "xavier"
    }
    bias_filler {
      type: "constant"
    }
  }
}
layer {
  name: "BatchNorm158"
  type: "BatchNorm"
  bottom: "Convolution157"
  top: "BatchNorm158"
  param {
    lr_mult: 0
    decay_mult: 0
  }
  param {
    lr_mult: 0
    decay_mult: 0
  }
  param {
    lr_mult: 0
    decay_mult: 0
  }
}
layer {
  name: "Scale158"
  type: "Scale"
  bottom: "BatchNorm158"
  top: "BatchNorm158"
  scale_param {
    filler {
      value: 1
    }
    bias_term: true
    bias_filler {
      value: 0
    }
  }
}
layer {
  name: "ReLU157"
  type: "ReLU"
  bottom: "BatchNorm158"
  top: "BatchNorm158"
}
layer {
  name: "Convolution158"
  type: "Convolution"
  bottom: "BatchNorm158"
  top: "Convolution158"
  convolution_param {
    num_output: 32
    bias_term: false
    pad: 1
    kernel_size: 3
    stride: 1
    weight_filler {
      type: "xavier"
    }
    bias_filler {
      type: "constant"
    }
  }
}
layer {
  name: "concat_3_10"
  type: "Concat"
  bottom: "Concat76"
  bottom: "Convolution158"
  top: "Concat77"
}
layer {
  name: "BatchNorm159"
  type: "BatchNorm"
  bottom: "Concat77"
  top: "BatchNorm159"
  param {
    lr_mult: 0
    decay_mult: 0
  }
  param {
    lr_mult: 0
    decay_mult: 0
  }
  param {
    lr_mult: 0
    decay_mult: 0
  }
}
layer {
  name: "Scale159"
  type: "Scale"
  bottom: "BatchNorm159"
  top: "BatchNorm159"
  scale_param {
    filler {
      value: 1
    }
    bias_term: true
    bias_filler {
      value: 0
    }
  }
}
layer {
  name: "ReLU158"
  type: "ReLU"
  bottom: "BatchNorm159"
  top: "BatchNorm159"
}
layer {
  name: "Convolution159"
  type: "Convolution"
  bottom: "BatchNorm159"
  top: "Convolution159"
  convolution_param {
    num_output: 128
    bias_term: false
    pad: 0
    kernel_size: 1
    stride: 1
    weight_filler {
      type: "xavier"
    }
    bias_filler {
      type: "constant"
    }
  }
}
layer {
  name: "BatchNorm160"
  type: "BatchNorm"
  bottom: "Convolution159"
  top: "BatchNorm160"
  param {
    lr_mult: 0
    decay_mult: 0
  }
  param {
    lr_mult: 0
    decay_mult: 0
  }
  param {
    lr_mult: 0
    decay_mult: 0
  }
}
layer {
  name: "Scale160"
  type: "Scale"
  bottom: "BatchNorm160"
  top: "BatchNorm160"
  scale_param {
    filler {
      value: 1
    }
    bias_term: true
    bias_filler {
      value: 0
    }
  }
}
layer {
  name: "ReLU159"
  type: "ReLU"
  bottom: "BatchNorm160"
  top: "BatchNorm160"
}
layer {
  name: "Convolution160"
  type: "Convolution"
  bottom: "BatchNorm160"
  top: "Convolution160"
  convolution_param {
    num_output: 32
    bias_term: false
    pad: 1
    kernel_size: 3
    stride: 1
    weight_filler {
      type: "xavier"
    }
    bias_filler {
      type: "constant"
    }
  }
}
layer {
  name: "concat_3_11"
  type: "Concat"
  bottom: "Concat77"
  bottom: "Convolution160"
  top: "Concat78"
}
layer {
  name: "BatchNorm161"
  type: "BatchNorm"
  bottom: "Concat78"
  top: "BatchNorm161"
  param {
    lr_mult: 0
    decay_mult: 0
  }
  param {
    lr_mult: 0
    decay_mult: 0
  }
  param {
    lr_mult: 0
    decay_mult: 0
  }
}
layer {
  name: "Scale161"
  type: "Scale"
  bottom: "BatchNorm161"
  top: "BatchNorm161"
  scale_param {
    filler {
      value: 1
    }
    bias_term: true
    bias_filler {
      value: 0
    }
  }
}
layer {
  name: "ReLU160"
  type: "ReLU"
  bottom: "BatchNorm161"
  top: "BatchNorm161"
}
layer {
  name: "Convolution161"
  type: "Convolution"
  bottom: "BatchNorm161"
  top: "Convolution161"
  convolution_param {
    num_output: 128
    bias_term: false
    pad: 0
    kernel_size: 1
    stride: 1
    weight_filler {
      type: "xavier"
    }
    bias_filler {
      type: "constant"
    }
  }
}
layer {
  name: "BatchNorm162"
  type: "BatchNorm"
  bottom: "Convolution161"
  top: "BatchNorm162"
  param {
    lr_mult: 0
    decay_mult: 0
  }
  param {
    lr_mult: 0
    decay_mult: 0
  }
  param {
    lr_mult: 0
    decay_mult: 0
  }
}
layer {
  name: "Scale162"
  type: "Scale"
  bottom: "BatchNorm162"
  top: "BatchNorm162"
  scale_param {
    filler {
      value: 1
    }
    bias_term: true
    bias_filler {
      value: 0
    }
  }
}
layer {
  name: "ReLU161"
  type: "ReLU"
  bottom: "BatchNorm162"
  top: "BatchNorm162"
}
layer {
  name: "Convolution162"
  type: "Convolution"
  bottom: "BatchNorm162"
  top: "Convolution162"
  convolution_param {
    num_output: 32
    bias_term: false
    pad: 1
    kernel_size: 3
    stride: 1
    weight_filler {
      type: "xavier"
    }
    bias_filler {
      type: "constant"
    }
  }
}
layer {
  name: "concat_3_12"
  type: "Concat"
  bottom: "Concat78"
  bottom: "Convolution162"
  top: "Concat79"
}
layer {
  name: "BatchNorm163"
  type: "BatchNorm"
  bottom: "Concat79"
  top: "BatchNorm163"
  param {
    lr_mult: 0
    decay_mult: 0
  }
  param {
    lr_mult: 0
    decay_mult: 0
  }
  param {
    lr_mult: 0
    decay_mult: 0
  }
}
layer {
  name: "Scale163"
  type: "Scale"
  bottom: "BatchNorm163"
  top: "BatchNorm163"
  scale_param {
    filler {
      value: 1
    }
    bias_term: true
    bias_filler {
      value: 0
    }
  }
}
layer {
  name: "ReLU162"
  type: "ReLU"
  bottom: "BatchNorm163"
  top: "BatchNorm163"
}
layer {
  name: "Convolution163"
  type: "Convolution"
  bottom: "BatchNorm163"
  top: "Convolution163"
  convolution_param {
    num_output: 128
    bias_term: false
    pad: 0
    kernel_size: 1
    stride: 1
    weight_filler {
      type: "xavier"
    }
    bias_filler {
      type: "constant"
    }
  }
}
layer {
  name: "BatchNorm164"
  type: "BatchNorm"
  bottom: "Convolution163"
  top: "BatchNorm164"
  param {
    lr_mult: 0
    decay_mult: 0
  }
  param {
    lr_mult: 0
    decay_mult: 0
  }
  param {
    lr_mult: 0
    decay_mult: 0
  }
}
layer {
  name: "Scale164"
  type: "Scale"
  bottom: "BatchNorm164"
  top: "BatchNorm164"
  scale_param {
    filler {
      value: 1
    }
    bias_term: true
    bias_filler {
      value: 0
    }
  }
}
layer {
  name: "ReLU163"
  type: "ReLU"
  bottom: "BatchNorm164"
  top: "BatchNorm164"
}
layer {
  name: "Convolution164"
  type: "Convolution"
  bottom: "BatchNorm164"
  top: "Convolution164"
  convolution_param {
    num_output: 32
    bias_term: false
    pad: 1
    kernel_size: 3
    stride: 1
    weight_filler {
      type: "xavier"
    }
    bias_filler {
      type: "constant"
    }
  }
}
layer {
  name: "concat_3_13"
  type: "Concat"
  bottom: "Concat79"
  bottom: "Convolution164"
  top: "Concat80"
}
layer {
  name: "BatchNorm165"
  type: "BatchNorm"
  bottom: "Concat80"
  top: "BatchNorm165"
  param {
    lr_mult: 0
    decay_mult: 0
  }
  param {
    lr_mult: 0
    decay_mult: 0
  }
  param {
    lr_mult: 0
    decay_mult: 0
  }
}
layer {
  name: "Scale165"
  type: "Scale"
  bottom: "BatchNorm165"
  top: "BatchNorm165"
  scale_param {
    filler {
      value: 1
    }
    bias_term: true
    bias_filler {
      value: 0
    }
  }
}
layer {
  name: "ReLU164"
  type: "ReLU"
  bottom: "BatchNorm165"
  top: "BatchNorm165"
}
layer {
  name: "Convolution165"
  type: "Convolution"
  bottom: "BatchNorm165"
  top: "Convolution165"
  convolution_param {
    num_output: 128
    bias_term: false
    pad: 0
    kernel_size: 1
    stride: 1
    weight_filler {
      type: "xavier"
    }
    bias_filler {
      type: "constant"
    }
  }
}
layer {
  name: "BatchNorm166"
  type: "BatchNorm"
  bottom: "Convolution165"
  top: "BatchNorm166"
  param {
    lr_mult: 0
    decay_mult: 0
  }
  param {
    lr_mult: 0
    decay_mult: 0
  }
  param {
    lr_mult: 0
    decay_mult: 0
  }
}
layer {
  name: "Scale166"
  type: "Scale"
  bottom: "BatchNorm166"
  top: "BatchNorm166"
  scale_param {
    filler {
      value: 1
    }
    bias_term: true
    bias_filler {
      value: 0
    }
  }
}
layer {
  name: "ReLU165"
  type: "ReLU"
  bottom: "BatchNorm166"
  top: "BatchNorm166"
}
layer {
  name: "Convolution166"
  type: "Convolution"
  bottom: "BatchNorm166"
  top: "Convolution166"
  convolution_param {
    num_output: 32
    bias_term: false
    pad: 1
    kernel_size: 3
    stride: 1
    weight_filler {
      type: "xavier"
    }
    bias_filler {
      type: "constant"
    }
  }
}
layer {
  name: "concat_3_14"
  type: "Concat"
  bottom: "Concat80"
  bottom: "Convolution166"
  top: "Concat81"
}
layer {
  name: "BatchNorm167"
  type: "BatchNorm"
  bottom: "Concat81"
  top: "BatchNorm167"
  param {
    lr_mult: 0
    decay_mult: 0
  }
  param {
    lr_mult: 0
    decay_mult: 0
  }
  param {
    lr_mult: 0
    decay_mult: 0
  }
}
layer {
  name: "Scale167"
  type: "Scale"
  bottom: "BatchNorm167"
  top: "BatchNorm167"
  scale_param {
    filler {
      value: 1
    }
    bias_term: true
    bias_filler {
      value: 0
    }
  }
}
layer {
  name: "ReLU166"
  type: "ReLU"
  bottom: "BatchNorm167"
  top: "BatchNorm167"
}
layer {
  name: "Convolution167"
  type: "Convolution"
  bottom: "BatchNorm167"
  top: "Convolution167"
  convolution_param {
    num_output: 128
    bias_term: false
    pad: 0
    kernel_size: 1
    stride: 1
    weight_filler {
      type: "xavier"
    }
    bias_filler {
      type: "constant"
    }
  }
}
layer {
  name: "BatchNorm168"
  type: "BatchNorm"
  bottom: "Convolution167"
  top: "BatchNorm168"
  param {
    lr_mult: 0
    decay_mult: 0
  }
  param {
    lr_mult: 0
    decay_mult: 0
  }
  param {
    lr_mult: 0
    decay_mult: 0
  }
}
layer {
  name: "Scale168"
  type: "Scale"
  bottom: "BatchNorm168"
  top: "BatchNorm168"
  scale_param {
    filler {
      value: 1
    }
    bias_term: true
    bias_filler {
      value: 0
    }
  }
}
layer {
  name: "ReLU167"
  type: "ReLU"
  bottom: "BatchNorm168"
  top: "BatchNorm168"
}
layer {
  name: "Convolution168"
  type: "Convolution"
  bottom: "BatchNorm168"
  top: "Convolution168"
  convolution_param {
    num_output: 32
    bias_term: false
    pad: 1
    kernel_size: 3
    stride: 1
    weight_filler {
      type: "xavier"
    }
    bias_filler {
      type: "constant"
    }
  }
}
layer {
  name: "concat_3_15"
  type: "Concat"
  bottom: "Concat81"
  bottom: "Convolution168"
  top: "Concat82"
}
layer {
  name: "BatchNorm169"
  type: "BatchNorm"
  bottom: "Concat82"
  top: "BatchNorm169"
  param {
    lr_mult: 0
    decay_mult: 0
  }
  param {
    lr_mult: 0
    decay_mult: 0
  }
  param {
    lr_mult: 0
    decay_mult: 0
  }
}
layer {
  name: "Scale169"
  type: "Scale"
  bottom: "BatchNorm169"
  top: "BatchNorm169"
  scale_param {
    filler {
      value: 1
    }
    bias_term: true
    bias_filler {
      value: 0
    }
  }
}
layer {
  name: "ReLU168"
  type: "ReLU"
  bottom: "BatchNorm169"
  top: "BatchNorm169"
}
layer {
  name: "Convolution169"
  type: "Convolution"
  bottom: "BatchNorm169"
  top: "Convolution169"
  convolution_param {
    num_output: 128
    bias_term: false
    pad: 0
    kernel_size: 1
    stride: 1
    weight_filler {
      type: "xavier"
    }
    bias_filler {
      type: "constant"
    }
  }
}
layer {
  name: "BatchNorm170"
  type: "BatchNorm"
  bottom: "Convolution169"
  top: "BatchNorm170"
  param {
    lr_mult: 0
    decay_mult: 0
  }
  param {
    lr_mult: 0
    decay_mult: 0
  }
  param {
    lr_mult: 0
    decay_mult: 0
  }
}
layer {
  name: "Scale170"
  type: "Scale"
  bottom: "BatchNorm170"
  top: "BatchNorm170"
  scale_param {
    filler {
      value: 1
    }
    bias_term: true
    bias_filler {
      value: 0
    }
  }
}
layer {
  name: "ReLU169"
  type: "ReLU"
  bottom: "BatchNorm170"
  top: "BatchNorm170"
}
layer {
  name: "Convolution170"
  type: "Convolution"
  bottom: "BatchNorm170"
  top: "Convolution170"
  convolution_param {
    num_output: 32
    bias_term: false
    pad: 1
    kernel_size: 3
    stride: 1
    weight_filler {
      type: "xavier"
    }
    bias_filler {
      type: "constant"
    }
  }
}
layer {
  name: "concat_3_16"
  type: "Concat"
  bottom: "Concat82"
  bottom: "Convolution170"
  top: "Concat83"
}
layer {
  name: "BatchNorm171"
  type: "BatchNorm"
  bottom: "Concat83"
  top: "BatchNorm171"
  param {
    lr_mult: 0
    decay_mult: 0
  }
  param {
    lr_mult: 0
    decay_mult: 0
  }
  param {
    lr_mult: 0
    decay_mult: 0
  }
}
layer {
  name: "Scale171"
  type: "Scale"
  bottom: "BatchNorm171"
  top: "BatchNorm171"
  scale_param {
    filler {
      value: 1
    }
    bias_term: true
    bias_filler {
      value: 0
    }
  }
}
layer {
  name: "ReLU170"
  type: "ReLU"
  bottom: "BatchNorm171"
  top: "BatchNorm171"
}
layer {
  name: "Convolution171"
  type: "Convolution"
  bottom: "BatchNorm171"
  top: "Convolution171"
  convolution_param {
    num_output: 128
    bias_term: false
    pad: 0
    kernel_size: 1
    stride: 1
    weight_filler {
      type: "xavier"
    }
    bias_filler {
      type: "constant"
    }
  }
}
layer {
  name: "BatchNorm172"
  type: "BatchNorm"
  bottom: "Convolution171"
  top: "BatchNorm172"
  param {
    lr_mult: 0
    decay_mult: 0
  }
  param {
    lr_mult: 0
    decay_mult: 0
  }
  param {
    lr_mult: 0
    decay_mult: 0
  }
}
layer {
  name: "Scale172"
  type: "Scale"
  bottom: "BatchNorm172"
  top: "BatchNorm172"
  scale_param {
    filler {
      value: 1
    }
    bias_term: true
    bias_filler {
      value: 0
    }
  }
}
layer {
  name: "ReLU171"
  type: "ReLU"
  bottom: "BatchNorm172"
  top: "BatchNorm172"
}
layer {
  name: "Convolution172"
  type: "Convolution"
  bottom: "BatchNorm172"
  top: "Convolution172"
  convolution_param {
    num_output: 32
    bias_term: false
    pad: 1
    kernel_size: 3
    stride: 1
    weight_filler {
      type: "xavier"
    }
    bias_filler {
      type: "constant"
    }
  }
}
layer {
  name: "concat_3_17"
  type: "Concat"
  bottom: "Concat83"
  bottom: "Convolution172"
  top: "Concat84"
}
layer {
  name: "BatchNorm173"
  type: "BatchNorm"
  bottom: "Concat84"
  top: "BatchNorm173"
  param {
    lr_mult: 0
    decay_mult: 0
  }
  param {
    lr_mult: 0
    decay_mult: 0
  }
  param {
    lr_mult: 0
    decay_mult: 0
  }
}
layer {
  name: "Scale173"
  type: "Scale"
  bottom: "BatchNorm173"
  top: "BatchNorm173"
  scale_param {
    filler {
      value: 1
    }
    bias_term: true
    bias_filler {
      value: 0
    }
  }
}
layer {
  name: "ReLU172"
  type: "ReLU"
  bottom: "BatchNorm173"
  top: "BatchNorm173"
}
layer {
  name: "Convolution173"
  type: "Convolution"
  bottom: "BatchNorm173"
  top: "Convolution173"
  convolution_param {
    num_output: 128
    bias_term: false
    pad: 0
    kernel_size: 1
    stride: 1
    weight_filler {
      type: "xavier"
    }
    bias_filler {
      type: "constant"
    }
  }
}
layer {
  name: "BatchNorm174"
  type: "BatchNorm"
  bottom: "Convolution173"
  top: "BatchNorm174"
  param {
    lr_mult: 0
    decay_mult: 0
  }
  param {
    lr_mult: 0
    decay_mult: 0
  }
  param {
    lr_mult: 0
    decay_mult: 0
  }
}
layer {
  name: "Scale174"
  type: "Scale"
  bottom: "BatchNorm174"
  top: "BatchNorm174"
  scale_param {
    filler {
      value: 1
    }
    bias_term: true
    bias_filler {
      value: 0
    }
  }
}
layer {
  name: "ReLU173"
  type: "ReLU"
  bottom: "BatchNorm174"
  top: "BatchNorm174"
}
layer {
  name: "Convolution174"
  type: "Convolution"
  bottom: "BatchNorm174"
  top: "Convolution174"
  convolution_param {
    num_output: 32
    bias_term: false
    pad: 1
    kernel_size: 3
    stride: 1
    weight_filler {
      type: "xavier"
    }
    bias_filler {
      type: "constant"
    }
  }
}
layer {
  name: "concat_3_18"
  type: "Concat"
  bottom: "Concat84"
  bottom: "Convolution174"
  top: "Concat85"
}
layer {
  name: "BatchNorm175"
  type: "BatchNorm"
  bottom: "Concat85"
  top: "BatchNorm175"
  param {
    lr_mult: 0
    decay_mult: 0
  }
  param {
    lr_mult: 0
    decay_mult: 0
  }
  param {
    lr_mult: 0
    decay_mult: 0
  }
}
layer {
  name: "Scale175"
  type: "Scale"
  bottom: "BatchNorm175"
  top: "BatchNorm175"
  scale_param {
    filler {
      value: 1
    }
    bias_term: true
    bias_filler {
      value: 0
    }
  }
}
layer {
  name: "ReLU174"
  type: "ReLU"
  bottom: "BatchNorm175"
  top: "BatchNorm175"
}
layer {
  name: "Convolution175"
  type: "Convolution"
  bottom: "BatchNorm175"
  top: "Convolution175"
  convolution_param {
    num_output: 128
    bias_term: false
    pad: 0
    kernel_size: 1
    stride: 1
    weight_filler {
      type: "xavier"
    }
    bias_filler {
      type: "constant"
    }
  }
}
layer {
  name: "BatchNorm176"
  type: "BatchNorm"
  bottom: "Convolution175"
  top: "BatchNorm176"
  param {
    lr_mult: 0
    decay_mult: 0
  }
  param {
    lr_mult: 0
    decay_mult: 0
  }
  param {
    lr_mult: 0
    decay_mult: 0
  }
}
layer {
  name: "Scale176"
  type: "Scale"
  bottom: "BatchNorm176"
  top: "BatchNorm176"
  scale_param {
    filler {
      value: 1
    }
    bias_term: true
    bias_filler {
      value: 0
    }
  }
}
layer {
  name: "ReLU175"
  type: "ReLU"
  bottom: "BatchNorm176"
  top: "BatchNorm176"
}
layer {
  name: "Convolution176"
  type: "Convolution"
  bottom: "BatchNorm176"
  top: "Convolution176"
  convolution_param {
    num_output: 32
    bias_term: false
    pad: 1
    kernel_size: 3
    stride: 1
    weight_filler {
      type: "xavier"
    }
    bias_filler {
      type: "constant"
    }
  }
}
layer {
  name: "concat_3_19"
  type: "Concat"
  bottom: "Concat85"
  bottom: "Convolution176"
  top: "Concat86"
}
layer {
  name: "BatchNorm177"
  type: "BatchNorm"
  bottom: "Concat86"
  top: "BatchNorm177"
  param {
    lr_mult: 0
    decay_mult: 0
  }
  param {
    lr_mult: 0
    decay_mult: 0
  }
  param {
    lr_mult: 0
    decay_mult: 0
  }
}
layer {
  name: "Scale177"
  type: "Scale"
  bottom: "BatchNorm177"
  top: "BatchNorm177"
  scale_param {
    filler {
      value: 1
    }
    bias_term: true
    bias_filler {
      value: 0
    }
  }
}
layer {
  name: "ReLU176"
  type: "ReLU"
  bottom: "BatchNorm177"
  top: "BatchNorm177"
}
layer {
  name: "Convolution177"
  type: "Convolution"
  bottom: "BatchNorm177"
  top: "Convolution177"
  convolution_param {
    num_output: 128
    bias_term: false
    pad: 0
    kernel_size: 1
    stride: 1
    weight_filler {
      type: "xavier"
    }
    bias_filler {
      type: "constant"
    }
  }
}
layer {
  name: "BatchNorm178"
  type: "BatchNorm"
  bottom: "Convolution177"
  top: "BatchNorm178"
  param {
    lr_mult: 0
    decay_mult: 0
  }
  param {
    lr_mult: 0
    decay_mult: 0
  }
  param {
    lr_mult: 0
    decay_mult: 0
  }
}
layer {
  name: "Scale178"
  type: "Scale"
  bottom: "BatchNorm178"
  top: "BatchNorm178"
  scale_param {
    filler {
      value: 1
    }
    bias_term: true
    bias_filler {
      value: 0
    }
  }
}
layer {
  name: "ReLU177"
  type: "ReLU"
  bottom: "BatchNorm178"
  top: "BatchNorm178"
}
layer {
  name: "Convolution178"
  type: "Convolution"
  bottom: "BatchNorm178"
  top: "Convolution178"
  convolution_param {
    num_output: 32
    bias_term: false
    pad: 1
    kernel_size: 3
    stride: 1
    weight_filler {
      type: "xavier"
    }
    bias_filler {
      type: "constant"
    }
  }
}
layer {
  name: "concat_3_20"
  type: "Concat"
  bottom: "Concat86"
  bottom: "Convolution178"
  top: "Concat87"
}
layer {
  name: "BatchNorm179"
  type: "BatchNorm"
  bottom: "Concat87"
  top: "BatchNorm179"
  param {
    lr_mult: 0
    decay_mult: 0
  }
  param {
    lr_mult: 0
    decay_mult: 0
  }
  param {
    lr_mult: 0
    decay_mult: 0
  }
}
layer {
  name: "Scale179"
  type: "Scale"
  bottom: "BatchNorm179"
  top: "BatchNorm179"
  scale_param {
    filler {
      value: 1
    }
    bias_term: true
    bias_filler {
      value: 0
    }
  }
}
layer {
  name: "ReLU178"
  type: "ReLU"
  bottom: "BatchNorm179"
  top: "BatchNorm179"
}
layer {
  name: "Convolution179"
  type: "Convolution"
  bottom: "BatchNorm179"
  top: "Convolution179"
  convolution_param {
    num_output: 128
    bias_term: false
    pad: 0
    kernel_size: 1
    stride: 1
    weight_filler {
      type: "xavier"
    }
    bias_filler {
      type: "constant"
    }
  }
}
layer {
  name: "BatchNorm180"
  type: "BatchNorm"
  bottom: "Convolution179"
  top: "BatchNorm180"
  param {
    lr_mult: 0
    decay_mult: 0
  }
  param {
    lr_mult: 0
    decay_mult: 0
  }
  param {
    lr_mult: 0
    decay_mult: 0
  }
}
layer {
  name: "Scale180"
  type: "Scale"
  bottom: "BatchNorm180"
  top: "BatchNorm180"
  scale_param {
    filler {
      value: 1
    }
    bias_term: true
    bias_filler {
      value: 0
    }
  }
}
layer {
  name: "ReLU179"
  type: "ReLU"
  bottom: "BatchNorm180"
  top: "BatchNorm180"
}
layer {
  name: "Convolution180"
  type: "Convolution"
  bottom: "BatchNorm180"
  top: "Convolution180"
  convolution_param {
    num_output: 32
    bias_term: false
    pad: 1
    kernel_size: 3
    stride: 1
    weight_filler {
      type: "xavier"
    }
    bias_filler {
      type: "constant"
    }
  }
}
layer {
  name: "concat_3_21"
  type: "Concat"
  bottom: "Concat87"
  bottom: "Convolution180"
  top: "Concat88"
}
layer {
  name: "BatchNorm181"
  type: "BatchNorm"
  bottom: "Concat88"
  top: "BatchNorm181"
  param {
    lr_mult: 0
    decay_mult: 0
  }
  param {
    lr_mult: 0
    decay_mult: 0
  }
  param {
    lr_mult: 0
    decay_mult: 0
  }
}
layer {
  name: "Scale181"
  type: "Scale"
  bottom: "BatchNorm181"
  top: "BatchNorm181"
  scale_param {
    filler {
      value: 1
    }
    bias_term: true
    bias_filler {
      value: 0
    }
  }
}
layer {
  name: "ReLU180"
  type: "ReLU"
  bottom: "BatchNorm181"
  top: "BatchNorm181"
}
layer {
  name: "Convolution181"
  type: "Convolution"
  bottom: "BatchNorm181"
  top: "Convolution181"
  convolution_param {
    num_output: 128
    bias_term: false
    pad: 0
    kernel_size: 1
    stride: 1
    weight_filler {
      type: "xavier"
    }
    bias_filler {
      type: "constant"
    }
  }
}
layer {
  name: "BatchNorm182"
  type: "BatchNorm"
  bottom: "Convolution181"
  top: "BatchNorm182"
  param {
    lr_mult: 0
    decay_mult: 0
  }
  param {
    lr_mult: 0
    decay_mult: 0
  }
  param {
    lr_mult: 0
    decay_mult: 0
  }
}
layer {
  name: "Scale182"
  type: "Scale"
  bottom: "BatchNorm182"
  top: "BatchNorm182"
  scale_param {
    filler {
      value: 1
    }
    bias_term: true
    bias_filler {
      value: 0
    }
  }
}
layer {
  name: "ReLU181"
  type: "ReLU"
  bottom: "BatchNorm182"
  top: "BatchNorm182"
}
layer {
  name: "Convolution182"
  type: "Convolution"
  bottom: "BatchNorm182"
  top: "Convolution182"
  convolution_param {
    num_output: 32
    bias_term: false
    pad: 1
    kernel_size: 3
    stride: 1
    weight_filler {
      type: "xavier"
    }
    bias_filler {
      type: "constant"
    }
  }
}
layer {
  name: "concat_3_22"
  type: "Concat"
  bottom: "Concat88"
  bottom: "Convolution182"
  top: "Concat89"
}
layer {
  name: "BatchNorm183"
  type: "BatchNorm"
  bottom: "Concat89"
  top: "BatchNorm183"
  param {
    lr_mult: 0
    decay_mult: 0
  }
  param {
    lr_mult: 0
    decay_mult: 0
  }
  param {
    lr_mult: 0
    decay_mult: 0
  }
}
layer {
  name: "Scale183"
  type: "Scale"
  bottom: "BatchNorm183"
  top: "BatchNorm183"
  scale_param {
    filler {
      value: 1
    }
    bias_term: true
    bias_filler {
      value: 0
    }
  }
}
layer {
  name: "ReLU182"
  type: "ReLU"
  bottom: "BatchNorm183"
  top: "BatchNorm183"
}
layer {
  name: "Convolution183"
  type: "Convolution"
  bottom: "BatchNorm183"
  top: "Convolution183"
  convolution_param {
    num_output: 128
    bias_term: false
    pad: 0
    kernel_size: 1
    stride: 1
    weight_filler {
      type: "xavier"
    }
    bias_filler {
      type: "constant"
    }
  }
}
layer {
  name: "BatchNorm184"
  type: "BatchNorm"
  bottom: "Convolution183"
  top: "BatchNorm184"
  param {
    lr_mult: 0
    decay_mult: 0
  }
  param {
    lr_mult: 0
    decay_mult: 0
  }
  param {
    lr_mult: 0
    decay_mult: 0
  }
}
layer {
  name: "Scale184"
  type: "Scale"
  bottom: "BatchNorm184"
  top: "BatchNorm184"
  scale_param {
    filler {
      value: 1
    }
    bias_term: true
    bias_filler {
      value: 0
    }
  }
}
layer {
  name: "ReLU183"
  type: "ReLU"
  bottom: "BatchNorm184"
  top: "BatchNorm184"
}
layer {
  name: "Convolution184"
  type: "Convolution"
  bottom: "BatchNorm184"
  top: "Convolution184"
  convolution_param {
    num_output: 32
    bias_term: false
    pad: 1
    kernel_size: 3
    stride: 1
    weight_filler {
      type: "xavier"
    }
    bias_filler {
      type: "constant"
    }
  }
}
layer {
  name: "concat_3_23"
  type: "Concat"
  bottom: "Concat89"
  bottom: "Convolution184"
  top: "Concat90"
}
layer {
  name: "BatchNorm185"
  type: "BatchNorm"
  bottom: "Concat90"
  top: "BatchNorm185"
  param {
    lr_mult: 0
    decay_mult: 0
  }
  param {
    lr_mult: 0
    decay_mult: 0
  }
  param {
    lr_mult: 0
    decay_mult: 0
  }
}
layer {
  name: "Scale185"
  type: "Scale"
  bottom: "BatchNorm185"
  top: "BatchNorm185"
  scale_param {
    filler {
      value: 1
    }
    bias_term: true
    bias_filler {
      value: 0
    }
  }
}
layer {
  name: "ReLU184"
  type: "ReLU"
  bottom: "BatchNorm185"
  top: "BatchNorm185"
}
layer {
  name: "Convolution185"
  type: "Convolution"
  bottom: "BatchNorm185"
  top: "Convolution185"
  convolution_param {
    num_output: 128
    bias_term: false
    pad: 0
    kernel_size: 1
    stride: 1
    weight_filler {
      type: "xavier"
    }
    bias_filler {
      type: "constant"
    }
  }
}
layer {
  name: "BatchNorm186"
  type: "BatchNorm"
  bottom: "Convolution185"
  top: "BatchNorm186"
  param {
    lr_mult: 0
    decay_mult: 0
  }
  param {
    lr_mult: 0
    decay_mult: 0
  }
  param {
    lr_mult: 0
    decay_mult: 0
  }
}
layer {
  name: "Scale186"
  type: "Scale"
  bottom: "BatchNorm186"
  top: "BatchNorm186"
  scale_param {
    filler {
      value: 1
    }
    bias_term: true
    bias_filler {
      value: 0
    }
  }
}
layer {
  name: "ReLU185"
  type: "ReLU"
  bottom: "BatchNorm186"
  top: "BatchNorm186"
}
layer {
  name: "Convolution186"
  type: "Convolution"
  bottom: "BatchNorm186"
  top: "Convolution186"
  convolution_param {
    num_output: 32
    bias_term: false
    pad: 1
    kernel_size: 3
    stride: 1
    weight_filler {
      type: "xavier"
    }
    bias_filler {
      type: "constant"
    }
  }
}
layer {
  name: "concat_3_24"
  type: "Concat"
  bottom: "Concat90"
  bottom: "Convolution186"
  top: "Concat91"
}
layer {
  name: "BatchNorm187"
  type: "BatchNorm"
  bottom: "Concat91"
  top: "BatchNorm187"
  param {
    lr_mult: 0
    decay_mult: 0
  }
  param {
    lr_mult: 0
    decay_mult: 0
  }
  param {
    lr_mult: 0
    decay_mult: 0
  }
}
layer {
  name: "Scale187"
  type: "Scale"
  bottom: "BatchNorm187"
  top: "BatchNorm187"
  scale_param {
    filler {
      value: 1
    }
    bias_term: true
    bias_filler {
      value: 0
    }
  }
}
layer {
  name: "ReLU186"
  type: "ReLU"
  bottom: "BatchNorm187"
  top: "BatchNorm187"
}
layer {
  name: "Convolution187"
  type: "Convolution"
  bottom: "BatchNorm187"
  top: "Convolution187"
  convolution_param {
    num_output: 128
    bias_term: false
    pad: 0
    kernel_size: 1
    stride: 1
    weight_filler {
      type: "xavier"
    }
    bias_filler {
      type: "constant"
    }
  }
}
layer {
  name: "BatchNorm188"
  type: "BatchNorm"
  bottom: "Convolution187"
  top: "BatchNorm188"
  param {
    lr_mult: 0
    decay_mult: 0
  }
  param {
    lr_mult: 0
    decay_mult: 0
  }
  param {
    lr_mult: 0
    decay_mult: 0
  }
}
layer {
  name: "Scale188"
  type: "Scale"
  bottom: "BatchNorm188"
  top: "BatchNorm188"
  scale_param {
    filler {
      value: 1
    }
    bias_term: true
    bias_filler {
      value: 0
    }
  }
}
layer {
  name: "ReLU187"
  type: "ReLU"
  bottom: "BatchNorm188"
  top: "BatchNorm188"
}
layer {
  name: "Convolution188"
  type: "Convolution"
  bottom: "BatchNorm188"
  top: "Convolution188"
  convolution_param {
    num_output: 32
    bias_term: false
    pad: 1
    kernel_size: 3
    stride: 1
    weight_filler {
      type: "xavier"
    }
    bias_filler {
      type: "constant"
    }
  }
}
layer {
  name: "concat_3_25"
  type: "Concat"
  bottom: "Concat91"
  bottom: "Convolution188"
  top: "Concat92"
}
layer {
  name: "BatchNorm189"
  type: "BatchNorm"
  bottom: "Concat92"
  top: "BatchNorm189"
  param {
    lr_mult: 0
    decay_mult: 0
  }
  param {
    lr_mult: 0
    decay_mult: 0
  }
  param {
    lr_mult: 0
    decay_mult: 0
  }
}
layer {
  name: "Scale189"
  type: "Scale"
  bottom: "BatchNorm189"
  top: "BatchNorm189"
  scale_param {
    filler {
      value: 1
    }
    bias_term: true
    bias_filler {
      value: 0
    }
  }
}
layer {
  name: "ReLU188"
  type: "ReLU"
  bottom: "BatchNorm189"
  top: "BatchNorm189"
}
layer {
  name: "Convolution189"
  type: "Convolution"
  bottom: "BatchNorm189"
  top: "Convolution189"
  convolution_param {
    num_output: 128
    bias_term: false
    pad: 0
    kernel_size: 1
    stride: 1
    weight_filler {
      type: "xavier"
    }
    bias_filler {
      type: "constant"
    }
  }
}
layer {
  name: "BatchNorm190"
  type: "BatchNorm"
  bottom: "Convolution189"
  top: "BatchNorm190"
  param {
    lr_mult: 0
    decay_mult: 0
  }
  param {
    lr_mult: 0
    decay_mult: 0
  }
  param {
    lr_mult: 0
    decay_mult: 0
  }
}
layer {
  name: "Scale190"
  type: "Scale"
  bottom: "BatchNorm190"
  top: "BatchNorm190"
  scale_param {
    filler {
      value: 1
    }
    bias_term: true
    bias_filler {
      value: 0
    }
  }
}
layer {
  name: "ReLU189"
  type: "ReLU"
  bottom: "BatchNorm190"
  top: "BatchNorm190"
}
layer {
  name: "Convolution190"
  type: "Convolution"
  bottom: "BatchNorm190"
  top: "Convolution190"
  convolution_param {
    num_output: 32
    bias_term: false
    pad: 1
    kernel_size: 3
    stride: 1
    weight_filler {
      type: "xavier"
    }
    bias_filler {
      type: "constant"
    }
  }
}
layer {
  name: "concat_3_26"
  type: "Concat"
  bottom: "Concat92"
  bottom: "Convolution190"
  top: "Concat93"
}
layer {
  name: "BatchNorm191"
  type: "BatchNorm"
  bottom: "Concat93"
  top: "BatchNorm191"
  param {
    lr_mult: 0
    decay_mult: 0
  }
  param {
    lr_mult: 0
    decay_mult: 0
  }
  param {
    lr_mult: 0
    decay_mult: 0
  }
}
layer {
  name: "Scale191"
  type: "Scale"
  bottom: "BatchNorm191"
  top: "BatchNorm191"
  scale_param {
    filler {
      value: 1
    }
    bias_term: true
    bias_filler {
      value: 0
    }
  }
}
layer {
  name: "ReLU190"
  type: "ReLU"
  bottom: "BatchNorm191"
  top: "BatchNorm191"
}
layer {
  name: "Convolution191"
  type: "Convolution"
  bottom: "BatchNorm191"
  top: "Convolution191"
  convolution_param {
    num_output: 128
    bias_term: false
    pad: 0
    kernel_size: 1
    stride: 1
    weight_filler {
      type: "xavier"
    }
    bias_filler {
      type: "constant"
    }
  }
}
layer {
  name: "BatchNorm192"
  type: "BatchNorm"
  bottom: "Convolution191"
  top: "BatchNorm192"
  param {
    lr_mult: 0
    decay_mult: 0
  }
  param {
    lr_mult: 0
    decay_mult: 0
  }
  param {
    lr_mult: 0
    decay_mult: 0
  }
}
layer {
  name: "Scale192"
  type: "Scale"
  bottom: "BatchNorm192"
  top: "BatchNorm192"
  scale_param {
    filler {
      value: 1
    }
    bias_term: true
    bias_filler {
      value: 0
    }
  }
}
layer {
  name: "ReLU191"
  type: "ReLU"
  bottom: "BatchNorm192"
  top: "BatchNorm192"
}
layer {
  name: "Convolution192"
  type: "Convolution"
  bottom: "BatchNorm192"
  top: "Convolution192"
  convolution_param {
    num_output: 32
    bias_term: false
    pad: 1
    kernel_size: 3
    stride: 1
    weight_filler {
      type: "xavier"
    }
    bias_filler {
      type: "constant"
    }
  }
}
layer {
  name: "concat_3_27"
  type: "Concat"
  bottom: "Concat93"
  bottom: "Convolution192"
  top: "Concat94"
}
layer {
  name: "BatchNorm193"
  type: "BatchNorm"
  bottom: "Concat94"
  top: "BatchNorm193"
  param {
    lr_mult: 0
    decay_mult: 0
  }
  param {
    lr_mult: 0
    decay_mult: 0
  }
  param {
    lr_mult: 0
    decay_mult: 0
  }
}
layer {
  name: "Scale193"
  type: "Scale"
  bottom: "BatchNorm193"
  top: "BatchNorm193"
  scale_param {
    filler {
      value: 1
    }
    bias_term: true
    bias_filler {
      value: 0
    }
  }
}
layer {
  name: "ReLU192"
  type: "ReLU"
  bottom: "BatchNorm193"
  top: "BatchNorm193"
}
layer {
  name: "Convolution193"
  type: "Convolution"
  bottom: "BatchNorm193"
  top: "Convolution193"
  convolution_param {
    num_output: 128
    bias_term: false
    pad: 0
    kernel_size: 1
    stride: 1
    weight_filler {
      type: "xavier"
    }
    bias_filler {
      type: "constant"
    }
  }
}
layer {
  name: "BatchNorm194"
  type: "BatchNorm"
  bottom: "Convolution193"
  top: "BatchNorm194"
  param {
    lr_mult: 0
    decay_mult: 0
  }
  param {
    lr_mult: 0
    decay_mult: 0
  }
  param {
    lr_mult: 0
    decay_mult: 0
  }
}
layer {
  name: "Scale194"
  type: "Scale"
  bottom: "BatchNorm194"
  top: "BatchNorm194"
  scale_param {
    filler {
      value: 1
    }
    bias_term: true
    bias_filler {
      value: 0
    }
  }
}
layer {
  name: "ReLU193"
  type: "ReLU"
  bottom: "BatchNorm194"
  top: "BatchNorm194"
}
layer {
  name: "Convolution194"
  type: "Convolution"
  bottom: "BatchNorm194"
  top: "Convolution194"
  convolution_param {
    num_output: 32
    bias_term: false
    pad: 1
    kernel_size: 3
    stride: 1
    weight_filler {
      type: "xavier"
    }
    bias_filler {
      type: "constant"
    }
  }
}
layer {
  name: "concat_3_28"
  type: "Concat"
  bottom: "Concat94"
  bottom: "Convolution194"
  top: "Concat95"
}
layer {
  name: "BatchNorm195"
  type: "BatchNorm"
  bottom: "Concat95"
  top: "BatchNorm195"
  param {
    lr_mult: 0
    decay_mult: 0
  }
  param {
    lr_mult: 0
    decay_mult: 0
  }
  param {
    lr_mult: 0
    decay_mult: 0
  }
}
layer {
  name: "Scale195"
  type: "Scale"
  bottom: "BatchNorm195"
  top: "BatchNorm195"
  scale_param {
    filler {
      value: 1
    }
    bias_term: true
    bias_filler {
      value: 0
    }
  }
}
layer {
  name: "ReLU194"
  type: "ReLU"
  bottom: "BatchNorm195"
  top: "BatchNorm195"
}
layer {
  name: "Convolution195"
  type: "Convolution"
  bottom: "BatchNorm195"
  top: "Convolution195"
  convolution_param {
    num_output: 128
    bias_term: false
    pad: 0
    kernel_size: 1
    stride: 1
    weight_filler {
      type: "xavier"
    }
    bias_filler {
      type: "constant"
    }
  }
}
layer {
  name: "BatchNorm196"
  type: "BatchNorm"
  bottom: "Convolution195"
  top: "BatchNorm196"
  param {
    lr_mult: 0
    decay_mult: 0
  }
  param {
    lr_mult: 0
    decay_mult: 0
  }
  param {
    lr_mult: 0
    decay_mult: 0
  }
}
layer {
  name: "Scale196"
  type: "Scale"
  bottom: "BatchNorm196"
  top: "BatchNorm196"
  scale_param {
    filler {
      value: 1
    }
    bias_term: true
    bias_filler {
      value: 0
    }
  }
}
layer {
  name: "ReLU195"
  type: "ReLU"
  bottom: "BatchNorm196"
  top: "BatchNorm196"
}
layer {
  name: "Convolution196"
  type: "Convolution"
  bottom: "BatchNorm196"
  top: "Convolution196"
  convolution_param {
    num_output: 32
    bias_term: false
    pad: 1
    kernel_size: 3
    stride: 1
    weight_filler {
      type: "xavier"
    }
    bias_filler {
      type: "constant"
    }
  }
}
layer {
  name: "concat_3_29"
  type: "Concat"
  bottom: "Concat95"
  bottom: "Convolution196"
  top: "Concat96"
}
layer {
  name: "BatchNorm197"
  type: "BatchNorm"
  bottom: "Concat96"
  top: "BatchNorm197"
  param {
    lr_mult: 0
    decay_mult: 0
  }
  param {
    lr_mult: 0
    decay_mult: 0
  }
  param {
    lr_mult: 0
    decay_mult: 0
  }
}
layer {
  name: "Scale197"
  type: "Scale"
  bottom: "BatchNorm197"
  top: "BatchNorm197"
  scale_param {
    filler {
      value: 1
    }
    bias_term: true
    bias_filler {
      value: 0
    }
  }
}
layer {
  name: "ReLU196"
  type: "ReLU"
  bottom: "BatchNorm197"
  top: "BatchNorm197"
}
layer {
  name: "Convolution197"
  type: "Convolution"
  bottom: "BatchNorm197"
  top: "Convolution197"
  convolution_param {
    num_output: 128
    bias_term: false
    pad: 0
    kernel_size: 1
    stride: 1
    weight_filler {
      type: "xavier"
    }
    bias_filler {
      type: "constant"
    }
  }
}
layer {
  name: "BatchNorm198"
  type: "BatchNorm"
  bottom: "Convolution197"
  top: "BatchNorm198"
  param {
    lr_mult: 0
    decay_mult: 0
  }
  param {
    lr_mult: 0
    decay_mult: 0
  }
  param {
    lr_mult: 0
    decay_mult: 0
  }
}
layer {
  name: "Scale198"
  type: "Scale"
  bottom: "BatchNorm198"
  top: "BatchNorm198"
  scale_param {
    filler {
      value: 1
    }
    bias_term: true
    bias_filler {
      value: 0
    }
  }
}
layer {
  name: "ReLU197"
  type: "ReLU"
  bottom: "BatchNorm198"
  top: "BatchNorm198"
}
layer {
  name: "Convolution198"
  type: "Convolution"
  bottom: "BatchNorm198"
  top: "Convolution198"
  convolution_param {
    num_output: 32
    bias_term: false
    pad: 1
    kernel_size: 3
    stride: 1
    weight_filler {
      type: "xavier"
    }
    bias_filler {
      type: "constant"
    }
  }
}
layer {
  name: "concat_3_30"
  type: "Concat"
  bottom: "Concat96"
  bottom: "Convolution198"
  top: "Concat97"
}
layer {
  name: "BatchNorm199"
  type: "BatchNorm"
  bottom: "Concat97"
  top: "BatchNorm199"
  param {
    lr_mult: 0
    decay_mult: 0
  }
  param {
    lr_mult: 0
    decay_mult: 0
  }
  param {
    lr_mult: 0
    decay_mult: 0
  }
}
layer {
  name: "Scale199"
  type: "Scale"
  bottom: "BatchNorm199"
  top: "BatchNorm199"
  scale_param {
    filler {
      value: 1
    }
    bias_term: true
    bias_filler {
      value: 0
    }
  }
}
layer {
  name: "ReLU198"
  type: "ReLU"
  bottom: "BatchNorm199"
  top: "BatchNorm199"
}
layer {
  name: "Convolution199"
  type: "Convolution"
  bottom: "BatchNorm199"
  top: "Convolution199"
  convolution_param {
    num_output: 128
    bias_term: false
    pad: 0
    kernel_size: 1
    stride: 1
    weight_filler {
      type: "xavier"
    }
    bias_filler {
      type: "constant"
    }
  }
}
layer {
  name: "BatchNorm200"
  type: "BatchNorm"
  bottom: "Convolution199"
  top: "BatchNorm200"
  param {
    lr_mult: 0
    decay_mult: 0
  }
  param {
    lr_mult: 0
    decay_mult: 0
  }
  param {
    lr_mult: 0
    decay_mult: 0
  }
}
layer {
  name: "Scale200"
  type: "Scale"
  bottom: "BatchNorm200"
  top: "BatchNorm200"
  scale_param {
    filler {
      value: 1
    }
    bias_term: true
    bias_filler {
      value: 0
    }
  }
}
layer {
  name: "ReLU199"
  type: "ReLU"
  bottom: "BatchNorm200"
  top: "BatchNorm200"
}
layer {
  name: "Convolution200"
  type: "Convolution"
  bottom: "BatchNorm200"
  top: "Convolution200"
  convolution_param {
    num_output: 32
    bias_term: false
    pad: 1
    kernel_size: 3
    stride: 1
    weight_filler {
      type: "xavier"
    }
    bias_filler {
      type: "constant"
    }
  }
}
layer {
  name: "concat_3_31"
  type: "Concat"
  bottom: "Concat97"
  bottom: "Convolution200"
  top: "Concat98"
}
layer {
  name: "Pooling4"
  type: "Pooling"
  bottom: "Concat98"
  top: "Pooling4"
  pooling_param {
    pool: AVE
    global_pooling: true
  }
}
layer {
  name: "fc"
  type: "InnerProduct"
  bottom: "Pooling4"
  top: "fc"
  inner_product_param {
    num_output: 1000
    bias_term: false
    weight_filler {
      type: "xavier"
    }
    bias_filler {
      type: "constant"
    }
  }
}
layer {
  name: "prob"
  type: "Softmax"
  bottom: "fc"
  top: "prob"
}

