name:"densenet56"
layer {
  name: "data"
  type: "Data"
  top: "Data1"
  top: "Data2"
  transform_param {
    scale: 1
    mirror: true
    crop_size: 32
    mean_value: 0
    mean_value: 0
    mean_value: 0
  }
  data_param {
    source: "/data/lixinpeng/Public/cifar100_self-preprocess_test_lmdb"
    batch_size: 100
    backend: LMDB
  }
}
layer {
  name: "Convolution1"
  type: "Convolution"
  bottom: "Data1"
  top: "Convolution1"
  convolution_param {
    num_output: 24
    bias_term: false
    pad: 1
    kernel_size: 3
    stride: 1
    weight_filler {
      type: "msra"
    }
    bias_filler {
      type: "constant"
    }
  }
}
layer {
  name: "BatchNorm1"
  type: "BatchNorm"
  bottom: "Convolution1"
  top: "BatchNorm1"
  param {
    lr_mult: 0
    decay_mult: 0
  }
  param {
    lr_mult: 0
    decay_mult: 0
  }
  param {
    lr_mult: 0
    decay_mult: 0
  }
}
layer {
  name: "Scale1"
  type: "Scale"
  bottom: "BatchNorm1"
  top: "BatchNorm1"
  scale_param {
    filler {
      value: 1
    }
    bias_term: true
    bias_filler {
      value: 0
    }
  }
}
layer {
  name: "ReLU1"
  type: "ReLU"
  bottom: "BatchNorm1"
  top: "BatchNorm1"
}
layer {
  name: "BatchNorm2"
  type: "BatchNorm"
  bottom: "BatchNorm1"
  top: "BatchNorm2"
  param {
    lr_mult: 0
    decay_mult: 0
  }
  param {
    lr_mult: 0
    decay_mult: 0
  }
  param {
    lr_mult: 0
    decay_mult: 0
  }
}
layer {
  name: "Scale2"
  type: "Scale"
  bottom: "BatchNorm2"
  top: "BatchNorm2"
  scale_param {
    filler {
      value: 1
    }
    bias_term: true
    bias_filler {
      value: 0
    }
  }
}
layer {
  name: "ReLU2"
  type: "ReLU"
  bottom: "BatchNorm2"
  top: "BatchNorm2"
}
layer {
  name: "Convolution2"
  type: "Convolution"
  bottom: "BatchNorm2"
  top: "Convolution2"
  convolution_param {
    num_output: 96
    bias_term: false
    pad: 0
    kernel_size: 1
    stride: 1
    weight_filler {
      type: "msra"
    }
    bias_filler {
      type: "constant"
    }
  }
}
layer {
  name: "BatchNorm3"
  type: "BatchNorm"
  bottom: "Convolution2"
  top: "BatchNorm3"
  param {
    lr_mult: 0
    decay_mult: 0
  }
  param {
    lr_mult: 0
    decay_mult: 0
  }
  param {
    lr_mult: 0
    decay_mult: 0
  }
}
layer {
  name: "Scale3"
  type: "Scale"
  bottom: "BatchNorm3"
  top: "BatchNorm3"
  scale_param {
    filler {
      value: 1
    }
    bias_term: true
    bias_filler {
      value: 0
    }
  }
}
layer {
  name: "ReLU3"
  type: "ReLU"
  bottom: "BatchNorm3"
  top: "BatchNorm3"
}
layer {
  name: "Convolution3"
  type: "Convolution"
  bottom: "BatchNorm3"
  top: "Convolution3"
  convolution_param {
    num_output: 24
    bias_term: false
    pad: 1
    kernel_size: 3
    stride: 1
    weight_filler {
      type: "msra"
    }
    bias_filler {
      type: "constant"
    }
  }
}
layer {
  name: "Dropout1"
  type: "Dropout"
  bottom: "Convolution3"
  top: "Dropout1"
  dropout_param {
    dropout_ratio: 0.2
  }
}
layer {
  name: "concat_0_0"
  type: "Concat"
  bottom: "BatchNorm1"
  bottom: "Dropout1"
  top: "Concat1"
  concat_param {
    axis: 1
  }
}
layer {
  name: "BatchNorm4"
  type: "BatchNorm"
  bottom: "Concat1"
  top: "BatchNorm4"
  param {
    lr_mult: 0
    decay_mult: 0
  }
  param {
    lr_mult: 0
    decay_mult: 0
  }
  param {
    lr_mult: 0
    decay_mult: 0
  }
}
layer {
  name: "Scale4"
  type: "Scale"
  bottom: "BatchNorm4"
  top: "BatchNorm4"
  scale_param {
    filler {
      value: 1
    }
    bias_term: true
    bias_filler {
      value: 0
    }
  }
}
layer {
  name: "ReLU4"
  type: "ReLU"
  bottom: "BatchNorm4"
  top: "BatchNorm4"
}
layer {
  name: "Convolution4"
  type: "Convolution"
  bottom: "BatchNorm4"
  top: "Convolution4"
  convolution_param {
    num_output: 96
    bias_term: false
    pad: 0
    kernel_size: 1
    stride: 1
    weight_filler {
      type: "msra"
    }
    bias_filler {
      type: "constant"
    }
  }
}
layer {
  name: "BatchNorm5"
  type: "BatchNorm"
  bottom: "Convolution4"
  top: "BatchNorm5"
  param {
    lr_mult: 0
    decay_mult: 0
  }
  param {
    lr_mult: 0
    decay_mult: 0
  }
  param {
    lr_mult: 0
    decay_mult: 0
  }
}
layer {
  name: "Scale5"
  type: "Scale"
  bottom: "BatchNorm5"
  top: "BatchNorm5"
  scale_param {
    filler {
      value: 1
    }
    bias_term: true
    bias_filler {
      value: 0
    }
  }
}
layer {
  name: "ReLU5"
  type: "ReLU"
  bottom: "BatchNorm5"
  top: "BatchNorm5"
}
layer {
  name: "Convolution5"
  type: "Convolution"
  bottom: "BatchNorm5"
  top: "Convolution5"
  convolution_param {
    num_output: 24
    bias_term: false
    pad: 1
    kernel_size: 3
    stride: 1
    weight_filler {
      type: "msra"
    }
    bias_filler {
      type: "constant"
    }
  }
}
layer {
  name: "Dropout2"
  type: "Dropout"
  bottom: "Convolution5"
  top: "Dropout2"
  dropout_param {
    dropout_ratio: 0.2
  }
}
layer {
  name: "concat_0_1"
  type: "Concat"
  bottom: "Concat1"
  bottom: "Dropout2"
  top: "Concat2"
  concat_param {
    axis: 1
  }
}
layer {
  name: "BatchNorm6"
  type: "BatchNorm"
  bottom: "Concat2"
  top: "BatchNorm6"
  param {
    lr_mult: 0
    decay_mult: 0
  }
  param {
    lr_mult: 0
    decay_mult: 0
  }
  param {
    lr_mult: 0
    decay_mult: 0
  }
}
layer {
  name: "Scale6"
  type: "Scale"
  bottom: "BatchNorm6"
  top: "BatchNorm6"
  scale_param {
    filler {
      value: 1
    }
    bias_term: true
    bias_filler {
      value: 0
    }
  }
}
layer {
  name: "ReLU6"
  type: "ReLU"
  bottom: "BatchNorm6"
  top: "BatchNorm6"
}
layer {
  name: "Convolution6"
  type: "Convolution"
  bottom: "BatchNorm6"
  top: "Convolution6"
  convolution_param {
    num_output: 96
    bias_term: false
    pad: 0
    kernel_size: 1
    stride: 1
    weight_filler {
      type: "msra"
    }
    bias_filler {
      type: "constant"
    }
  }
}
layer {
  name: "BatchNorm7"
  type: "BatchNorm"
  bottom: "Convolution6"
  top: "BatchNorm7"
  param {
    lr_mult: 0
    decay_mult: 0
  }
  param {
    lr_mult: 0
    decay_mult: 0
  }
  param {
    lr_mult: 0
    decay_mult: 0
  }
}
layer {
  name: "Scale7"
  type: "Scale"
  bottom: "BatchNorm7"
  top: "BatchNorm7"
  scale_param {
    filler {
      value: 1
    }
    bias_term: true
    bias_filler {
      value: 0
    }
  }
}
layer {
  name: "ReLU7"
  type: "ReLU"
  bottom: "BatchNorm7"
  top: "BatchNorm7"
}
layer {
  name: "Convolution7"
  type: "Convolution"
  bottom: "BatchNorm7"
  top: "Convolution7"
  convolution_param {
    num_output: 24
    bias_term: false
    pad: 1
    kernel_size: 3
    stride: 1
    weight_filler {
      type: "msra"
    }
    bias_filler {
      type: "constant"
    }
  }
}
layer {
  name: "Dropout3"
  type: "Dropout"
  bottom: "Convolution7"
  top: "Dropout3"
  dropout_param {
    dropout_ratio: 0.2
  }
}
layer {
  name: "concat_0_2"
  type: "Concat"
  bottom: "Concat2"
  bottom: "Dropout3"
  top: "Concat3"
  concat_param {
    axis: 1
  }
}
layer {
  name: "BatchNorm8"
  type: "BatchNorm"
  bottom: "Concat3"
  top: "BatchNorm8"
  param {
    lr_mult: 0
    decay_mult: 0
  }
  param {
    lr_mult: 0
    decay_mult: 0
  }
  param {
    lr_mult: 0
    decay_mult: 0
  }
}
layer {
  name: "Scale8"
  type: "Scale"
  bottom: "BatchNorm8"
  top: "BatchNorm8"
  scale_param {
    filler {
      value: 1
    }
    bias_term: true
    bias_filler {
      value: 0
    }
  }
}
layer {
  name: "ReLU8"
  type: "ReLU"
  bottom: "BatchNorm8"
  top: "BatchNorm8"
}
layer {
  name: "Convolution8"
  type: "Convolution"
  bottom: "BatchNorm8"
  top: "Convolution8"
  convolution_param {
    num_output: 96
    bias_term: false
    pad: 0
    kernel_size: 1
    stride: 1
    weight_filler {
      type: "msra"
    }
    bias_filler {
      type: "constant"
    }
  }
}
layer {
  name: "BatchNorm9"
  type: "BatchNorm"
  bottom: "Convolution8"
  top: "BatchNorm9"
  param {
    lr_mult: 0
    decay_mult: 0
  }
  param {
    lr_mult: 0
    decay_mult: 0
  }
  param {
    lr_mult: 0
    decay_mult: 0
  }
}
layer {
  name: "Scale9"
  type: "Scale"
  bottom: "BatchNorm9"
  top: "BatchNorm9"
  scale_param {
    filler {
      value: 1
    }
    bias_term: true
    bias_filler {
      value: 0
    }
  }
}
layer {
  name: "ReLU9"
  type: "ReLU"
  bottom: "BatchNorm9"
  top: "BatchNorm9"
}
layer {
  name: "Convolution9"
  type: "Convolution"
  bottom: "BatchNorm9"
  top: "Convolution9"
  convolution_param {
    num_output: 24
    bias_term: false
    pad: 1
    kernel_size: 3
    stride: 1
    weight_filler {
      type: "msra"
    }
    bias_filler {
      type: "constant"
    }
  }
}
layer {
  name: "Dropout4"
  type: "Dropout"
  bottom: "Convolution9"
  top: "Dropout4"
  dropout_param {
    dropout_ratio: 0.2
  }
}
layer {
  name: "concat_0_3"
  type: "Concat"
  bottom: "Concat3"
  bottom: "Dropout4"
  top: "Concat4"
  concat_param {
    axis: 1
  }
}
layer {
  name: "BatchNorm10"
  type: "BatchNorm"
  bottom: "Concat4"
  top: "BatchNorm10"
  param {
    lr_mult: 0
    decay_mult: 0
  }
  param {
    lr_mult: 0
    decay_mult: 0
  }
  param {
    lr_mult: 0
    decay_mult: 0
  }
}
layer {
  name: "Scale10"
  type: "Scale"
  bottom: "BatchNorm10"
  top: "BatchNorm10"
  scale_param {
    filler {
      value: 1
    }
    bias_term: true
    bias_filler {
      value: 0
    }
  }
}
layer {
  name: "ReLU10"
  type: "ReLU"
  bottom: "BatchNorm10"
  top: "BatchNorm10"
}
layer {
  name: "Convolution10"
  type: "Convolution"
  bottom: "BatchNorm10"
  top: "Convolution10"
  convolution_param {
    num_output: 60
    bias_term: false
    pad: 0
    kernel_size: 1
    stride: 1
    weight_filler {
      type: "msra"
    }
    bias_filler {
      type: "constant"
    }
  }
}
layer {
  name: "Pooling1"
  type: "Pooling"
  bottom: "Convolution10"
  top: "Pooling1"
  pooling_param {
    pool: AVE
    kernel_size: 2
    stride: 2
  }
}
layer {
  name: "BatchNorm11"
  type: "BatchNorm"
  bottom: "Pooling1"
  top: "BatchNorm11"
  param {
    lr_mult: 0
    decay_mult: 0
  }
  param {
    lr_mult: 0
    decay_mult: 0
  }
  param {
    lr_mult: 0
    decay_mult: 0
  }
}
layer {
  name: "Scale11"
  type: "Scale"
  bottom: "BatchNorm11"
  top: "BatchNorm11"
  scale_param {
    filler {
      value: 1
    }
    bias_term: true
    bias_filler {
      value: 0
    }
  }
}
layer {
  name: "ReLU11"
  type: "ReLU"
  bottom: "BatchNorm11"
  top: "BatchNorm11"
}
layer {
  name: "Convolution11"
  type: "Convolution"
  bottom: "BatchNorm11"
  top: "Convolution11"
  convolution_param {
    num_output: 96
    bias_term: false
    pad: 0
    kernel_size: 1
    stride: 1
    weight_filler {
      type: "msra"
    }
    bias_filler {
      type: "constant"
    }
  }
}
layer {
  name: "BatchNorm12"
  type: "BatchNorm"
  bottom: "Convolution11"
  top: "BatchNorm12"
  param {
    lr_mult: 0
    decay_mult: 0
  }
  param {
    lr_mult: 0
    decay_mult: 0
  }
  param {
    lr_mult: 0
    decay_mult: 0
  }
}
layer {
  name: "Scale12"
  type: "Scale"
  bottom: "BatchNorm12"
  top: "BatchNorm12"
  scale_param {
    filler {
      value: 1
    }
    bias_term: true
    bias_filler {
      value: 0
    }
  }
}
layer {
  name: "ReLU12"
  type: "ReLU"
  bottom: "BatchNorm12"
  top: "BatchNorm12"
}
layer {
  name: "Convolution12"
  type: "Convolution"
  bottom: "BatchNorm12"
  top: "Convolution12"
  convolution_param {
    num_output: 24
    bias_term: false
    pad: 1
    kernel_size: 3
    stride: 1
    weight_filler {
      type: "msra"
    }
    bias_filler {
      type: "constant"
    }
  }
}
layer {
  name: "Dropout5"
  type: "Dropout"
  bottom: "Convolution12"
  top: "Dropout5"
  dropout_param {
    dropout_ratio: 0.2
  }
}
layer {
  name: "concat_1_0"
  type: "Concat"
  bottom: "Pooling1"
  bottom: "Dropout5"
  top: "Concat5"
  concat_param {
    axis: 1
  }
}
layer {
  name: "BatchNorm13"
  type: "BatchNorm"
  bottom: "Concat5"
  top: "BatchNorm13"
  param {
    lr_mult: 0
    decay_mult: 0
  }
  param {
    lr_mult: 0
    decay_mult: 0
  }
  param {
    lr_mult: 0
    decay_mult: 0
  }
}
layer {
  name: "Scale13"
  type: "Scale"
  bottom: "BatchNorm13"
  top: "BatchNorm13"
  scale_param {
    filler {
      value: 1
    }
    bias_term: true
    bias_filler {
      value: 0
    }
  }
}
layer {
  name: "ReLU13"
  type: "ReLU"
  bottom: "BatchNorm13"
  top: "BatchNorm13"
}
layer {
  name: "Convolution13"
  type: "Convolution"
  bottom: "BatchNorm13"
  top: "Convolution13"
  convolution_param {
    num_output: 96
    bias_term: false
    pad: 0
    kernel_size: 1
    stride: 1
    weight_filler {
      type: "msra"
    }
    bias_filler {
      type: "constant"
    }
  }
}
layer {
  name: "BatchNorm14"
  type: "BatchNorm"
  bottom: "Convolution13"
  top: "BatchNorm14"
  param {
    lr_mult: 0
    decay_mult: 0
  }
  param {
    lr_mult: 0
    decay_mult: 0
  }
  param {
    lr_mult: 0
    decay_mult: 0
  }
}
layer {
  name: "Scale14"
  type: "Scale"
  bottom: "BatchNorm14"
  top: "BatchNorm14"
  scale_param {
    filler {
      value: 1
    }
    bias_term: true
    bias_filler {
      value: 0
    }
  }
}
layer {
  name: "ReLU14"
  type: "ReLU"
  bottom: "BatchNorm14"
  top: "BatchNorm14"
}
layer {
  name: "Convolution14"
  type: "Convolution"
  bottom: "BatchNorm14"
  top: "Convolution14"
  convolution_param {
    num_output: 24
    bias_term: false
    pad: 1
    kernel_size: 3
    stride: 1
    weight_filler {
      type: "msra"
    }
    bias_filler {
      type: "constant"
    }
  }
}
layer {
  name: "Dropout6"
  type: "Dropout"
  bottom: "Convolution14"
  top: "Dropout6"
  dropout_param {
    dropout_ratio: 0.2
  }
}
layer {
  name: "concat_1_1"
  type: "Concat"
  bottom: "Concat5"
  bottom: "Dropout6"
  top: "Concat6"
  concat_param {
    axis: 1
  }
}
layer {
  name: "BatchNorm15"
  type: "BatchNorm"
  bottom: "Concat6"
  top: "BatchNorm15"
  param {
    lr_mult: 0
    decay_mult: 0
  }
  param {
    lr_mult: 0
    decay_mult: 0
  }
  param {
    lr_mult: 0
    decay_mult: 0
  }
}
layer {
  name: "Scale15"
  type: "Scale"
  bottom: "BatchNorm15"
  top: "BatchNorm15"
  scale_param {
    filler {
      value: 1
    }
    bias_term: true
    bias_filler {
      value: 0
    }
  }
}
layer {
  name: "ReLU15"
  type: "ReLU"
  bottom: "BatchNorm15"
  top: "BatchNorm15"
}
layer {
  name: "Convolution15"
  type: "Convolution"
  bottom: "BatchNorm15"
  top: "Convolution15"
  convolution_param {
    num_output: 96
    bias_term: false
    pad: 0
    kernel_size: 1
    stride: 1
    weight_filler {
      type: "msra"
    }
    bias_filler {
      type: "constant"
    }
  }
}
layer {
  name: "BatchNorm16"
  type: "BatchNorm"
  bottom: "Convolution15"
  top: "BatchNorm16"
  param {
    lr_mult: 0
    decay_mult: 0
  }
  param {
    lr_mult: 0
    decay_mult: 0
  }
  param {
    lr_mult: 0
    decay_mult: 0
  }
}
layer {
  name: "Scale16"
  type: "Scale"
  bottom: "BatchNorm16"
  top: "BatchNorm16"
  scale_param {
    filler {
      value: 1
    }
    bias_term: true
    bias_filler {
      value: 0
    }
  }
}
layer {
  name: "ReLU16"
  type: "ReLU"
  bottom: "BatchNorm16"
  top: "BatchNorm16"
}
layer {
  name: "Convolution16"
  type: "Convolution"
  bottom: "BatchNorm16"
  top: "Convolution16"
  convolution_param {
    num_output: 24
    bias_term: false
    pad: 1
    kernel_size: 3
    stride: 1
    weight_filler {
      type: "msra"
    }
    bias_filler {
      type: "constant"
    }
  }
}
layer {
  name: "Dropout7"
  type: "Dropout"
  bottom: "Convolution16"
  top: "Dropout7"
  dropout_param {
    dropout_ratio: 0.2
  }
}
layer {
  name: "concat_1_2"
  type: "Concat"
  bottom: "Concat6"
  bottom: "Dropout7"
  top: "Concat7"
  concat_param {
    axis: 1
  }
}
layer {
  name: "BatchNorm17"
  type: "BatchNorm"
  bottom: "Concat7"
  top: "BatchNorm17"
  param {
    lr_mult: 0
    decay_mult: 0
  }
  param {
    lr_mult: 0
    decay_mult: 0
  }
  param {
    lr_mult: 0
    decay_mult: 0
  }
}
layer {
  name: "Scale17"
  type: "Scale"
  bottom: "BatchNorm17"
  top: "BatchNorm17"
  scale_param {
    filler {
      value: 1
    }
    bias_term: true
    bias_filler {
      value: 0
    }
  }
}
layer {
  name: "ReLU17"
  type: "ReLU"
  bottom: "BatchNorm17"
  top: "BatchNorm17"
}
layer {
  name: "Convolution17"
  type: "Convolution"
  bottom: "BatchNorm17"
  top: "Convolution17"
  convolution_param {
    num_output: 96
    bias_term: false
    pad: 0
    kernel_size: 1
    stride: 1
    weight_filler {
      type: "msra"
    }
    bias_filler {
      type: "constant"
    }
  }
}
layer {
  name: "BatchNorm18"
  type: "BatchNorm"
  bottom: "Convolution17"
  top: "BatchNorm18"
  param {
    lr_mult: 0
    decay_mult: 0
  }
  param {
    lr_mult: 0
    decay_mult: 0
  }
  param {
    lr_mult: 0
    decay_mult: 0
  }
}
layer {
  name: "Scale18"
  type: "Scale"
  bottom: "BatchNorm18"
  top: "BatchNorm18"
  scale_param {
    filler {
      value: 1
    }
    bias_term: true
    bias_filler {
      value: 0
    }
  }
}
layer {
  name: "ReLU18"
  type: "ReLU"
  bottom: "BatchNorm18"
  top: "BatchNorm18"
}
layer {
  name: "Convolution18"
  type: "Convolution"
  bottom: "BatchNorm18"
  top: "Convolution18"
  convolution_param {
    num_output: 24
    bias_term: false
    pad: 1
    kernel_size: 3
    stride: 1
    weight_filler {
      type: "msra"
    }
    bias_filler {
      type: "constant"
    }
  }
}
layer {
  name: "Dropout8"
  type: "Dropout"
  bottom: "Convolution18"
  top: "Dropout8"
  dropout_param {
    dropout_ratio: 0.2
  }
}
layer {
  name: "concat_1_3"
  type: "Concat"
  bottom: "Concat7"
  bottom: "Dropout8"
  top: "Concat8"
  concat_param {
    axis: 1
  }
}
layer {
  name: "BatchNorm19"
  type: "BatchNorm"
  bottom: "Concat8"
  top: "BatchNorm19"
  param {
    lr_mult: 0
    decay_mult: 0
  }
  param {
    lr_mult: 0
    decay_mult: 0
  }
  param {
    lr_mult: 0
    decay_mult: 0
  }
}
layer {
  name: "Scale19"
  type: "Scale"
  bottom: "BatchNorm19"
  top: "BatchNorm19"
  scale_param {
    filler {
      value: 1
    }
    bias_term: true
    bias_filler {
      value: 0
    }
  }
}
layer {
  name: "ReLU19"
  type: "ReLU"
  bottom: "BatchNorm19"
  top: "BatchNorm19"
}
layer {
  name: "Convolution19"
  type: "Convolution"
  bottom: "BatchNorm19"
  top: "Convolution19"
  convolution_param {
    num_output: 96
    bias_term: false
    pad: 0
    kernel_size: 1
    stride: 1
    weight_filler {
      type: "msra"
    }
    bias_filler {
      type: "constant"
    }
  }
}
layer {
  name: "BatchNorm20"
  type: "BatchNorm"
  bottom: "Convolution19"
  top: "BatchNorm20"
  param {
    lr_mult: 0
    decay_mult: 0
  }
  param {
    lr_mult: 0
    decay_mult: 0
  }
  param {
    lr_mult: 0
    decay_mult: 0
  }
}
layer {
  name: "Scale20"
  type: "Scale"
  bottom: "BatchNorm20"
  top: "BatchNorm20"
  scale_param {
    filler {
      value: 1
    }
    bias_term: true
    bias_filler {
      value: 0
    }
  }
}
layer {
  name: "ReLU20"
  type: "ReLU"
  bottom: "BatchNorm20"
  top: "BatchNorm20"
}
layer {
  name: "Convolution20"
  type: "Convolution"
  bottom: "BatchNorm20"
  top: "Convolution20"
  convolution_param {
    num_output: 24
    bias_term: false
    pad: 1
    kernel_size: 3
    stride: 1
    weight_filler {
      type: "msra"
    }
    bias_filler {
      type: "constant"
    }
  }
}
layer {
  name: "Dropout9"
  type: "Dropout"
  bottom: "Convolution20"
  top: "Dropout9"
  dropout_param {
    dropout_ratio: 0.2
  }
}
layer {
  name: "concat_1_4"
  type: "Concat"
  bottom: "Concat8"
  bottom: "Dropout9"
  top: "Concat9"
  concat_param {
    axis: 1
  }
}
layer {
  name: "BatchNorm21"
  type: "BatchNorm"
  bottom: "Concat9"
  top: "BatchNorm21"
  param {
    lr_mult: 0
    decay_mult: 0
  }
  param {
    lr_mult: 0
    decay_mult: 0
  }
  param {
    lr_mult: 0
    decay_mult: 0
  }
}
layer {
  name: "Scale21"
  type: "Scale"
  bottom: "BatchNorm21"
  top: "BatchNorm21"
  scale_param {
    filler {
      value: 1
    }
    bias_term: true
    bias_filler {
      value: 0
    }
  }
}
layer {
  name: "ReLU21"
  type: "ReLU"
  bottom: "BatchNorm21"
  top: "BatchNorm21"
}
layer {
  name: "Convolution21"
  type: "Convolution"
  bottom: "BatchNorm21"
  top: "Convolution21"
  convolution_param {
    num_output: 96
    bias_term: false
    pad: 0
    kernel_size: 1
    stride: 1
    weight_filler {
      type: "msra"
    }
    bias_filler {
      type: "constant"
    }
  }
}
layer {
  name: "BatchNorm22"
  type: "BatchNorm"
  bottom: "Convolution21"
  top: "BatchNorm22"
  param {
    lr_mult: 0
    decay_mult: 0
  }
  param {
    lr_mult: 0
    decay_mult: 0
  }
  param {
    lr_mult: 0
    decay_mult: 0
  }
}
layer {
  name: "Scale22"
  type: "Scale"
  bottom: "BatchNorm22"
  top: "BatchNorm22"
  scale_param {
    filler {
      value: 1
    }
    bias_term: true
    bias_filler {
      value: 0
    }
  }
}
layer {
  name: "ReLU22"
  type: "ReLU"
  bottom: "BatchNorm22"
  top: "BatchNorm22"
}
layer {
  name: "Convolution22"
  type: "Convolution"
  bottom: "BatchNorm22"
  top: "Convolution22"
  convolution_param {
    num_output: 24
    bias_term: false
    pad: 1
    kernel_size: 3
    stride: 1
    weight_filler {
      type: "msra"
    }
    bias_filler {
      type: "constant"
    }
  }
}
layer {
  name: "Dropout10"
  type: "Dropout"
  bottom: "Convolution22"
  top: "Dropout10"
  dropout_param {
    dropout_ratio: 0.2
  }
}
layer {
  name: "concat_1_5"
  type: "Concat"
  bottom: "Concat9"
  bottom: "Dropout10"
  top: "Concat10"
  concat_param {
    axis: 1
  }
}
layer {
  name: "BatchNorm23"
  type: "BatchNorm"
  bottom: "Concat10"
  top: "BatchNorm23"
  param {
    lr_mult: 0
    decay_mult: 0
  }
  param {
    lr_mult: 0
    decay_mult: 0
  }
  param {
    lr_mult: 0
    decay_mult: 0
  }
}
layer {
  name: "Scale23"
  type: "Scale"
  bottom: "BatchNorm23"
  top: "BatchNorm23"
  scale_param {
    filler {
      value: 1
    }
    bias_term: true
    bias_filler {
      value: 0
    }
  }
}
layer {
  name: "ReLU23"
  type: "ReLU"
  bottom: "BatchNorm23"
  top: "BatchNorm23"
}
layer {
  name: "Convolution23"
  type: "Convolution"
  bottom: "BatchNorm23"
  top: "Convolution23"
  convolution_param {
    num_output: 96
    bias_term: false
    pad: 0
    kernel_size: 1
    stride: 1
    weight_filler {
      type: "msra"
    }
    bias_filler {
      type: "constant"
    }
  }
}
layer {
  name: "BatchNorm24"
  type: "BatchNorm"
  bottom: "Convolution23"
  top: "BatchNorm24"
  param {
    lr_mult: 0
    decay_mult: 0
  }
  param {
    lr_mult: 0
    decay_mult: 0
  }
  param {
    lr_mult: 0
    decay_mult: 0
  }
}
layer {
  name: "Scale24"
  type: "Scale"
  bottom: "BatchNorm24"
  top: "BatchNorm24"
  scale_param {
    filler {
      value: 1
    }
    bias_term: true
    bias_filler {
      value: 0
    }
  }
}
layer {
  name: "ReLU24"
  type: "ReLU"
  bottom: "BatchNorm24"
  top: "BatchNorm24"
}
layer {
  name: "Convolution24"
  type: "Convolution"
  bottom: "BatchNorm24"
  top: "Convolution24"
  convolution_param {
    num_output: 24
    bias_term: false
    pad: 1
    kernel_size: 3
    stride: 1
    weight_filler {
      type: "msra"
    }
    bias_filler {
      type: "constant"
    }
  }
}
layer {
  name: "Dropout11"
  type: "Dropout"
  bottom: "Convolution24"
  top: "Dropout11"
  dropout_param {
    dropout_ratio: 0.2
  }
}
layer {
  name: "concat_1_6"
  type: "Concat"
  bottom: "Concat10"
  bottom: "Dropout11"
  top: "Concat11"
  concat_param {
    axis: 1
  }
}
layer {
  name: "BatchNorm25"
  type: "BatchNorm"
  bottom: "Concat11"
  top: "BatchNorm25"
  param {
    lr_mult: 0
    decay_mult: 0
  }
  param {
    lr_mult: 0
    decay_mult: 0
  }
  param {
    lr_mult: 0
    decay_mult: 0
  }
}
layer {
  name: "Scale25"
  type: "Scale"
  bottom: "BatchNorm25"
  top: "BatchNorm25"
  scale_param {
    filler {
      value: 1
    }
    bias_term: true
    bias_filler {
      value: 0
    }
  }
}
layer {
  name: "ReLU25"
  type: "ReLU"
  bottom: "BatchNorm25"
  top: "BatchNorm25"
}
layer {
  name: "Convolution25"
  type: "Convolution"
  bottom: "BatchNorm25"
  top: "Convolution25"
  convolution_param {
    num_output: 96
    bias_term: false
    pad: 0
    kernel_size: 1
    stride: 1
    weight_filler {
      type: "msra"
    }
    bias_filler {
      type: "constant"
    }
  }
}
layer {
  name: "BatchNorm26"
  type: "BatchNorm"
  bottom: "Convolution25"
  top: "BatchNorm26"
  param {
    lr_mult: 0
    decay_mult: 0
  }
  param {
    lr_mult: 0
    decay_mult: 0
  }
  param {
    lr_mult: 0
    decay_mult: 0
  }
}
layer {
  name: "Scale26"
  type: "Scale"
  bottom: "BatchNorm26"
  top: "BatchNorm26"
  scale_param {
    filler {
      value: 1
    }
    bias_term: true
    bias_filler {
      value: 0
    }
  }
}
layer {
  name: "ReLU26"
  type: "ReLU"
  bottom: "BatchNorm26"
  top: "BatchNorm26"
}
layer {
  name: "Convolution26"
  type: "Convolution"
  bottom: "BatchNorm26"
  top: "Convolution26"
  convolution_param {
    num_output: 24
    bias_term: false
    pad: 1
    kernel_size: 3
    stride: 1
    weight_filler {
      type: "msra"
    }
    bias_filler {
      type: "constant"
    }
  }
}
layer {
  name: "Dropout12"
  type: "Dropout"
  bottom: "Convolution26"
  top: "Dropout12"
  dropout_param {
    dropout_ratio: 0.2
  }
}
layer {
  name: "concat_1_7"
  type: "Concat"
  bottom: "Concat11"
  bottom: "Dropout12"
  top: "Concat12"
  concat_param {
    axis: 1
  }
}
layer {
  name: "BatchNorm27"
  type: "BatchNorm"
  bottom: "Concat12"
  top: "BatchNorm27"
  param {
    lr_mult: 0
    decay_mult: 0
  }
  param {
    lr_mult: 0
    decay_mult: 0
  }
  param {
    lr_mult: 0
    decay_mult: 0
  }
}
layer {
  name: "Scale27"
  type: "Scale"
  bottom: "BatchNorm27"
  top: "BatchNorm27"
  scale_param {
    filler {
      value: 1
    }
    bias_term: true
    bias_filler {
      value: 0
    }
  }
}
layer {
  name: "ReLU27"
  type: "ReLU"
  bottom: "BatchNorm27"
  top: "BatchNorm27"
}
layer {
  name: "Convolution27"
  type: "Convolution"
  bottom: "BatchNorm27"
  top: "Convolution27"
  convolution_param {
    num_output: 126
    bias_term: false
    pad: 0
    kernel_size: 1
    stride: 1
    weight_filler {
      type: "msra"
    }
    bias_filler {
      type: "constant"
    }
  }
}
layer {
  name: "Pooling2"
  type: "Pooling"
  bottom: "Convolution27"
  top: "Pooling2"
  pooling_param {
    pool: AVE
    kernel_size: 2
    stride: 2
  }
}
layer {
  name: "BatchNorm28"
  type: "BatchNorm"
  bottom: "Pooling2"
  top: "BatchNorm28"
  param {
    lr_mult: 0
    decay_mult: 0
  }
  param {
    lr_mult: 0
    decay_mult: 0
  }
  param {
    lr_mult: 0
    decay_mult: 0
  }
}
layer {
  name: "Scale28"
  type: "Scale"
  bottom: "BatchNorm28"
  top: "BatchNorm28"
  scale_param {
    filler {
      value: 1
    }
    bias_term: true
    bias_filler {
      value: 0
    }
  }
}
layer {
  name: "ReLU28"
  type: "ReLU"
  bottom: "BatchNorm28"
  top: "BatchNorm28"
}
layer {
  name: "Convolution28"
  type: "Convolution"
  bottom: "BatchNorm28"
  top: "Convolution28"
  convolution_param {
    num_output: 96
    bias_term: false
    pad: 0
    kernel_size: 1
    stride: 1
    weight_filler {
      type: "msra"
    }
    bias_filler {
      type: "constant"
    }
  }
}
layer {
  name: "BatchNorm29"
  type: "BatchNorm"
  bottom: "Convolution28"
  top: "BatchNorm29"
  param {
    lr_mult: 0
    decay_mult: 0
  }
  param {
    lr_mult: 0
    decay_mult: 0
  }
  param {
    lr_mult: 0
    decay_mult: 0
  }
}
layer {
  name: "Scale29"
  type: "Scale"
  bottom: "BatchNorm29"
  top: "BatchNorm29"
  scale_param {
    filler {
      value: 1
    }
    bias_term: true
    bias_filler {
      value: 0
    }
  }
}
layer {
  name: "ReLU29"
  type: "ReLU"
  bottom: "BatchNorm29"
  top: "BatchNorm29"
}
layer {
  name: "Convolution29"
  type: "Convolution"
  bottom: "BatchNorm29"
  top: "Convolution29"
  convolution_param {
    num_output: 24
    bias_term: false
    pad: 1
    kernel_size: 3
    stride: 1
    weight_filler {
      type: "msra"
    }
    bias_filler {
      type: "constant"
    }
  }
}
layer {
  name: "Dropout13"
  type: "Dropout"
  bottom: "Convolution29"
  top: "Dropout13"
  dropout_param {
    dropout_ratio: 0.2
  }
}
layer {
  name: "concat_2_0"
  type: "Concat"
  bottom: "Pooling2"
  bottom: "Dropout13"
  top: "Concat13"
  concat_param {
    axis: 1
  }
}
layer {
  name: "BatchNorm30"
  type: "BatchNorm"
  bottom: "Concat13"
  top: "BatchNorm30"
  param {
    lr_mult: 0
    decay_mult: 0
  }
  param {
    lr_mult: 0
    decay_mult: 0
  }
  param {
    lr_mult: 0
    decay_mult: 0
  }
}
layer {
  name: "Scale30"
  type: "Scale"
  bottom: "BatchNorm30"
  top: "BatchNorm30"
  scale_param {
    filler {
      value: 1
    }
    bias_term: true
    bias_filler {
      value: 0
    }
  }
}
layer {
  name: "ReLU30"
  type: "ReLU"
  bottom: "BatchNorm30"
  top: "BatchNorm30"
}
layer {
  name: "Convolution30"
  type: "Convolution"
  bottom: "BatchNorm30"
  top: "Convolution30"
  convolution_param {
    num_output: 96
    bias_term: false
    pad: 0
    kernel_size: 1
    stride: 1
    weight_filler {
      type: "msra"
    }
    bias_filler {
      type: "constant"
    }
  }
}
layer {
  name: "BatchNorm31"
  type: "BatchNorm"
  bottom: "Convolution30"
  top: "BatchNorm31"
  param {
    lr_mult: 0
    decay_mult: 0
  }
  param {
    lr_mult: 0
    decay_mult: 0
  }
  param {
    lr_mult: 0
    decay_mult: 0
  }
}
layer {
  name: "Scale31"
  type: "Scale"
  bottom: "BatchNorm31"
  top: "BatchNorm31"
  scale_param {
    filler {
      value: 1
    }
    bias_term: true
    bias_filler {
      value: 0
    }
  }
}
layer {
  name: "ReLU31"
  type: "ReLU"
  bottom: "BatchNorm31"
  top: "BatchNorm31"
}
layer {
  name: "Convolution31"
  type: "Convolution"
  bottom: "BatchNorm31"
  top: "Convolution31"
  convolution_param {
    num_output: 24
    bias_term: false
    pad: 1
    kernel_size: 3
    stride: 1
    weight_filler {
      type: "msra"
    }
    bias_filler {
      type: "constant"
    }
  }
}
layer {
  name: "Dropout14"
  type: "Dropout"
  bottom: "Convolution31"
  top: "Dropout14"
  dropout_param {
    dropout_ratio: 0.2
  }
}
layer {
  name: "concat_2_1"
  type: "Concat"
  bottom: "Concat13"
  bottom: "Dropout14"
  top: "Concat14"
  concat_param {
    axis: 1
  }
}
layer {
  name: "BatchNorm32"
  type: "BatchNorm"
  bottom: "Concat14"
  top: "BatchNorm32"
  param {
    lr_mult: 0
    decay_mult: 0
  }
  param {
    lr_mult: 0
    decay_mult: 0
  }
  param {
    lr_mult: 0
    decay_mult: 0
  }
}
layer {
  name: "Scale32"
  type: "Scale"
  bottom: "BatchNorm32"
  top: "BatchNorm32"
  scale_param {
    filler {
      value: 1
    }
    bias_term: true
    bias_filler {
      value: 0
    }
  }
}
layer {
  name: "ReLU32"
  type: "ReLU"
  bottom: "BatchNorm32"
  top: "BatchNorm32"
}
layer {
  name: "Convolution32"
  type: "Convolution"
  bottom: "BatchNorm32"
  top: "Convolution32"
  convolution_param {
    num_output: 96
    bias_term: false
    pad: 0
    kernel_size: 1
    stride: 1
    weight_filler {
      type: "msra"
    }
    bias_filler {
      type: "constant"
    }
  }
}
layer {
  name: "BatchNorm33"
  type: "BatchNorm"
  bottom: "Convolution32"
  top: "BatchNorm33"
  param {
    lr_mult: 0
    decay_mult: 0
  }
  param {
    lr_mult: 0
    decay_mult: 0
  }
  param {
    lr_mult: 0
    decay_mult: 0
  }
}
layer {
  name: "Scale33"
  type: "Scale"
  bottom: "BatchNorm33"
  top: "BatchNorm33"
  scale_param {
    filler {
      value: 1
    }
    bias_term: true
    bias_filler {
      value: 0
    }
  }
}
layer {
  name: "ReLU33"
  type: "ReLU"
  bottom: "BatchNorm33"
  top: "BatchNorm33"
}
layer {
  name: "Convolution33"
  type: "Convolution"
  bottom: "BatchNorm33"
  top: "Convolution33"
  convolution_param {
    num_output: 24
    bias_term: false
    pad: 1
    kernel_size: 3
    stride: 1
    weight_filler {
      type: "msra"
    }
    bias_filler {
      type: "constant"
    }
  }
}
layer {
  name: "Dropout15"
  type: "Dropout"
  bottom: "Convolution33"
  top: "Dropout15"
  dropout_param {
    dropout_ratio: 0.2
  }
}
layer {
  name: "concat_2_2"
  type: "Concat"
  bottom: "Concat14"
  bottom: "Dropout15"
  top: "Concat15"
  concat_param {
    axis: 1
  }
}
layer {
  name: "BatchNorm34"
  type: "BatchNorm"
  bottom: "Concat15"
  top: "BatchNorm34"
  param {
    lr_mult: 0
    decay_mult: 0
  }
  param {
    lr_mult: 0
    decay_mult: 0
  }
  param {
    lr_mult: 0
    decay_mult: 0
  }
}
layer {
  name: "Scale34"
  type: "Scale"
  bottom: "BatchNorm34"
  top: "BatchNorm34"
  scale_param {
    filler {
      value: 1
    }
    bias_term: true
    bias_filler {
      value: 0
    }
  }
}
layer {
  name: "ReLU34"
  type: "ReLU"
  bottom: "BatchNorm34"
  top: "BatchNorm34"
}
layer {
  name: "Convolution34"
  type: "Convolution"
  bottom: "BatchNorm34"
  top: "Convolution34"
  convolution_param {
    num_output: 96
    bias_term: false
    pad: 0
    kernel_size: 1
    stride: 1
    weight_filler {
      type: "msra"
    }
    bias_filler {
      type: "constant"
    }
  }
}
layer {
  name: "BatchNorm35"
  type: "BatchNorm"
  bottom: "Convolution34"
  top: "BatchNorm35"
  param {
    lr_mult: 0
    decay_mult: 0
  }
  param {
    lr_mult: 0
    decay_mult: 0
  }
  param {
    lr_mult: 0
    decay_mult: 0
  }
}
layer {
  name: "Scale35"
  type: "Scale"
  bottom: "BatchNorm35"
  top: "BatchNorm35"
  scale_param {
    filler {
      value: 1
    }
    bias_term: true
    bias_filler {
      value: 0
    }
  }
}
layer {
  name: "ReLU35"
  type: "ReLU"
  bottom: "BatchNorm35"
  top: "BatchNorm35"
}
layer {
  name: "Convolution35"
  type: "Convolution"
  bottom: "BatchNorm35"
  top: "Convolution35"
  convolution_param {
    num_output: 24
    bias_term: false
    pad: 1
    kernel_size: 3
    stride: 1
    weight_filler {
      type: "msra"
    }
    bias_filler {
      type: "constant"
    }
  }
}
layer {
  name: "Dropout16"
  type: "Dropout"
  bottom: "Convolution35"
  top: "Dropout16"
  dropout_param {
    dropout_ratio: 0.2
  }
}
layer {
  name: "concat_2_3"
  type: "Concat"
  bottom: "Concat15"
  bottom: "Dropout16"
  top: "Concat16"
  concat_param {
    axis: 1
  }
}
layer {
  name: "BatchNorm36"
  type: "BatchNorm"
  bottom: "Concat16"
  top: "BatchNorm36"
  param {
    lr_mult: 0
    decay_mult: 0
  }
  param {
    lr_mult: 0
    decay_mult: 0
  }
  param {
    lr_mult: 0
    decay_mult: 0
  }
}
layer {
  name: "Scale36"
  type: "Scale"
  bottom: "BatchNorm36"
  top: "BatchNorm36"
  scale_param {
    filler {
      value: 1
    }
    bias_term: true
    bias_filler {
      value: 0
    }
  }
}
layer {
  name: "ReLU36"
  type: "ReLU"
  bottom: "BatchNorm36"
  top: "BatchNorm36"
}
layer {
  name: "Convolution36"
  type: "Convolution"
  bottom: "BatchNorm36"
  top: "Convolution36"
  convolution_param {
    num_output: 96
    bias_term: false
    pad: 0
    kernel_size: 1
    stride: 1
    weight_filler {
      type: "msra"
    }
    bias_filler {
      type: "constant"
    }
  }
}
layer {
  name: "BatchNorm37"
  type: "BatchNorm"
  bottom: "Convolution36"
  top: "BatchNorm37"
  param {
    lr_mult: 0
    decay_mult: 0
  }
  param {
    lr_mult: 0
    decay_mult: 0
  }
  param {
    lr_mult: 0
    decay_mult: 0
  }
}
layer {
  name: "Scale37"
  type: "Scale"
  bottom: "BatchNorm37"
  top: "BatchNorm37"
  scale_param {
    filler {
      value: 1
    }
    bias_term: true
    bias_filler {
      value: 0
    }
  }
}
layer {
  name: "ReLU37"
  type: "ReLU"
  bottom: "BatchNorm37"
  top: "BatchNorm37"
}
layer {
  name: "Convolution37"
  type: "Convolution"
  bottom: "BatchNorm37"
  top: "Convolution37"
  convolution_param {
    num_output: 24
    bias_term: false
    pad: 1
    kernel_size: 3
    stride: 1
    weight_filler {
      type: "msra"
    }
    bias_filler {
      type: "constant"
    }
  }
}
layer {
  name: "Dropout17"
  type: "Dropout"
  bottom: "Convolution37"
  top: "Dropout17"
  dropout_param {
    dropout_ratio: 0.2
  }
}
layer {
  name: "concat_2_4"
  type: "Concat"
  bottom: "Concat16"
  bottom: "Dropout17"
  top: "Concat17"
  concat_param {
    axis: 1
  }
}
layer {
  name: "BatchNorm38"
  type: "BatchNorm"
  bottom: "Concat17"
  top: "BatchNorm38"
  param {
    lr_mult: 0
    decay_mult: 0
  }
  param {
    lr_mult: 0
    decay_mult: 0
  }
  param {
    lr_mult: 0
    decay_mult: 0
  }
}
layer {
  name: "Scale38"
  type: "Scale"
  bottom: "BatchNorm38"
  top: "BatchNorm38"
  scale_param {
    filler {
      value: 1
    }
    bias_term: true
    bias_filler {
      value: 0
    }
  }
}
layer {
  name: "ReLU38"
  type: "ReLU"
  bottom: "BatchNorm38"
  top: "BatchNorm38"
}
layer {
  name: "Convolution38"
  type: "Convolution"
  bottom: "BatchNorm38"
  top: "Convolution38"
  convolution_param {
    num_output: 96
    bias_term: false
    pad: 0
    kernel_size: 1
    stride: 1
    weight_filler {
      type: "msra"
    }
    bias_filler {
      type: "constant"
    }
  }
}
layer {
  name: "BatchNorm39"
  type: "BatchNorm"
  bottom: "Convolution38"
  top: "BatchNorm39"
  param {
    lr_mult: 0
    decay_mult: 0
  }
  param {
    lr_mult: 0
    decay_mult: 0
  }
  param {
    lr_mult: 0
    decay_mult: 0
  }
}
layer {
  name: "Scale39"
  type: "Scale"
  bottom: "BatchNorm39"
  top: "BatchNorm39"
  scale_param {
    filler {
      value: 1
    }
    bias_term: true
    bias_filler {
      value: 0
    }
  }
}
layer {
  name: "ReLU39"
  type: "ReLU"
  bottom: "BatchNorm39"
  top: "BatchNorm39"
}
layer {
  name: "Convolution39"
  type: "Convolution"
  bottom: "BatchNorm39"
  top: "Convolution39"
  convolution_param {
    num_output: 24
    bias_term: false
    pad: 1
    kernel_size: 3
    stride: 1
    weight_filler {
      type: "msra"
    }
    bias_filler {
      type: "constant"
    }
  }
}
layer {
  name: "Dropout18"
  type: "Dropout"
  bottom: "Convolution39"
  top: "Dropout18"
  dropout_param {
    dropout_ratio: 0.2
  }
}
layer {
  name: "concat_2_5"
  type: "Concat"
  bottom: "Concat17"
  bottom: "Dropout18"
  top: "Concat18"
  concat_param {
    axis: 1
  }
}
layer {
  name: "BatchNorm40"
  type: "BatchNorm"
  bottom: "Concat18"
  top: "BatchNorm40"
  param {
    lr_mult: 0
    decay_mult: 0
  }
  param {
    lr_mult: 0
    decay_mult: 0
  }
  param {
    lr_mult: 0
    decay_mult: 0
  }
}
layer {
  name: "Scale40"
  type: "Scale"
  bottom: "BatchNorm40"
  top: "BatchNorm40"
  scale_param {
    filler {
      value: 1
    }
    bias_term: true
    bias_filler {
      value: 0
    }
  }
}
layer {
  name: "ReLU40"
  type: "ReLU"
  bottom: "BatchNorm40"
  top: "BatchNorm40"
}
layer {
  name: "Convolution40"
  type: "Convolution"
  bottom: "BatchNorm40"
  top: "Convolution40"
  convolution_param {
    num_output: 96
    bias_term: false
    pad: 0
    kernel_size: 1
    stride: 1
    weight_filler {
      type: "msra"
    }
    bias_filler {
      type: "constant"
    }
  }
}
layer {
  name: "BatchNorm41"
  type: "BatchNorm"
  bottom: "Convolution40"
  top: "BatchNorm41"
  param {
    lr_mult: 0
    decay_mult: 0
  }
  param {
    lr_mult: 0
    decay_mult: 0
  }
  param {
    lr_mult: 0
    decay_mult: 0
  }
}
layer {
  name: "Scale41"
  type: "Scale"
  bottom: "BatchNorm41"
  top: "BatchNorm41"
  scale_param {
    filler {
      value: 1
    }
    bias_term: true
    bias_filler {
      value: 0
    }
  }
}
layer {
  name: "ReLU41"
  type: "ReLU"
  bottom: "BatchNorm41"
  top: "BatchNorm41"
}
layer {
  name: "Convolution41"
  type: "Convolution"
  bottom: "BatchNorm41"
  top: "Convolution41"
  convolution_param {
    num_output: 24
    bias_term: false
    pad: 1
    kernel_size: 3
    stride: 1
    weight_filler {
      type: "msra"
    }
    bias_filler {
      type: "constant"
    }
  }
}
layer {
  name: "Dropout19"
  type: "Dropout"
  bottom: "Convolution41"
  top: "Dropout19"
  dropout_param {
    dropout_ratio: 0.2
  }
}
layer {
  name: "concat_2_6"
  type: "Concat"
  bottom: "Concat18"
  bottom: "Dropout19"
  top: "Concat19"
  concat_param {
    axis: 1
  }
}
layer {
  name: "BatchNorm42"
  type: "BatchNorm"
  bottom: "Concat19"
  top: "BatchNorm42"
  param {
    lr_mult: 0
    decay_mult: 0
  }
  param {
    lr_mult: 0
    decay_mult: 0
  }
  param {
    lr_mult: 0
    decay_mult: 0
  }
}
layer {
  name: "Scale42"
  type: "Scale"
  bottom: "BatchNorm42"
  top: "BatchNorm42"
  scale_param {
    filler {
      value: 1
    }
    bias_term: true
    bias_filler {
      value: 0
    }
  }
}
layer {
  name: "ReLU42"
  type: "ReLU"
  bottom: "BatchNorm42"
  top: "BatchNorm42"
}
layer {
  name: "Convolution42"
  type: "Convolution"
  bottom: "BatchNorm42"
  top: "Convolution42"
  convolution_param {
    num_output: 96
    bias_term: false
    pad: 0
    kernel_size: 1
    stride: 1
    weight_filler {
      type: "msra"
    }
    bias_filler {
      type: "constant"
    }
  }
}
layer {
  name: "BatchNorm43"
  type: "BatchNorm"
  bottom: "Convolution42"
  top: "BatchNorm43"
  param {
    lr_mult: 0
    decay_mult: 0
  }
  param {
    lr_mult: 0
    decay_mult: 0
  }
  param {
    lr_mult: 0
    decay_mult: 0
  }
}
layer {
  name: "Scale43"
  type: "Scale"
  bottom: "BatchNorm43"
  top: "BatchNorm43"
  scale_param {
    filler {
      value: 1
    }
    bias_term: true
    bias_filler {
      value: 0
    }
  }
}
layer {
  name: "ReLU43"
  type: "ReLU"
  bottom: "BatchNorm43"
  top: "BatchNorm43"
}
layer {
  name: "Convolution43"
  type: "Convolution"
  bottom: "BatchNorm43"
  top: "Convolution43"
  convolution_param {
    num_output: 24
    bias_term: false
    pad: 1
    kernel_size: 3
    stride: 1
    weight_filler {
      type: "msra"
    }
    bias_filler {
      type: "constant"
    }
  }
}
layer {
  name: "Dropout20"
  type: "Dropout"
  bottom: "Convolution43"
  top: "Dropout20"
  dropout_param {
    dropout_ratio: 0.2
  }
}
layer {
  name: "concat_2_7"
  type: "Concat"
  bottom: "Concat19"
  bottom: "Dropout20"
  top: "Concat20"
  concat_param {
    axis: 1
  }
}
layer {
  name: "BatchNorm44"
  type: "BatchNorm"
  bottom: "Concat20"
  top: "BatchNorm44"
  param {
    lr_mult: 0
    decay_mult: 0
  }
  param {
    lr_mult: 0
    decay_mult: 0
  }
  param {
    lr_mult: 0
    decay_mult: 0
  }
}
layer {
  name: "Scale44"
  type: "Scale"
  bottom: "BatchNorm44"
  top: "BatchNorm44"
  scale_param {
    filler {
      value: 1
    }
    bias_term: true
    bias_filler {
      value: 0
    }
  }
}
layer {
  name: "ReLU44"
  type: "ReLU"
  bottom: "BatchNorm44"
  top: "BatchNorm44"
}
layer {
  name: "Convolution44"
  type: "Convolution"
  bottom: "BatchNorm44"
  top: "Convolution44"
  convolution_param {
    num_output: 96
    bias_term: false
    pad: 0
    kernel_size: 1
    stride: 1
    weight_filler {
      type: "msra"
    }
    bias_filler {
      type: "constant"
    }
  }
}
layer {
  name: "BatchNorm45"
  type: "BatchNorm"
  bottom: "Convolution44"
  top: "BatchNorm45"
  param {
    lr_mult: 0
    decay_mult: 0
  }
  param {
    lr_mult: 0
    decay_mult: 0
  }
  param {
    lr_mult: 0
    decay_mult: 0
  }
}
layer {
  name: "Scale45"
  type: "Scale"
  bottom: "BatchNorm45"
  top: "BatchNorm45"
  scale_param {
    filler {
      value: 1
    }
    bias_term: true
    bias_filler {
      value: 0
    }
  }
}
layer {
  name: "ReLU45"
  type: "ReLU"
  bottom: "BatchNorm45"
  top: "BatchNorm45"
}
layer {
  name: "Convolution45"
  type: "Convolution"
  bottom: "BatchNorm45"
  top: "Convolution45"
  convolution_param {
    num_output: 24
    bias_term: false
    pad: 1
    kernel_size: 3
    stride: 1
    weight_filler {
      type: "msra"
    }
    bias_filler {
      type: "constant"
    }
  }
}
layer {
  name: "Dropout21"
  type: "Dropout"
  bottom: "Convolution45"
  top: "Dropout21"
  dropout_param {
    dropout_ratio: 0.2
  }
}
layer {
  name: "concat_2_8"
  type: "Concat"
  bottom: "Concat20"
  bottom: "Dropout21"
  top: "Concat21"
  concat_param {
    axis: 1
  }
}
layer {
  name: "BatchNorm46"
  type: "BatchNorm"
  bottom: "Concat21"
  top: "BatchNorm46"
  param {
    lr_mult: 0
    decay_mult: 0
  }
  param {
    lr_mult: 0
    decay_mult: 0
  }
  param {
    lr_mult: 0
    decay_mult: 0
  }
}
layer {
  name: "Scale46"
  type: "Scale"
  bottom: "BatchNorm46"
  top: "BatchNorm46"
  scale_param {
    filler {
      value: 1
    }
    bias_term: true
    bias_filler {
      value: 0
    }
  }
}
layer {
  name: "ReLU46"
  type: "ReLU"
  bottom: "BatchNorm46"
  top: "BatchNorm46"
}
layer {
  name: "Convolution46"
  type: "Convolution"
  bottom: "BatchNorm46"
  top: "Convolution46"
  convolution_param {
    num_output: 96
    bias_term: false
    pad: 0
    kernel_size: 1
    stride: 1
    weight_filler {
      type: "msra"
    }
    bias_filler {
      type: "constant"
    }
  }
}
layer {
  name: "BatchNorm47"
  type: "BatchNorm"
  bottom: "Convolution46"
  top: "BatchNorm47"
  param {
    lr_mult: 0
    decay_mult: 0
  }
  param {
    lr_mult: 0
    decay_mult: 0
  }
  param {
    lr_mult: 0
    decay_mult: 0
  }
}
layer {
  name: "Scale47"
  type: "Scale"
  bottom: "BatchNorm47"
  top: "BatchNorm47"
  scale_param {
    filler {
      value: 1
    }
    bias_term: true
    bias_filler {
      value: 0
    }
  }
}
layer {
  name: "ReLU47"
  type: "ReLU"
  bottom: "BatchNorm47"
  top: "BatchNorm47"
}
layer {
  name: "Convolution47"
  type: "Convolution"
  bottom: "BatchNorm47"
  top: "Convolution47"
  convolution_param {
    num_output: 24
    bias_term: false
    pad: 1
    kernel_size: 3
    stride: 1
    weight_filler {
      type: "msra"
    }
    bias_filler {
      type: "constant"
    }
  }
}
layer {
  name: "Dropout22"
  type: "Dropout"
  bottom: "Convolution47"
  top: "Dropout22"
  dropout_param {
    dropout_ratio: 0.2
  }
}
layer {
  name: "concat_2_9"
  type: "Concat"
  bottom: "Concat21"
  bottom: "Dropout22"
  top: "Concat22"
  concat_param {
    axis: 1
  }
}
layer {
  name: "BatchNorm48"
  type: "BatchNorm"
  bottom: "Concat22"
  top: "BatchNorm48"
  param {
    lr_mult: 0
    decay_mult: 0
  }
  param {
    lr_mult: 0
    decay_mult: 0
  }
  param {
    lr_mult: 0
    decay_mult: 0
  }
}
layer {
  name: "Scale48"
  type: "Scale"
  bottom: "BatchNorm48"
  top: "BatchNorm48"
  scale_param {
    filler {
      value: 1
    }
    bias_term: true
    bias_filler {
      value: 0
    }
  }
}
layer {
  name: "ReLU48"
  type: "ReLU"
  bottom: "BatchNorm48"
  top: "BatchNorm48"
}
layer {
  name: "Convolution48"
  type: "Convolution"
  bottom: "BatchNorm48"
  top: "Convolution48"
  convolution_param {
    num_output: 96
    bias_term: false
    pad: 0
    kernel_size: 1
    stride: 1
    weight_filler {
      type: "msra"
    }
    bias_filler {
      type: "constant"
    }
  }
}
layer {
  name: "BatchNorm49"
  type: "BatchNorm"
  bottom: "Convolution48"
  top: "BatchNorm49"
  param {
    lr_mult: 0
    decay_mult: 0
  }
  param {
    lr_mult: 0
    decay_mult: 0
  }
  param {
    lr_mult: 0
    decay_mult: 0
  }
}
layer {
  name: "Scale49"
  type: "Scale"
  bottom: "BatchNorm49"
  top: "BatchNorm49"
  scale_param {
    filler {
      value: 1
    }
    bias_term: true
    bias_filler {
      value: 0
    }
  }
}
layer {
  name: "ReLU49"
  type: "ReLU"
  bottom: "BatchNorm49"
  top: "BatchNorm49"
}
layer {
  name: "Convolution49"
  type: "Convolution"
  bottom: "BatchNorm49"
  top: "Convolution49"
  convolution_param {
    num_output: 24
    bias_term: false
    pad: 1
    kernel_size: 3
    stride: 1
    weight_filler {
      type: "msra"
    }
    bias_filler {
      type: "constant"
    }
  }
}
layer {
  name: "Dropout23"
  type: "Dropout"
  bottom: "Convolution49"
  top: "Dropout23"
  dropout_param {
    dropout_ratio: 0.2
  }
}
layer {
  name: "concat_2_10"
  type: "Concat"
  bottom: "Concat22"
  bottom: "Dropout23"
  top: "Concat23"
  concat_param {
    axis: 1
  }
}
layer {
  name: "BatchNorm50"
  type: "BatchNorm"
  bottom: "Concat23"
  top: "BatchNorm50"
  param {
    lr_mult: 0
    decay_mult: 0
  }
  param {
    lr_mult: 0
    decay_mult: 0
  }
  param {
    lr_mult: 0
    decay_mult: 0
  }
}
layer {
  name: "Scale50"
  type: "Scale"
  bottom: "BatchNorm50"
  top: "BatchNorm50"
  scale_param {
    filler {
      value: 1
    }
    bias_term: true
    bias_filler {
      value: 0
    }
  }
}
layer {
  name: "ReLU50"
  type: "ReLU"
  bottom: "BatchNorm50"
  top: "BatchNorm50"
}
layer {
  name: "Convolution50"
  type: "Convolution"
  bottom: "BatchNorm50"
  top: "Convolution50"
  convolution_param {
    num_output: 96
    bias_term: false
    pad: 0
    kernel_size: 1
    stride: 1
    weight_filler {
      type: "msra"
    }
    bias_filler {
      type: "constant"
    }
  }
}
layer {
  name: "BatchNorm51"
  type: "BatchNorm"
  bottom: "Convolution50"
  top: "BatchNorm51"
  param {
    lr_mult: 0
    decay_mult: 0
  }
  param {
    lr_mult: 0
    decay_mult: 0
  }
  param {
    lr_mult: 0
    decay_mult: 0
  }
}
layer {
  name: "Scale51"
  type: "Scale"
  bottom: "BatchNorm51"
  top: "BatchNorm51"
  scale_param {
    filler {
      value: 1
    }
    bias_term: true
    bias_filler {
      value: 0
    }
  }
}
layer {
  name: "ReLU51"
  type: "ReLU"
  bottom: "BatchNorm51"
  top: "BatchNorm51"
}
layer {
  name: "Convolution51"
  type: "Convolution"
  bottom: "BatchNorm51"
  top: "Convolution51"
  convolution_param {
    num_output: 24
    bias_term: false
    pad: 1
    kernel_size: 3
    stride: 1
    weight_filler {
      type: "msra"
    }
    bias_filler {
      type: "constant"
    }
  }
}
layer {
  name: "Dropout24"
  type: "Dropout"
  bottom: "Convolution51"
  top: "Dropout24"
  dropout_param {
    dropout_ratio: 0.2
  }
}
layer {
  name: "concat_2_11"
  type: "Concat"
  bottom: "Concat23"
  bottom: "Dropout24"
  top: "Concat24"
  concat_param {
    axis: 1
  }
}
layer {
  name: "BatchNorm52"
  type: "BatchNorm"
  bottom: "Concat24"
  top: "BatchNorm52"
  param {
    lr_mult: 0
    decay_mult: 0
  }
  param {
    lr_mult: 0
    decay_mult: 0
  }
  param {
    lr_mult: 0
    decay_mult: 0
  }
}
layer {
  name: "Scale52"
  type: "Scale"
  bottom: "BatchNorm52"
  top: "BatchNorm52"
  scale_param {
    filler {
      value: 1
    }
    bias_term: true
    bias_filler {
      value: 0
    }
  }
}
layer {
  name: "ReLU52"
  type: "ReLU"
  bottom: "BatchNorm52"
  top: "BatchNorm52"
}
layer {
  name: "Convolution52"
  type: "Convolution"
  bottom: "BatchNorm52"
  top: "Convolution52"
  convolution_param {
    num_output: 96
    bias_term: false
    pad: 0
    kernel_size: 1
    stride: 1
    weight_filler {
      type: "msra"
    }
    bias_filler {
      type: "constant"
    }
  }
}
layer {
  name: "BatchNorm53"
  type: "BatchNorm"
  bottom: "Convolution52"
  top: "BatchNorm53"
  param {
    lr_mult: 0
    decay_mult: 0
  }
  param {
    lr_mult: 0
    decay_mult: 0
  }
  param {
    lr_mult: 0
    decay_mult: 0
  }
}
layer {
  name: "Scale53"
  type: "Scale"
  bottom: "BatchNorm53"
  top: "BatchNorm53"
  scale_param {
    filler {
      value: 1
    }
    bias_term: true
    bias_filler {
      value: 0
    }
  }
}
layer {
  name: "ReLU53"
  type: "ReLU"
  bottom: "BatchNorm53"
  top: "BatchNorm53"
}
layer {
  name: "Convolution53"
  type: "Convolution"
  bottom: "BatchNorm53"
  top: "Convolution53"
  convolution_param {
    num_output: 24
    bias_term: false
    pad: 1
    kernel_size: 3
    stride: 1
    weight_filler {
      type: "msra"
    }
    bias_filler {
      type: "constant"
    }
  }
}
layer {
  name: "Dropout25"
  type: "Dropout"
  bottom: "Convolution53"
  top: "Dropout25"
  dropout_param {
    dropout_ratio: 0.2
  }
}
layer {
  name: "concat_2_12"
  type: "Concat"
  bottom: "Concat24"
  bottom: "Dropout25"
  top: "Concat25"
  concat_param {
    axis: 1
  }
}
layer {
  name: "BatchNorm54"
  type: "BatchNorm"
  bottom: "Concat25"
  top: "BatchNorm54"
  param {
    lr_mult: 0
    decay_mult: 0
  }
  param {
    lr_mult: 0
    decay_mult: 0
  }
  param {
    lr_mult: 0
    decay_mult: 0
  }
}
layer {
  name: "Scale54"
  type: "Scale"
  bottom: "BatchNorm54"
  top: "BatchNorm54"
  scale_param {
    filler {
      value: 1
    }
    bias_term: true
    bias_filler {
      value: 0
    }
  }
}
layer {
  name: "ReLU54"
  type: "ReLU"
  bottom: "BatchNorm54"
  top: "BatchNorm54"
}
layer {
  name: "Convolution54"
  type: "Convolution"
  bottom: "BatchNorm54"
  top: "Convolution54"
  convolution_param {
    num_output: 96
    bias_term: false
    pad: 0
    kernel_size: 1
    stride: 1
    weight_filler {
      type: "msra"
    }
    bias_filler {
      type: "constant"
    }
  }
}
layer {
  name: "BatchNorm55"
  type: "BatchNorm"
  bottom: "Convolution54"
  top: "BatchNorm55"
  param {
    lr_mult: 0
    decay_mult: 0
  }
  param {
    lr_mult: 0
    decay_mult: 0
  }
  param {
    lr_mult: 0
    decay_mult: 0
  }
}
layer {
  name: "Scale55"
  type: "Scale"
  bottom: "BatchNorm55"
  top: "BatchNorm55"
  scale_param {
    filler {
      value: 1
    }
    bias_term: true
    bias_filler {
      value: 0
    }
  }
}
layer {
  name: "ReLU55"
  type: "ReLU"
  bottom: "BatchNorm55"
  top: "BatchNorm55"
}
layer {
  name: "Convolution55"
  type: "Convolution"
  bottom: "BatchNorm55"
  top: "Convolution55"
  convolution_param {
    num_output: 24
    bias_term: false
    pad: 1
    kernel_size: 3
    stride: 1
    weight_filler {
      type: "msra"
    }
    bias_filler {
      type: "constant"
    }
  }
}
layer {
  name: "Dropout26"
  type: "Dropout"
  bottom: "Convolution55"
  top: "Dropout26"
  dropout_param {
    dropout_ratio: 0.2
  }
}
layer {
  name: "concat_2_13"
  type: "Concat"
  bottom: "Concat25"
  bottom: "Dropout26"
  top: "Concat26"
  concat_param {
    axis: 1
  }
}
layer {
  name: "BatchNorm56"
  type: "BatchNorm"
  bottom: "Concat26"
  top: "BatchNorm56"
  param {
    lr_mult: 0
    decay_mult: 0
  }
  param {
    lr_mult: 0
    decay_mult: 0
  }
  param {
    lr_mult: 0
    decay_mult: 0
  }
}
layer {
  name: "Scale56"
  type: "Scale"
  bottom: "BatchNorm56"
  top: "BatchNorm56"
  scale_param {
    filler {
      value: 1
    }
    bias_term: true
    bias_filler {
      value: 0
    }
  }
}
layer {
  name: "ReLU56"
  type: "ReLU"
  bottom: "BatchNorm56"
  top: "BatchNorm56"
}
layer {
  name: "Convolution56"
  type: "Convolution"
  bottom: "BatchNorm56"
  top: "Convolution56"
  convolution_param {
    num_output: 96
    bias_term: false
    pad: 0
    kernel_size: 1
    stride: 1
    weight_filler {
      type: "msra"
    }
    bias_filler {
      type: "constant"
    }
  }
}
layer {
  name: "BatchNorm57"
  type: "BatchNorm"
  bottom: "Convolution56"
  top: "BatchNorm57"
  param {
    lr_mult: 0
    decay_mult: 0
  }
  param {
    lr_mult: 0
    decay_mult: 0
  }
  param {
    lr_mult: 0
    decay_mult: 0
  }
}
layer {
  name: "Scale57"
  type: "Scale"
  bottom: "BatchNorm57"
  top: "BatchNorm57"
  scale_param {
    filler {
      value: 1
    }
    bias_term: true
    bias_filler {
      value: 0
    }
  }
}
layer {
  name: "ReLU57"
  type: "ReLU"
  bottom: "BatchNorm57"
  top: "BatchNorm57"
}
layer {
  name: "Convolution57"
  type: "Convolution"
  bottom: "BatchNorm57"
  top: "Convolution57"
  convolution_param {
    num_output: 24
    bias_term: false
    pad: 1
    kernel_size: 3
    stride: 1
    weight_filler {
      type: "msra"
    }
    bias_filler {
      type: "constant"
    }
  }
}
layer {
  name: "Dropout27"
  type: "Dropout"
  bottom: "Convolution57"
  top: "Dropout27"
  dropout_param {
    dropout_ratio: 0.2
  }
}
layer {
  name: "concat_2_14"
  type: "Concat"
  bottom: "Concat26"
  bottom: "Dropout27"
  top: "Concat27"
  concat_param {
    axis: 1
  }
}
layer {
  name: "BatchNorm58"
  type: "BatchNorm"
  bottom: "Concat27"
  top: "BatchNorm58"
  param {
    lr_mult: 0
    decay_mult: 0
  }
  param {
    lr_mult: 0
    decay_mult: 0
  }
  param {
    lr_mult: 0
    decay_mult: 0
  }
}
layer {
  name: "Scale58"
  type: "Scale"
  bottom: "BatchNorm58"
  top: "BatchNorm58"
  scale_param {
    filler {
      value: 1
    }
    bias_term: true
    bias_filler {
      value: 0
    }
  }
}
layer {
  name: "ReLU58"
  type: "ReLU"
  bottom: "BatchNorm58"
  top: "BatchNorm58"
}
layer {
  name: "Convolution58"
  type: "Convolution"
  bottom: "BatchNorm58"
  top: "Convolution58"
  convolution_param {
    num_output: 96
    bias_term: false
    pad: 0
    kernel_size: 1
    stride: 1
    weight_filler {
      type: "msra"
    }
    bias_filler {
      type: "constant"
    }
  }
}
layer {
  name: "BatchNorm59"
  type: "BatchNorm"
  bottom: "Convolution58"
  top: "BatchNorm59"
  param {
    lr_mult: 0
    decay_mult: 0
  }
  param {
    lr_mult: 0
    decay_mult: 0
  }
  param {
    lr_mult: 0
    decay_mult: 0
  }
}
layer {
  name: "Scale59"
  type: "Scale"
  bottom: "BatchNorm59"
  top: "BatchNorm59"
  scale_param {
    filler {
      value: 1
    }
    bias_term: true
    bias_filler {
      value: 0
    }
  }
}
layer {
  name: "ReLU59"
  type: "ReLU"
  bottom: "BatchNorm59"
  top: "BatchNorm59"
}
layer {
  name: "Convolution59"
  type: "Convolution"
  bottom: "BatchNorm59"
  top: "Convolution59"
  convolution_param {
    num_output: 24
    bias_term: false
    pad: 1
    kernel_size: 3
    stride: 1
    weight_filler {
      type: "msra"
    }
    bias_filler {
      type: "constant"
    }
  }
}
layer {
  name: "Dropout28"
  type: "Dropout"
  bottom: "Convolution59"
  top: "Dropout28"
  dropout_param {
    dropout_ratio: 0.2
  }
}
layer {
  name: "concat_2_15"
  type: "Concat"
  bottom: "Concat27"
  bottom: "Dropout28"
  top: "Concat28"
  concat_param {
    axis: 1
  }
}
layer {
  name: "BatchNorm60"
  type: "BatchNorm"
  bottom: "Concat28"
  top: "BatchNorm60"
  param {
    lr_mult: 0
    decay_mult: 0
  }
  param {
    lr_mult: 0
    decay_mult: 0
  }
  param {
    lr_mult: 0
    decay_mult: 0
  }
}
layer {
  name: "Scale60"
  type: "Scale"
  bottom: "BatchNorm60"
  top: "BatchNorm60"
  scale_param {
    filler {
      value: 1
    }
    bias_term: true
    bias_filler {
      value: 0
    }
  }
}
layer {
  name: "ReLU60"
  type: "ReLU"
  bottom: "BatchNorm60"
  top: "BatchNorm60"
}
layer {
  name: "Convolution60"
  type: "Convolution"
  bottom: "BatchNorm60"
  top: "Convolution60"
  convolution_param {
    num_output: 255
    bias_term: false
    pad: 0
    kernel_size: 1
    stride: 1
    weight_filler {
      type: "msra"
    }
    bias_filler {
      type: "constant"
    }
  }
}
layer {
  name: "Pooling3"
  type: "Pooling"
  bottom: "Convolution60"
  top: "Pooling3"
  pooling_param {
    pool: AVE
    kernel_size: 2
    stride: 2
  }
}
layer {
  name: "Pooling4"
  type: "Pooling"
  bottom: "Pooling3"
  top: "Pooling4"
  pooling_param {
    pool: AVE
    global_pooling: true
  }
}
layer {
  name: "InnerProduct1"
  type: "InnerProduct"
  bottom: "Pooling4"
  top: "InnerProduct1"
  inner_product_param {
    num_output: 100
    bias_term: false
    weight_filler {
      type: "xavier"
    }
    bias_filler {
      type: "constant"
    }
  }
}
layer {
  name: "SoftmaxWithLoss1"
  type: "SoftmaxWithLoss"
  bottom: "InnerProduct1"
  bottom: "Data2"
  top: "SoftmaxWithLoss1"
}
layer {
  name: "Accuracy1"
  type: "Accuracy"
  bottom: "InnerProduct1"
  bottom: "Data2"
  top: "Accuracy1"
}
